mem-str-models/1l_learned_embed.pt (torch, 108222 bytes, 22 tensors)

embed.W_E f4 [128, 32]
000000 63 2b 81 3e 15 3d 9e bd b0 fa fd bd 62 bb 7a 3b
       0.25228414 -0.07726494 -0.124013305 0.0038258662
000010 78 7f 94 bd 17 a4 0b bd 4e 6d e5 bc 50 fd 7b 3d
       -0.07250875 -0.034092035 -0.028006222 0.061520875
000020 a8 41 d2 bc eb 2b 18 3d 3d ec 1c be 4b 03 85 3d
       -0.025666073 0.03715126 -0.15324493 0.06494769
000030 36 d3 1e 3e d7 2d ac bc cd 7b 2e bd 50 1a 1b be
       0.15510258 -0.021017952 -0.042598534 -0.15146756
000040 2f 4e 38 3d 09 c4 b7 3e bd 5d 38 be aa a4 02 be
       0.044996437 0.3589175 -0.18004508 -0.12758127
000050 2e e1 05 be 10 6e 18 be b0 4c ad bd 6f da 88 bd
       -0.1307418 -0.14885736 -0.084618926 -0.06682288
000060 03 10 9f be 8c 16 35 be b9 8f 5e 3c 45 a8 35 3e
       -0.31066903 -0.17684382 0.013584071 0.17739971
000070 f6 fe 90 be 2c 26 9f 3d c3 ba ac be 43 21 aa ba
       -0.2831952 0.077709526 -0.33736238 -0.0012979883
000080 70 a8 7c be 76 1c e0 bd 33 62 b8 bd f8 27 1d bd
       -0.24673629 -0.109429285 -0.09003105 -0.038368195
000090 3f 94 0f 3e 98 ad 91 bd 33 a1 93 3e c0 4f 0a 3e
       0.14021395 -0.071131885 0.28833923 0.13506985
0000a0 a3 35 7b be ab 42 18 3e 4a ee 96 3d 73 a8 88 3e
       -0.2453218 0.14869182 0.07369669 0.26691017
0000b0 35 c6 4c be 70 0e cd 3e 99 63 1e 3e ba 00 f5 bd
       -0.19997485 0.40050077 0.15467681 -0.11963029
0000c0 d5 c3 04 3e 7a e8 a4 bb b6 f9 6c be b0 95 26 be
       0.12965329 -0.005032596 -0.23142132 -0.16268039
0000d0 44 15 25 3e 4a 34 5a be a2 5f f6 bd 19 6e 0a be
       0.16121393 -0.21309009 -0.12029959 -0.13518561
0000e0 63 96 91 bd 1e 05 45 be 05 75 ed 3d fb 4e 1a bd
       -0.07108762 -0.19240233 0.11594585 -0.037672978
0000f0 a7 67 70 be 98 21 87 3d 4c 17 1e 3e 40 89 01 3f
       -0.2347704 0.065982044 0.15438575 0.5060005
000100 88 38 a4 bd e7 41 2b be 6b 78 d1 bc c0 a2 27 be
       -0.08018595 -0.16724358 -0.025570115 -0.16370678
000110 30 59 71 be f6 30 0e 3e c5 1c 3b 3d 41 c2 3c be
       -0.23569179 0.13885865 0.045681734 -0.18433477
000120 b5 d5 c2 bc ad 0e c0 3e 6f 34 81 3e 9d d7 4d 3d
       -0.023783544 0.37511197 0.25235316 0.050254453
000130 77 f9 bb 3d b5 73 1c bd ce 5d f9 3b 92 e3 02 3e
       0.09178441 -0.038196284 0.0076100593 0.12782124
000140 c3 2f d3 be c8 b5 9d 3d 61 7a 91 3c bc 31 53 be
       -0.41247377 0.07700688 0.01775855 -0.20624441
000150 5f 5a 35 be e7 38 51 bc ad 0b 18 be c3 90 32 3e
       -0.17710255 -0.012769914 -0.14848204 0.17438035
000160 30 ba f5 3d 95 71 b3 3e 8f 74 35 3b 2c c1 cd 3e
       0.11998403 0.35047594 0.0027687883 0.4018644
000170 73 5d 1c be 57 4c 1b 3d 72 73 08 be 6e 6b 96 be
       -0.15270023 0.0379146 -0.13325289 -0.29378837
000180 ff ab d8 be 7e 0c 50 3e a4 51 28 3e e8 e0 34 be
       -0.42318723 0.20317265 0.16437393 -0.1766392
000190 1e 63 2e 3d 83 04 57 bd 22 2b 94 3d 76 fb 8d 3d
       0.042574994 -0.052494537 0.072347894 0.06932728
0001a0 c5 ec be be 2f 29 bb 3e 3d c6 44 3d 65 dc c3 3d
       -0.37290016 0.36554858 0.048040617 0.09563521
0001b0 bc 6b b2 bd 03 91 48 3e ee b7 a0 bd 7b bb ee 3e
       -0.08711955 0.19586568 -0.07847582 0.4662741
0001c0 0c 29 f8 3d 3e b6 24 3d e5 16 01 be ef c6 86 3d
       0.12117204 0.040212862 -0.1260639 0.06580912
0001d0 d3 c8 c3 be 32 fe 2d be cd 9f 31 3c 1d f6 69 be
       -0.38239154 -0.16991499 0.010841322 -0.22847791
0001e0 12 9f 02 3e b4 1a 6e bc 5c dd 46 be 4c 97 8c bd
       0.12755993 -0.014532734 -0.1942038 -0.06864795
0001f0 44 3c e0 3b d9 26 4b be a3 59 8c bd a1 7a 8a 3d
       0.0068431217 -0.19839038 -0.06853034 0.06761671
000200 92 fc 58 3e 0b 89 2e bb 55 81 8f 3d c2 b4 63 be
       0.21190098 -0.0026631977 0.0700709 -0.22236922
000210 f0 dd fa bc e6 ec 97 3e 0d 1a 86 3e 80 a5 82 3d
       -0.030623406 0.29672927 0.2619175 0.06379223
000220 74 1c c3 ba 87 c9 9f be ea 5b 1c be d0 a9 d5 3d
       -0.0014885799 -0.3120844 -0.15269437 0.1043278
000230 af 1c 01 3d e3 62 45 be 72 dd a2 bd df d2 8e 3e
       0.031521495 -0.19276004 -0.079523936 0.27895257
000240 92 2f e2 3d b8 69 18 3c 8e 58 03 bf 5f 7e 22 3c
       0.110442296 0.009302549 -0.51307 0.0099178245
000250 13 09 a5 bd 14 7d 1d be 7c cb 2f 3e 71 2c b1 bd
       -0.080583714 -0.15379745 0.17167467 -0.08651055
000260 d7 62 cb bc ff 9f cd be 48 29 cd bc 49 20 9e bd
       -0.024827404 -0.4016113 -0.025044098 -0.07721002
000270 53 41 7b 3e 89 b5 72 3e 8c a8 64 bc 7d 4f 08 3e
       0.24536638 0.23702063 -0.0139562 0.13311572
000280 df 5f 0b be 19 50 2e be 90 fc 00 3e dd 3e e0 3d
       -0.1361079 -0.17022742 0.12596345 0.1094949
000290 75 51 20 3e b2 ad 0b bf 0c b3 b1 be 85 f7 9f bd
       0.15656073 -0.54561913 -0.34706914 -0.078108825
0002a0 52 e4 35 bd 40 a5 01 be 82 b4 5c bd 88 24 88 3e
       -0.044407196 -0.12660694 -0.053883083 0.2659037
0002b0 60 c9 11 3e c2 94 55 3e f6 93 d6 3d 0b 57 91 3d
       0.14236975 0.20857528 0.1047744 0.0709668
0002c0 d7 7e 1e be 72 ce 07 bc 17 25 a9 bd 11 05 b0 bd
       -0.15478073 -0.0082889665 -0.082590275 -0.08594716
0002d0 d5 ec a7 3d ac e3 39 3e f5 9e 77 3c 83 c1 9d 3e
       0.08199469 0.18153256 0.015113582 0.308117
0002e0 eb ad 83 3e f3 33 00 be 4c 77 84 3a 48 85 b3 3c
       0.25718626 -0.12519817 0.0010106354 0.02191414
0002f0 52 4b 94 3d 75 46 91 3e 69 6d 8c 3d 33 ef bd be
       0.07240929 0.28374067 0.06856806 -0.37096557
000300 fc 57 6f be 80 30 0c be a5 8f e8 3d d1 77 73 be
       -0.23373407 -0.13690376 0.11355523 -0.23776175
000310 5f c4 a7 bb 5f b6 93 3e 4b 0a eb 3d 0a 7e 9d bc
       -0.005119845 0.28850076 0.114765726 -0.01922514
000320 73 2f 74 3d 77 b7 92 3b ee ff 2b be 7b 8a 79 3d
       0.059615564 0.004477437 -0.16796848 0.06092308
000330 83 10 84 be 76 2b 9b 3e 37 8f f4 bc da 54 a3 3c
       -0.25793847 0.30306596 -0.029853446 0.019937921
000340 c7 6b a3 be 7f 66 5b 3d b1 09 07 3e 40 3b 9c 3e
       -0.31918165 0.053564545 0.1318729 0.30513954
000350 93 3c 45 3c fc c8 fa bd 60 6d f1 3d 4a 00 74 be
       0.012038368 -0.12245366 0.1178844 -0.23828235
000360 1d 93 bd bc ab 5d 04 3d 3c 12 14 bf 2c 8d 9d 3e
       -0.023141438 0.03231589 -0.57840323 0.30771768
000370 15 cb ac 3c 6f 0b 6f bd d9 84 a7 bd b6 19 c1 3d
       0.02109293 -0.058360513 -0.081796356 0.09428732
000380 fa 14 9c 3d ad a5 0f bd 0a 5e 04 be c9 cd 2e 3e
       0.076211885 -0.03507011 -0.12926498 0.17070688
000390 b6 1c 24 bc 86 f7 a2 3d 7b 74 9d 3e db 07 3f be
       -0.010016611 0.079573676 0.3075293 -0.1865534
0003a0 c7 b9 9f be fe 2b 63 3e 99 48 b2 be f5 f9 a1 be
       -0.31196424 0.2218475 -0.34821013 -0.31636015
0003b0 5d a1 4d 3d af 1a 74 be d4 45 cb be 01 36 5a 3d
       0.050202716 -0.23838304 -0.39701712 0.05327416
0003c0 2c 70 77 be 73 a6 71 3c 7c f5 02 bd f0 14 6d 3e
       -0.24163884 0.014749157 -0.031972393 0.23152518
0003d0 a7 29 b0 3d 9c 1e 0e 3b a7 7e 9c 3d b4 71 cf 3e
       0.086016946 0.0021685725 0.076413445 0.40516436
0003e0 88 32 01 3e 27 46 ba bd 55 de 7f 3e 5d d3 3d be
       0.12616932 -0.09095412 0.24987157 -0.1853766
0003f0 9c 00 8a 3d 22 34 a1 bc c5 5f 01 be d7 89 2b bc
       0.067383975 -0.01967818 -0.1263419 -0.010469875

pos_embed.W_pos f4 [128, 32]
000000 5a bb 81 3e f8 7e 9e bd ba bc f6 bd 29 88 41 3b
       0.2533825 -0.07739061 -0.120477155 0.002953062
000010 bf 73 91 bd 45 c3 05 bd d3 4f df bc be 80 79 3d
       -0.07102155 -0.032656927 -0.027259743 0.060913794
000020 aa ef c2 bc b6 3a 1d 3d 65 41 1c be 5d 59 7f 3d
       -0.023795921 0.03838607 -0.15259321 0.062341083
000030 1b 07 1f 3e b9 49 a7 bc b4 81 36 bd 89 70 1c be
       0.15530054 -0.020420896 -0.04455729 -0.15277304
000040 4a 8f 37 3d 73 0e b8 3e 56 af 3a be 66 0b 02 be
       0.044814385 0.35948524 -0.18230948 -0.1269966
000050 2a f9 04 be 0e 84 17 be 14 6d ab bd 44 7e 86 bd
       -0.12985674 -0.14796469 -0.083704144 -0.06567052
000060 69 3d 9f be 74 de 35 be 6f 22 50 3c 05 6c 34 3e
       -0.3110154 -0.1776064 0.012703522 0.17619331
000070 36 96 90 be d3 f1 a1 3d 5b 7a ac be b9 3b 3d ba
       -0.28239602 0.079074524 -0.336871 -0.0007218677
000080 96 30 e4 3d 59 e6 87 bf 0b 67 25 3e 35 5b 78 be
       0.111420795 -1.0617172 0.16152589 -0.24253543
000090 65 f3 32 be 6b 2f 47 be fa 0b 30 bf 14 20 ba be
       -0.1747566 -0.19451682 -0.68768275 -0.363526
0000a0 5e 0e 94 3c 1c 25 fb be 24 93 e3 be 53 39 0b be
       0.018073257 -0.4905175 -0.44448197 -0.13596086
0000b0 2a cd e0 be a0 c5 a9 3e 8d e9 81 3e e9 f7 54 bd
       -0.43906528 0.33158588 0.25373498 -0.051994238
0000c0 c5 fc b5 3c 99 f7 f8 3f 41 d2 32 3e 49 ee 4b be
       0.022215256 1.9450561 0.17463018 -0.19915117
0000d0 c4 0a a6 be d3 58 6d bf 4b cd 8e bf 42 3e 00 bf
       -0.3243009 -0.9271366 -1.11564 -0.50095
0000e0 14 2f 9d be 99 b3 11 bf 2a fa 0d 3f 50 b2 ea 3c
       -0.3069998 -0.5691467 0.55459845 0.02864948
0000f0 95 2f 12 bf 68 cd b4 3d d2 2c ae be 80 ea d1 be
       -0.57103854 0.08828241 -0.3401857 -0.40999222
000100 35 ef cf bd b6 b8 c2 be d6 bc 44 be 10 df ab bd
       -0.10153047 -0.38031548 -0.1921266 -0.08392155
000110 11 16 37 3e b6 6f b6 be d8 22 d3 be e3 69 6e be
       0.17879511 -0.35632104 -0.4123752 -0.2328258
000120 86 c9 b5 be e0 72 23 bd dc 08 83 be 82 4c d9 bd
       -0.35505313 -0.039904475 -0.25592697 -0.10610296
000130 fc 05 84 be 3f 34 97 be 9e 1a ea be 93 76 80 be
       -0.25785816 -0.29532048 -0.45723432 -0.25090465
000140 ea 81 2b 3d 97 2a 9e 3f 1c b6 c2 bd f8 8e 5a 3e
       0.041871943 1.2356747 -0.09507391 0.21343601
000150 2d c9 92 be 42 8b ee be 0b 7e 53 bc fb da 17 bd
       -0.2866911 -0.4659062 -0.012908469 -0.03707407
000160 34 b6 d1 bd 23 2e cd 3d 56 a1 06 bd 6c 22 66 3e
       -0.102398306 0.100185655 -0.032868706 0.22474068
000170 ce be 51 3e 80 c6 84 bc fe 66 8a be a0 75 a1 be
       0.20482942 -0.016207933 -0.27031702 -0.31535053
000180 c4 35 1d be 37 b4 99 bc 8c db c0 bd ae 61 b3 bd
       -0.15352541 -0.018762691 -0.09416875 -0.08758865
000190 69 20 cd 3b d1 14 f1 bd e0 6b 8b bd fa eb 10 be
       0.006259967 -0.117715485 -0.06807685 -0.14152518
0001a0 51 37 11 be 34 c6 14 be 8d d9 14 be 89 9e 0f be
       -0.14181258 -0.14528733 -0.14536114 -0.1402532
0001b0 cc d3 30 be f1 42 02 be cf 5e 6e bd eb 90 ec 3c
       -0.17268294 -0.12720849 -0.058195885 0.028877696
0001c0 5d 70 8e bd 69 05 4d 3f 42 83 e0 bc 77 b4 8d bb
       -0.06955025 0.8008638 -0.027406339 -0.0043244916
0001d0 cc 4b d5 bd 5d ee 9f 3c fc b8 6a 3c 66 b5 9c bd
       -0.10414848 0.01952284 0.01432633 -0.076517865
0001e0 2f 28 ea bc 25 6a e4 bc 3e f0 c4 bd 62 47 18 be
       -0.028583614 -0.027882645 -0.09616135 -0.1487098
0001f0 33 29 cc 3c 80 a4 02 be 32 c9 29 be 65 08 2e be
       0.024921989 -0.12758064 -0.16580656 -0.1699539
000200 e1 0d 15 be 98 89 46 bd d4 ff b9 bd 8b e1 23 bd
       -0.14556076 -0.048471063 -0.090819985 -0.040010016
000210 20 c4 e0 bc 02 47 83 bd 0a 50 ad bd 05 73 43 be
       -0.02743727 -0.06410028 -0.08462532 -0.19086845
000220 57 28 01 be 8a b4 06 be 1a 4f 00 be de e8 ed bd
       -0.12613045 -0.13154808 -0.12530175 -0.116166815
000230 a9 59 83 bd 58 82 de bd 91 ab 52 bd 2f 44 31 bd
       -0.06413586 -0.10864705 -0.05143315 -0.043277916
000240 60 c6 15 bd 29 42 44 3f 88 18 74 bd 3e 94 d7 bc
       -0.03656614 0.7666345 -0.059593707 -0.026315805
000250 31 8d 9f bd f5 69 da bb 8d a2 0d bd 8e 95 86 bd
       -0.07790602 -0.006665463 -0.03457885 -0.06571494
000260 68 89 bd bd 7a 47 37 bd df f6 a9 bd 23 5e 40 be
       -0.09254724 -0.0447459 -0.0829904 -0.1878591
000270 be 5c af 3b 1f fb 72 bd 2d f8 d3 bd 6d 3a 1b be
       0.005351632 -0.05932152 -0.1035007 -0.15159006
000280 41 6c 16 be 5e f8 b6 bd 65 22 88 bd d2 e8 41 bd
       -0.14689733 -0.08934091 -0.06647185 -0.047341175
000290 ba 25 da bb 83 29 59 bd 68 65 44 bd 61 4f 09 be
       -0.0066573294 -0.053018104 -0.04794827 -0.13409187
0002a0 b6 52 fa bd d1 af 1f be f2 07 a3 bd ee 4d fc bd
       -0.12222807 -0.15594412 -0.079605 -0.123195514
0002b0 77 34 f9 bd 7d 9d 4d bd 3c fb 1d bd cc ea 8f bd
       -0.1216821 -0.05019902 -0.038569674 -0.07027206
0002c0 8c b8 42 bd cf cf 31 3f 3c f8 7e bc b6 ae 53 bd
       -0.04753928 0.69457716 -0.015562113 -0.05168029
0002d0 8c 93 6a bd 90 e0 e7 bc 5a 19 26 3c 29 31 90 bd
       -0.057269618 -0.028305322 0.01013788 -0.070406266
0002e0 91 74 8c bd 29 b0 ab bd 60 6a 4a bd eb 19 3b be
       -0.06858171 -0.08383209 -0.049417853 -0.18271606
0002f0 53 dd 17 bd ca 8a e8 bd 46 bd e6 bd 16 bb 05 be
       -0.037076306 -0.11354597 -0.1126657 -0.13059649
000300 26 c2 24 be 72 57 68 bd 04 e7 b8 bd 50 51 4a bd
       -0.16089687 -0.05672402 -0.09028438 -0.049393952
000310 15 b8 23 bd 20 5f ee bd b3 19 67 bd 79 0e e8 bd
       -0.039970476 -0.116392374 -0.056420993 -0.113308854
000320 24 52 d5 bd e8 c5 d5 bd df 3a ac bd 21 0e 00 be
       -0.10416058 -0.10438138 -0.08409666 -0.1250539
000330 d9 eb e0 bd 0f 0b 3d bd 86 6e d6 bd 41 3f 29 bd
       -0.10982484 -0.046153124 -0.104702994 -0.04132009
000340 11 6f 9a bd 8f 17 27 3f 0c cc 01 bd 57 e7 88 bc
       -0.075407155 0.6527032 -0.031688735 -0.016711874
000350 a1 77 df bc 62 34 5d bb e5 aa 8b bc 63 f9 a6 bd
       -0.027278723 -0.0033753146 -0.017049262 -0.081530355
000360 2b 28 55 bd 66 dd c3 bd d6 06 7e bd 72 a3 24 be
       -0.05204026 -0.09563713 -0.062018238 -0.16077974
000370 7b 1e 48 3c 88 a9 e4 bd 02 85 f6 bd 7a b2 12 be
       0.012214298 -0.11165148 -0.12037088 -0.14325896
000380 0a 11 11 be a9 8a b3 bd 83 02 6b bd d0 33 8e bd
       -0.14166656 -0.08766682 -0.057375442 -0.06943476
000390 f9 e4 d2 bc 55 2b de bd d3 61 8e bd c4 bc e2 bd
       -0.025743948 -0.10848109 -0.06952252 -0.110711604
0003a0 a9 16 d5 bd a1 88 9a bd 12 60 b5 bd 6f 28 cf bd
       -0.10404713 -0.07545591 -0.088562146 -0.10115134
0003b0 e5 10 ff bd ff 2b f5 bc 8f 38 96 bd 0a eb 2b bd
       -0.12454394 -0.029928206 -0.073350064 -0.041972198
0003c0 7c 88 a7 bd 0a ef 1d 3f 5b 25 2f bd ef d0 8e bc
       -0.08180329 0.6169287 -0.042760234 -0.017433612
0003d0 44 e7 77 bc 4d 50 10 bd 2f 00 0a bd 65 eb 87 bd
       -0.015130822 -0.03523283 -0.03369158 -0.06636695
0003e0 66 42 40 bd 45 97 5c bd 9c 5b ac bc 69 e6 12 be
       -0.046938322 -0.0538552 -0.021039777 -0.14345707
0003f0 85 52 60 bd 2c bd c4 bd 8c b5 f7 bd 33 59 f3 bd
       -0.054766197 -0.09606394 -0.12095174 -0.11882248

blocks.0.ln1.w f4 [32]
000000 e3 52 16 3f f2 3e 4b 3f a8 47 30 3f 2c 09 20 3f
       0.58720225 0.7939292 0.6885934 0.62513995
000010 2f 5f 29 3f d9 83 3e 3f 18 7a 2f 3f 72 b8 47 3f
       0.66160864 0.74419934 0.68545675 0.78015816
000020 71 4b 18 3f 04 6b 47 3f 38 cb 30 3f 43 be 16 3f
       0.59490114 0.7789767 0.6906009 0.58884066
000030 0b 1a 18 3f eb 84 11 3f 42 94 42 3f 8d 85 22 3f
       0.5941474 0.5684344 0.76007473 0.6348503
000040 e0 36 16 3f 36 34 7f 3f c3 48 28 3f dc fd 37 3f
       0.5867748 0.9968904 0.65736026 0.71871734
000050 14 82 1f 3f c0 d9 2a 3f 30 80 41 3f 2f 6e 32 3f
       0.6230786 0.6673851 0.75586224 0.69699377
000060 b6 c4 36 3f 7e 56 29 3f 46 66 26 3f af 29 13 3f
       0.7139391 0.661476 0.64999807 0.5748548
000070 a2 2b 16 3f e2 8c 42 3f 68 7a c6 3e 6d 9e ff 3e
       0.5866033 0.7599622 0.38765264 0.49925557

blocks.0.ln1.b f4 [32]
000000 6f 84 3b be a2 19 a0 bb f3 7e 44 3c 0f db 44 bc
       -0.18312238 -0.004885868 0.011993158 -0.012015118
000010 33 34 66 bd b9 33 3a 3d 85 69 9f bc d9 88 6e bd
       -0.056202125 0.045459483 -0.019459495 -0.058235977
000020 b2 fa 84 bd c5 49 2a bd 69 b0 84 3d 1b 88 67 bd
       -0.06493129 -0.04157426 0.0647896 -0.056526285
000030 10 78 ce 3c 49 8c c4 bd d4 4e 79 3d 91 56 36 bc
       0.025203735 -0.0959707 0.060866192 -0.0111290375
000040 f6 19 e0 bc 88 26 a8 be 21 96 2d bd ee 0b cd 3d
       -0.02735613 -0.32841897 -0.042379502 0.10012041
000050 e0 2a 3b bd 1e db 83 3c 33 f0 41 3c fe 35 e1 bb
       -0.045695186 0.016095694 0.011837053 -0.0068728914
000060 a2 9a f3 3d be e1 44 3d b0 ce 7b 3d 5e 7f 03 be
       0.11894728 0.048066847 0.06147641 -0.12841555
000070 b3 3a 14 3e 08 77 b7 bc e7 bf e6 3d 5e 18 df 3d
       0.14475517 -0.022395626 0.11267071 0.108933195

blocks.0.attn.W_Q f4 [4, 32, 8]
000000 87 2b 32 3e 15 02 28 3d c9 f4 92 3c 11 e5 a8 be
       0.17399417 0.04101761 0.017938988 -0.32987264
000010 4a 1e 00 3e a7 55 bc 3e 2f e5 b0 3c 2e ed 59 be
       0.12511554 0.36784098 0.021593658 -0.21281883
000020 63 79 40 3e fd 8c 6b 3c 03 34 37 3d 0a 98 39 3e
       0.18796305 0.014376876 0.044727337 0.18124405
000030 bd 8e b7 bd cd 58 e2 bd f7 67 bc 3e c6 d4 78 be
       -0.08962772 -0.11052094 0.3679807 -0.24299917
000040 b9 2c 25 3e f3 cc 9f 3e af e7 ae 3e 33 de 4b be
       0.16130342 0.3121105 0.34161136 -0.19908981
000050 36 69 6a bd c7 6d 57 3e a6 17 b2 ba 52 bf a1 3e
       -0.057229243 0.2103797 -0.001358737 0.31591278
000060 4c 8f f4 3d 0a 04 f5 3b bc 40 d1 be 1f 77 51 3e
       0.11941394 0.007477288 -0.408697 0.20455597
000070 85 9c 14 bd ac 76 10 be 55 5f fe 3a f9 0c 9f 3e
       -0.03628208 -0.1410777 0.0019407073 0.31064585
000080 e8 e9 0a 3d 35 f5 45 bd 19 90 e1 3b 73 8c d0 3d
       0.033914477 -0.04832955 0.006883633 0.101830386
000090 b9 df 4a 3e 69 e0 f5 bc 68 f6 5f 3d aa b2 75 bc
       0.19811906 -0.030014234 0.05467835 -0.01499621
0000a0 4a e2 f0 3c de 28 b4 bd 16 77 fc bd 43 1f 26 3e
       0.029404778 -0.08796857 -0.12327401 0.16222863
0000b0 16 57 e8 3d 4e ec c4 bd 47 12 83 3d 19 db 15 be
       0.11344735 -0.09615384 0.063999705 -0.1463436
0000c0 01 75 e1 be 38 9c f9 bd a7 c5 3a 3e 88 c4 e3 3d
       -0.4403458 -0.121879995 0.18239461 0.1112147
0000d0 e9 5c 01 3e a2 36 8f be e0 ca d6 bc cb 30 3c 3e
       0.12633099 -0.2797137 -0.026219785 0.18377988
0000e0 ae bc 8e bd 4e 7f 90 bd fa 4f e0 bd e1 71 c3 3d
       -0.069695815 -0.070555314 -0.10952754 0.09543205
0000f0 05 e0 c3 3e 26 02 cd 3d d1 d6 f6 bb 5f ab c7 bd
       0.3825685 0.100101754 -0.0075329323 -0.09749483
000100 5a 5c d9 be e9 58 56 bc c8 33 9d 3d 1f 06 48 3e
       -0.4245327 -0.013082721 0.07675892 0.19533585
000110 ab ff b1 be 2f 0e df be 7c c0 56 3e 21 70 5c be
       -0.34765372 -0.4356551 0.20971864 -0.21527149
000120 99 a3 82 be ff 99 16 3e 50 46 c1 3c 39 a1 5b be
       -0.2551544 0.14707182 0.023593098 -0.2144822
000130 93 3e 07 bf e3 ce 32 3e 20 58 e3 3c 64 46 6d 3d
       -0.52829856 0.17461734 0.027751982 0.057928458
000140 0b f1 69 3e d3 8d d1 3c 31 6b bb be 9e e9 44 3e
       0.22845857 0.025580322 -0.36605218 0.19229743
000150 97 69 f2 3d cd b5 0e bd ba e3 e4 bd 71 2b 8c be
       0.11836546 -0.034841347 -0.11176248 -0.27376893
000160 6e 55 6a 3e 4e b4 7e 3e 47 c1 b4 bd c7 7c 3d 3e
       0.22884151 0.24873468 -0.08825927 0.1850463
000170 65 26 a2 3e ed 03 a8 3d 3f fd 0b be d7 97 ad 3e
       0.31669918 0.08203874 -0.13670824 0.33904907
000180 f4 ae 2d 3e be 26 9b 3e 1f 40 3e 3e 9f c0 9e 3e
       0.1696127 0.30302995 0.18579148 0.31006333
000190 fa fd 1c 3e 0c fb e8 bc 4f 00 f0 3d 8a b6 72 3e
       0.1533126 -0.028440021 0.11718809 0.23702446
0001a0 87 ce 88 bd 01 87 c1 be 6f 30 ab 3e 51 5c f7 be
       -0.06680017 -0.37798312 0.3343539 -0.4831262
0001b0 1c 15 2d be 60 41 8c 3e f2 1f 5a 3e b0 3c 84 be
       -0.16902584 0.27393627 0.21301249 -0.2582755
0001c0 be 8e db bc 86 98 37 be 95 57 61 3a a3 b3 b7 be
       -0.026801463 -0.17929277 0.00085961196 -0.3587924
0001d0 b1 f5 70 bd 28 a7 7b 3c 99 d1 16 be b9 a1 a3 be
       -0.05882806 0.015359677 -0.14728393 -0.31959322
0001e0 7d 16 f5 be d2 57 9b bd 17 c4 88 be e0 15 19 be
       -0.4786872 -0.0758511 -0.26712105 -0.14949751
0001f0 04 a8 56 3c f5 a1 f8 3c 51 a5 ab 3d 30 a4 8d be
       0.0131015815 0.030350665 0.08381141 -0.27664328
000200 1e e6 9c be 42 48 db bc 6a ee e4 3e b0 d5 7d bd
       -0.30644315 -0.026767854 0.44713145 -0.061971366
000210 6a f3 9a 3d 70 02 27 bc 50 79 a6 3d 28 2e b2 3d
       0.07565959 -0.010193452 0.08128607 0.0870021
000220 71 57 12 3e 46 3c fe bc f0 2a 5f bd c6 4b b0 3d
       0.14291169 -0.0310346 -0.054484308 0.08608203
000230 36 5e d4 3d 05 59 83 bd 8e 57 66 bd 99 5b 5c 3e
       0.10369532 -0.064134635 -0.056235842 0.21519317
000240 d5 62 f2 bd ee 48 f5 3d e3 7c 91 3d c4 e7 c3 bd
       -0.11835257 0.11976801 0.071038984 -0.0956569
000250 a9 c2 a2 3e fd b6 90 3e f1 68 23 be 50 2b 0c 3e
       0.3178914 0.2826461 -0.15958 0.13688397
000260 8f eb 5f bd 4e 9d 86 be 20 cd 21 be b7 2d 18 3d
       -0.054668006 -0.2629189 -0.15800905 0.037152972
000270 8c 23 af bd 4c e6 73 3d f0 e3 c7 3d 27 13 25 3e
       -0.08551702 0.0595458 0.097602725 0.16120587
000280 36 48 84 3e a1 c1 c3 3e f3 e2 46 3e 14 af cb 3c
       0.25836343 0.38233665 0.19422512 0.024863757
000290 74 1b 18 bd 17 e2 23 3d b9 e6 80 3d df 77 5d 3c
       -0.037135556 0.040010538 0.06294007 0.013517349
0002a0 0d 63 4e be c5 6d 72 3e 13 5e 42 be 27 90 0f be
       -0.20154972 0.23674686 -0.18981199 -0.14019834
0002b0 88 93 04 be 27 55 a1 3e 12 27 67 bd 64 fd fa bd
       -0.12946904 0.3151028 -0.056433745 -0.12255362
0002c0 49 c4 e1 3e 4d 44 48 be 23 80 63 3d 41 bb 4d 3e
       0.44095066 -0.19557305 0.055542123 0.20090963
0002d0 f8 04 f3 3e 94 e2 a9 be af 5f cd be 63 da 24 3e
       0.47464728 -0.33180678 -0.40112063 0.16098933
0002e0 7b 0d e1 3d 00 bf ba be 2e 23 f9 3d 85 5b 51 be
       0.10988899 -0.36473846 0.12164913 -0.20445068
0002f0 db 56 18 be 51 b4 d6 3e c8 4d 4a 3e f6 da 4c 3e
       -0.14876883 0.41934446 0.19756234 0.20005402
000300 7e d0 17 be 60 cf 16 3e ac a4 2f be b9 fb ff bd
       -0.14825627 0.14727545 -0.17152661 -0.12499184
000310 f9 6b b7 be d2 0f ab 3e d3 54 ef 3d cd bd 55 3e
       -0.35824564 0.33410507 0.11686101 0.20873185
000320 57 02 ce 3e 82 c0 46 3e 40 01 09 be c6 46 00 be
       0.4023616 0.19409373 -0.13379383 -0.12526998
000330 73 7a 16 be 86 40 28 be ca 14 c6 be ab d5 1a 3e
       -0.14695148 -0.16430864 -0.38687736 0.1512057
000340 83 7e ec 3d 0c 53 bc bd 0b 9d c1 3e e4 81 8c bd
       0.11547568 -0.091955274 0.37815127 -0.06860712
000350 88 61 58 3d 18 2f 83 be 32 2c ca be 3d 9d df 3d
       0.052827388 -0.25621867 -0.39486843 0.10918663
000360 a5 56 82 3d c0 0c 92 3e 66 b7 f4 bd 35 50 96 3e
       0.063641824 0.28525352 -0.11949043 0.29358068
000370 40 05 98 be 3b 80 73 be 10 98 03 3b a5 dd f1 3d
       -0.29691505 -0.23779385 0.002007965 0.118098535
000380 56 9a 9c be 52 48 a1 3e b7 63 f3 bd c7 58 4f be
       -0.305865 0.3150049 -0.118842535 -0.2024871
000390 19 5d 8d 3b d8 97 12 3d 5e 51 74 3b ea d2 0d bf
       0.0043140766 0.03578934 0.0037279944 -0.55399954
0003a0 ba 5c 6c 3e 49 2c a1 be cc 2b ab be 1e 26 a4 ba
       0.23082247 -0.314791 -0.33431852 -0.0012523567
0003b0 5b f4 2f be f3 52 8d be 77 6a 56 3d 49 f9 4b 3d
       -0.17183058 -0.27602348 0.052347627 0.049798284
0003c0 d3 e9 6f 3d 06 b5 d3 bd de 91 9f 3e 72 16 b3 3e
       0.0585726 -0.10337262 0.31165975 0.34978062
0003d0 1c 05 eb bd da 69 20 bf 35 54 27 bc da b6 89 be
       -0.11475584 -0.62661517 -0.010212948 -0.26897317
0003e0 d2 36 3e be ab 69 74 be ff 3e 5c be 0e 35 02 be
       -0.185756 -0.23868434 -0.21508406 -0.12715551
0003f0 f9 91 aa 3e 35 51 39 3e bd 16 19 3e c0 90 a0 bd
       0.33314493 0.18097384 0.1495008 -0.07840109

blocks.0.attn.W_K f4 [4, 32, 8]
000000 40 46 79 bd c3 69 8c 3d 1c 44 84 bd 61 56 92 3e
       -0.06085801 0.0685611 -0.06458303 0.28581527
000010 fd 9d 9f bd a4 a8 3e 3d bf 08 98 be f0 78 49 3d
       -0.07793806 0.046547547 -0.29694173 0.0491876
000020 da 25 0e bd 30 4a 1f 3e 3c 46 06 be c8 d5 e7 3d
       -0.034704067 0.15555644 -0.1311273 0.113200724
000030 d4 8f 51 be 2c 09 68 be f0 a2 b7 ba 13 36 ca 3c
       -0.20465022 -0.22659749 -0.0014010351 0.024683988
000040 68 3b 9e 3d 46 fc cc bc 24 d2 b7 3d 41 f0 cb bd
       0.077261746 -0.025022637 0.08975628 -0.09957934
000050 d0 16 43 3d 29 54 90 bc bb 3d 42 be f5 20 9e be
       0.047629178 -0.017618256 -0.18968861 -0.3088452
000060 3f 65 a9 be e2 a1 aa bd 1d 35 8e bd c9 bf b1 bc
       -0.33085057 -0.08331658 -0.06943724 -0.021697896
000070 48 b7 30 bb cc 52 14 bd 14 64 73 3e 8d a9 9f bd
       -0.0026964713 -0.036211774 0.23768646 -0.07796011
000080 59 c8 1c 3c 4f dd dc bd 88 d0 0b be cd ae 93 bd
       0.009569251 -0.10784399 -0.13653767 -0.07211075
000090 c2 08 43 3c 25 a9 2b be 74 cf dc 3d 2b df 1b bd
       0.0119039435 -0.16763742 0.10781756 -0.038054626
0000a0 60 1f 9c bd d1 3b 46 be 28 37 46 bd 92 e1 d4 3e
       -0.07623172 -0.19358756 -0.048392445 0.41578346
0000b0 6d 41 07 be a4 b9 ac 3e 7a 5f 5c bd e3 0b 94 bd
       -0.13208552 0.33735383 -0.05380199 -0.0722883
0000c0 c7 0d b5 bd d7 75 75 3d 00 db f7 3e 22 24 c9 3d
       -0.088405184 0.059926834 0.4840927 0.09821345
0000d0 d9 c3 84 bd d0 ec f7 be c8 e7 61 3d 11 f2 1a bc
       -0.064826675 -0.4842286 0.055152684 -0.009457127
0000e0 62 2c 93 3d c1 fd 3e 3e 2c cc 3c be e4 68 d7 3d
       0.071862 0.18651487 -0.1843726 0.10518053
0000f0 ac 21 27 be 94 32 8d 3d cd 61 e4 bc f2 99 87 3d
       -0.16321439 0.06894413 -0.027878666 0.066211596
000100 48 5d 33 3d 18 07 aa bd 83 3e 03 3b 04 11 e2 3d
       0.04379013 -0.08302134 0.0020026274 0.11038402
000110 82 45 07 be 31 8b 1b be 12 32 0e be a0 5b e9 bd
       -0.13210109 -0.15189816 -0.13886288 -0.11394429
000120 0c 8f b4 bd ae 05 8b be f3 93 97 be f8 72 91 be
       -0.088163465 -0.2715277 -0.29605064 -0.28408027
000130 75 fd bb 3e 34 3d df bd 5b 20 d6 3d fe 29 1e be
       0.3671681 -0.109003454 0.1045539 -0.15445706
000140 34 22 cf be 3c a9 20 3e dc 21 c8 3c e7 1b a2 be
       -0.40455782 0.15689558 0.024430208 -0.31661913
000150 28 c1 8f 3e 87 99 0b 3e b2 08 5e 3e 48 72 57 3e
       0.28077054 0.13632785 0.21683004 0.21039689
000160 07 e0 e8 bc 9e d0 e4 bd 4a 14 6e 3e 23 d4 50 3e
       -0.028427137 -0.11172603 0.23249927 0.20393424
000170 65 77 7d 3d bf 2c 6f 3e d9 05 3c be 66 db cd 3d
       0.06188144 0.23356913 -0.18361606 0.100516126
000180 b3 b4 51 3d 42 04 b5 bd 58 3c d3 be cc 54 db bd
       0.05119772 -0.08838703 -0.41256976 -0.10709533
000190 c2 24 db 3c 4e df 28 3e 76 82 d8 3d a9 85 1c bd
       0.026750926 0.16491434 0.105717584 -0.038213406
0001a0 e9 8b a4 bd b0 a4 f2 3d 19 da df be 5e d8 ab 3d
       -0.08034498 0.11847818 -0.43721083 0.08390878
0001b0 ec 64 a1 bd b7 03 af be ee b6 ef 3c 1d 56 5c be
       -0.078805774 -0.34182522 0.029262032 -0.21517225
0001c0 18 a4 ba 3d b3 98 cb 3e 4f c5 8d 3d c9 ae 8f be
       0.0911333 0.39764938 0.06922399 -0.28063038
0001d0 d2 a0 ad bd ce e6 2a 3e a3 54 af bc 57 73 aa 3d
       -0.0847794 0.16689608 -0.021402663 0.083227806
0001e0 66 81 08 3e 01 b7 8c 3d ef 43 86 3e 9d 19 01 be
       0.13330612 0.06870843 0.26223704 -0.12607427
0001f0 f5 9e b1 bd e8 fa e4 3d 82 0b 9b 3d a5 f8 3b 3d
       -0.08672897 0.11180669 0.07570554 0.045891423
000200 48 88 06 be 7a 7a 64 3d d9 68 cc 3d fe 15 f7 3e
       -0.13137925 0.055780865 0.099809356 0.48258966
000210 65 57 f1 3c 95 a5 40 3c 10 8a 22 be 6c 5d 18 3e
       0.029460618 0.011758228 -0.15872979 0.14879388
000220 e2 cc 9b 3f 98 2c 37 3f a7 62 0f bf 1e 85 81 bf
       1.21719 0.7155242 -0.56009907 -1.0118749
000230 f1 59 ba 3f 20 77 80 bf e7 82 2d 3f 82 d0 9c 3f
       1.4558698 -1.0036354 0.67777866 1.2251132
000240 a1 cd b3 3c 9d 8e a2 be 8e 2c 9c 3e 19 4b 88 bc
       0.021948637 -0.3174943 0.30502743 -0.016637372
000250 6c e4 ab bd 97 29 16 3e 92 60 75 bd c2 3b 0a be
       -0.083931774 0.14664303 -0.05990655 -0.13499358
000260 a2 70 19 3d c0 a7 3b bc 84 81 84 bd 6f 7c b5 3c
       0.03746093 -0.011453569 -0.06470016 0.022154061
000270 4c 40 73 3a 4c 52 ec 3b 58 e8 47 bd f0 44 86 be
       0.00092792953 0.007211959 -0.048805565 -0.2622447
000280 28 e4 d6 3c ac 33 b5 bc 04 f5 05 3c 38 ba 12 be
       0.02623184 -0.022119366 0.008176092 -0.1432885
000290 35 f4 51 be 04 f1 85 3e f3 95 2c be 09 8e d2 3d
       -0.20503314 0.26160443 -0.16854076 0.10280997
0002a0 5a 90 e5 bd fc c9 6a 3e ed 62 56 be 79 bd 09 3e
       -0.112091735 0.22928613 -0.20936175 0.13451184
0002b0 7b 67 dd bb e9 82 0a be aa 84 fc 3d f8 6c 6a 3c
       -0.0067567206 -0.13526501 0.12329991 0.014308207
0002c0 f9 8c 2e 3e 25 ad a4 be d9 6a 37 be 82 09 99 be
       0.17045964 -0.3216335 -0.17911853 -0.29890066
0002d0 91 b7 94 be 1a 93 c0 be ba 3f c6 3e 71 bb 2c 3e
       -0.290463 -0.3761223 0.38720495 0.16868378
0002e0 38 ec 28 3c 42 e4 1b be 7e e1 8d bd 21 db fc 3d
       0.010310225 -0.15223792 -0.06927775 0.12346483
0002f0 88 8f 32 3a 68 a4 42 3d 02 8b 63 be dd 11 35 be
       0.0006811549 0.04752007 -0.22220996 -0.17682596
000300 65 a8 2d bd 9a 26 f7 bc 8c e7 d8 3d b9 93 2c be
       -0.04239692 -0.030169774 0.10591039 -0.16853227
000310 67 9c a7 3d b1 af 85 3d 2f f1 9d 3e 24 de 34 bd
       0.08184128 0.06527651 0.3084807 -0.044157162
000320 42 31 49 be c7 e8 02 bf 0f 2f 8e 3d 16 63 cf bc
       -0.19647697 -0.5113644 0.069425695 -0.025315803
000330 e0 45 84 be eb 40 ed 3d 5b a6 05 3e 19 be 06 3e
       -0.2583456 0.11584648 0.13051741 0.13158454
000340 ab dc 9a 3d cb 04 45 3c c1 d9 ce 3d 94 6a 73 3e
       0.0756162 0.0120250685 0.10100127 0.23771125
000350 72 57 fd 3d e4 94 b0 bc b3 89 04 3d 89 1a f8 bd
       0.123701945 -0.021555372 0.032357883 -0.12114436
000360 19 4b 20 3d 48 13 85 bd 46 58 8f 3e 73 d3 1f 3c
       0.03913412 -0.06497818 0.27997035 0.009755003
000370 67 78 5d 3e ab 76 51 be 8a 8c a7 3c d2 c4 cd 3d
       0.21627961 -0.20455424 0.020452756 0.10047306
000380 d7 96 c4 3d 89 57 7c 3b c0 2d a3 3d 12 5a 89 3e
       0.09599083 0.0038504323 0.079677105 0.2682653
000390 86 f3 2b be 58 22 b6 3d 26 0b fd bd 42 d3 3f be
       -0.16792116 0.08893269 -0.12355642 -0.18732932
0003a0 e6 cb 0b 3e 1b 24 fc 3d 52 a8 e8 3d ce 4f cd 3d
       0.13652 0.12311574 0.113602296 0.10024987
0003b0 21 76 bb bc c1 7d 34 3e 0c 81 ea 3d dd 3d 82 3d
       -0.022883477 0.17626096 0.11450395 0.06359456
0003c0 3f b0 1b bd 14 e8 0e 3d 70 4a 2f bd 8c 02 37 be
       -0.03800988 0.034889296 -0.0427956 -0.17872065
0003d0 a4 0b da 3d 18 60 98 3d 4b 29 89 be c0 37 30 3e
       0.106467515 0.074402034 -0.26789317 0.17208767
0003e0 57 f0 a3 3b 65 1a 4f 3e e2 29 22 3e a5 ae 3b be
       0.005003016 0.20224912 0.1583629 -0.1832834
0003f0 75 31 de bd 2c f8 b7 3d c4 b8 82 be e5 40 bf 3b
       -0.10849277 0.08982882 -0.2553159 0.0058365935

blocks.0.attn.W_V f4 [4, 32, 8]
000000 88 f1 0e 3f 27 b7 22 bf 1a 9c a5 3d 2a 77 cc 3e
       0.558373 -0.6356072 0.08086415 0.39934665
000010 c5 3d 9d 3e fd 49 bf 3e c6 55 47 3e 33 92 de bd
       0.3071119 0.37361136 0.19466314 -0.10867729
000020 8d cf 36 bf e0 e8 cd 3d f8 3b 19 bd 5c 98 a1 be
       -0.7141045 0.10054183 -0.037410706 -0.31561553
000030 e5 7a d3 be 39 b5 c2 3e e2 21 94 bc 8c 6c 37 be
       -0.413047 0.38028887 -0.018082563 -0.17912501
000040 96 d9 9d be e4 13 9f be 2c 1f 48 be 0a 1b 4d 3e
       -0.30830067 -0.31069863 -0.19543141 0.20029846
000050 21 e9 b5 3d b8 30 6d 3e 72 79 06 bf 9d 34 80 3d
       0.088823564 0.23163116 -0.5252906 0.06260035
000060 ee 09 5f bd 6c 98 93 3e 26 1a bc be 2d 50 49 3f
       -0.05445283 0.28827226 -0.367387 0.78637964
000070 90 9a 56 3e c2 3e 36 be d3 19 ab be 71 a4 5b be
       0.20957398 -0.17797378 -0.3341814 -0.21449448
000080 35 fb fc 3a df 12 2e 3f 70 cf ab be 4e e3 34 3f
       0.001930094 0.67997545 -0.335567 0.7065934
000090 60 5e 3b 3e 00 84 bb bd 59 8d 72 be 7a 0d 8c 3e
       0.1829772 -0.091560364 -0.23686732 0.27354032
0000a0 cc 16 96 be 83 d8 61 3e 2d 30 f1 3e 12 98 3c be
       -0.29314268 0.22055249 0.47107068 -0.18417385
0000b0 1e 91 e8 3d b9 9d 09 be e2 b6 4e 3e e7 b0 b8 3e
       0.11355804 -0.13439073 0.20186952 0.36072466
0000c0 2b 7e 09 bf 4b c3 10 3f 14 a4 44 be 2f f6 1d be
       -0.5370814 0.56547993 -0.19203216 -0.15425943
0000d0 00 bd 0d 3e 0e aa d0 3e 1c af 33 be 65 c5 a2 be
       0.13841629 0.4075474 -0.17547268 -0.31791225
0000e0 8b 9b b0 bc bb f8 2d 3e 5d 41 b2 be 5a 4d 6a be
       -0.021558544 0.16989414 -0.34815493 -0.2288107
0000f0 55 d9 8f be 7d 12 a5 3e 58 81 08 3e d4 2b c2 3e
       -0.280955 0.32240668 0.1333059 0.37924063
000100 cd 2b 4e be ba d5 84 bd 2f 01 98 bd f0 de 9e bd
       -0.20133896 -0.064860776 -0.07422101 -0.07757366
000110 88 09 d4 3e e8 bb 14 bf dc 76 59 3e fb b1 cc be
       0.41413522 -0.5809922 0.21236748 -0.39979538
000120 fb 0b 23 3f fd b7 2d 3d 2f ab 8a 3e 50 21 8a be
       0.63690156 0.042411793 0.27083728 -0.2697854
000130 e8 ef ce be 19 95 5f bd e7 e9 af be ae d0 a0 3e
       -0.4041741 -0.05458555 -0.3435814 0.3140921
000140 07 f0 3a be 05 1a 32 3e d5 cc 3f 3d 80 b0 db 3e
       -0.18255626 0.17392738 0.046826202 0.42908096
000150 01 5b 77 3d 2f ed f4 3e 7b bb 57 be 1e 5d ae be
       0.060389522 0.47837207 -0.21067612 -0.34055418
000160 f4 f8 8e 3e 85 ee ab bd 09 03 a3 be 0e 25 24 be
       0.2792431 -0.08395103 -0.31838253 -0.1602976
000170 1d 92 a6 3c cf c3 da be 9e ac 9c bc 5b c1 90 bd
       0.020333344 -0.42727515 -0.019125279 -0.0706813
000180 5f f2 e5 3d 22 27 86 bd fa 05 db be 65 6c 8b be
       0.11227869 -0.06550433 -0.42777997 -0.27231136
000190 b0 8c 04 3e 6c 9d 6b be 3f d3 a8 3d c0 a0 c8 bd
       0.12944293 -0.2300927 0.08243417 -0.09796286
0001a0 21 a6 71 bd 70 40 0d be 48 b6 18 3e 63 b8 4d be
       -0.058996323 -0.13794112 0.14913285 -0.20089869
0001b0 cd 49 71 bd 87 a3 c4 bc 32 0b d0 bc 3e c7 32 3d
       -0.058908273 -0.024003757 -0.025395963 0.043647043
0001c0 f7 7d 0d be a4 1e 9a 3d 7f 58 d1 3e 14 7a d7 bd
       -0.13817583 0.075253755 0.4088783 -0.105213314
0001d0 65 07 02 be f6 0b ab 3e 5b 08 e6 3e 2d 12 30 be
       -0.12698133 0.33407563 0.4492825 -0.17194434
0001e0 9c de 2a 3e d8 6c d6 be 5b 7a 92 3e ab 07 30 be
       0.16686481 -0.41879916 0.28608975 -0.17190425
0001f0 d3 24 90 be 9a ee 63 3e 93 ef 80 bf 28 2c ca 3c
       -0.28153095 0.22258988 -1.0073112 0.024679258
000200 16 81 89 3e 3a 8f 70 3e 92 21 c2 bd d9 29 61 bd
       0.26856297 0.23492137 -0.09479059 -0.05497155
000210 d0 85 26 be 3c 7a de bd 1e cd fa bd 6b 09 2f bf
       -0.16261983 -0.10863158 -0.12246154 -0.68373746
000220 91 bb a0 bc f1 90 8c 3c de 63 81 bd 5c ad 88 bc
       -0.019620689 0.017158957 -0.06317876 -0.016684227
000230 b8 0f 42 3d a8 e1 21 bd a9 6d ce 3d 49 fc e1 3d
       0.04737827 -0.039521843 0.1007951 0.11034448
000240 3a 46 31 be 62 d4 a1 be 41 e0 95 3e 73 46 99 3d
       -0.17311946 -0.31607348 0.29272655 0.0748414
000250 a8 f1 f0 bc b7 0b b3 3d fa 6e 5d bb 6f cc aa 3e
       -0.029412106 0.08742469 -0.003378807 0.33359095
000260 bd 21 17 bf 20 63 95 be 4b 7f 2d 3f c4 54 e1 3d
       -0.59035856 -0.2917719 0.6777236 0.11002496
000270 f4 78 87 3d e6 92 11 bf 83 00 09 be e9 58 cc be
       0.06614867 -0.56864774 -0.13379101 -0.39911583
000280 ed ea 9d 3e 67 02 41 3e 1f b9 e9 be 86 61 3e be
       0.30843297 0.18848573 -0.4564905 -0.1859189
000290 d7 31 da 3e dd bd 89 bc c5 a0 ff 3e 0f 5c ed 3d
       0.4261615 -0.016814167 0.49927345 0.115898244
0002a0 42 b8 70 be f7 98 77 3c 9e bf 87 3e b0 b4 de 3e
       -0.23507789 0.015112153 0.2651338 0.4349723
0002b0 47 6a 3b be 56 65 0a 3e d2 ed 42 3e 23 f7 fd bd
       -0.1830226 0.13515219 0.19036034 -0.12400653
0002c0 4c 8b 70 3d 91 69 84 bd 89 74 c6 bd 82 98 ac be
       0.058726594 -0.06465448 -0.09690196 -0.33710104
0002d0 36 ca a3 be 01 ec f9 be 96 8d 29 3e 24 01 37 3d
       -0.31990212 -0.4881287 0.16557917 0.044678822
0002e0 83 8f f9 3e 14 63 a4 be bb 8e 73 be 14 d9 c1 bd
       0.48742303 -0.3210684 -0.23784916 -0.094652325
0002f0 a1 0f 15 3f 00 2f 39 3e c4 34 e2 be 8c b0 dd be
       0.5822697 0.18084335 -0.44180882 -0.43298757
000300 ae de db be 38 b4 52 bf e7 48 38 bf b1 08 9e 3e
       -0.4294333 -0.8230624 -0.7198624 0.30866006
000310 9f 82 34 be 09 80 6b 3e 24 a0 ff 3d 8b 21 aa 3e
       -0.17627953 0.2299806 0.12481716 0.33228716
000320 a4 60 a9 3c 15 27 15 3e 6e 55 7c bd 6f d0 ab be
       0.020675965 0.1456569 -0.06160491 -0.3355746
000330 bf ab a8 be dc e4 1c 3e ed 27 c0 3d 7a fb e8 bd
       -0.32943532 0.15321678 0.09382615 -0.1137609
000340 d9 d6 86 3d 86 cc 47 3f 92 c2 62 3e 14 4c fb be
       0.06583948 0.78046453 0.22144535 -0.4908148
000350 73 4f c5 3e 98 54 6e 3d aa 6d 0f 3f 32 63 1a 3e
       0.38537177 0.058186144 0.5602671 0.15076903
000360 4d b3 d4 3a 89 b7 da be ed 96 71 3e 52 b6 03 be
       0.0016227752 -0.4271815 0.2359273 -0.12862518
000370 b3 ec 15 3e c1 96 f7 bd d9 99 a7 be c8 09 75 be
       0.14641075 -0.12089301 -0.32734564 -0.23929513
000380 32 09 f6 3e 77 d7 83 bb e0 ac 23 3e bd ae 25 be
       0.4805389 -0.004023488 0.15983915 -0.16179939
000390 37 c3 07 3e 8c 31 49 3e 1a 2b 55 3e 11 76 5f bd
       0.13258062 0.19647807 0.20817223 -0.054555956
0003a0 ea ab d7 be 49 8c 13 be 04 b1 1f 3d b8 e2 fa 3e
       -0.42123348 -0.14408983 0.038987175 0.49001098
0003b0 8e a9 47 be dd fe e0 be 6b 21 a6 3d 39 b7 c5 3e
       -0.19498274 -0.43944445 0.08111843 0.3861635
0003c0 bc 7e 9e 3e 1d 9f b1 3e ed 68 5b 3e e1 b4 ed 3d
       0.30956066 0.34691706 0.21426745 0.116067655
0003d0 85 22 9e 3d 7c a1 83 be e2 f4 50 be e3 42 d6 3e
       0.07721428 -0.2570914 -0.20405915 0.41847906
0003e0 0c d8 e4 3e 0a 17 83 3e 18 13 99 3e e6 5c 9c 3e
       0.4469608 0.25603515 0.2989738 0.30539626
0003f0 1a 1a d7 be a4 9c a9 3e 2d c3 a7 3e 1d 58 29 3e
       -0.420121 0.3312732 0.32766095 0.16537519

blocks.0.attn.W_O f4 [4, 8, 32]
000000 ab 3b c8 bd 75 78 64 3f 27 e6 a1 3e 46 61 8a be
       -0.09777006 0.892463 0.31620905 -0.2702734
000010 3f cd 19 3e 4e a6 5a be b4 d3 34 3f 1b f6 73 3c
       0.15019701 -0.21352503 0.70635533 0.014890219
000020 97 f6 a8 3e 7a bf 58 3e 0b 17 77 be 0f 54 05 be
       0.33000633 0.21166793 -0.24129884 -0.13020347
000030 4e b9 b8 bd 33 83 f4 3c 97 65 67 bc c4 14 92 be
       -0.09019719 0.029847717 -0.014123342 -0.28531468
000040 0f 5c f8 3d b8 a8 b4 be 18 13 5b bd 3f a9 1c bf
       0.12126934 -0.35284972 -0.053485006 -0.6119575
000050 4c 57 31 3f 1d 3b b1 bd 61 cc f3 bb c8 32 a5 bc
       0.6927383 -0.08653853 -0.0074401353 -0.020165816
000060 66 c1 12 3d b4 82 27 be 2e c6 68 bd c1 94 16 3e
       0.03582897 -0.16358453 -0.056829624 0.14705183
000070 00 7e 94 bc 6f 22 65 3e 13 57 c3 3b 16 b1 09 bf
       -0.018126488 0.22376417 0.005961308 -0.53785837
000080 57 09 90 3c 1c d7 5a 3e 4b eb 03 3e 11 66 37 be
       0.017582579 0.2137112 0.12882726 -0.17910029
000090 85 f1 0e bf 28 6b 12 be e1 9b 44 bf ab 92 9c 3d
       -0.5583728 -0.1429869 -0.7680035 0.07645162
0000a0 fe bd 3d be 9d 08 3a 3d 2e 37 c0 3e cb 3e 99 3c
       -0.18529508 0.04541837 0.375421 0.0187067
0000b0 c1 78 8a 3d e6 fe 6f 3e 6a 97 8d 3f 15 c1 c3 bd
       0.06761313 0.2343708 1.1061833 -0.09558312
0000c0 81 c4 28 bd 4b 4f 5d 3d a3 83 61 3d b4 b2 66 bf
       -0.041203026 0.054030698 0.05505718 -0.9011643
0000d0 84 c2 53 3e 17 30 15 be 8f bd 81 bc 09 f1 bd 3e
       0.2067967 -0.14569126 -0.015837459 0.37097958
0000e0 eb 9a fc 3e 50 d2 54 3e 8a 8d a7 be b4 1a 0b bf
       0.49336943 0.20783353 -0.32725173 -0.5433762
0000f0 ee 7d 22 3e 0e a4 8a be ce 70 9c bc 29 fe 1b be
       0.15868351 -0.2707829 -0.019096758 -0.15233673
000100 e5 30 a6 be 61 6c 23 bf 94 67 90 3e e9 6e f5 3d
       -0.3245918 -0.6383725 0.28204024 0.11984045
000110 d0 52 b2 3d ae 80 56 be ab bb 00 3e ed 0d 36 3e
       0.087072015 -0.20947525 0.1257159 0.1777875
000120 6d 2c 0b 3d fe 53 a9 bc 15 3d 34 be 19 34 2e be
       0.033977915 -0.020669933 -0.17601426 -0.17012061
000130 d8 81 ba bd f8 c3 fb be 9f 7a 0a be 79 3b 0c 3f
       -0.09106797 -0.4917295 -0.13523339 0.5477825
000140 84 e5 bf be 88 d4 d4 3e 8a c7 bd be 16 82 4b bf
       -0.37479794 0.41568398 -0.370663 -0.7949537
000150 8e 8b be 3e 2f b2 c7 3d 64 60 2b 3d cc d7 bb 3e
       0.37215847 0.09750783 0.041839972 0.36688077
000160 91 c7 00 3e 53 fc 66 3e 62 ad dc be 99 a8 09 3d
       0.12576129 0.22557192 -0.4310103 0.033608053
000170 44 d0 4c bd f2 fc a7 3e d0 b3 c8 3c 19 95 44 3d
       -0.050003305 0.3281017 0.024499804 0.047993753
000180 bd 4f 0f 3e b3 c4 6d be 1f 21 1d be 4e 52 e6 bd
       0.13995261 -0.23219566 -0.15344666 -0.11246167
000190 11 35 1a bf 7a ab 91 be 18 10 24 bf 3d 30 2c be
       -0.6023722 -0.2845114 -0.6408706 -0.16815276
0001a0 2f 2d 06 3e 75 e7 9c ba dc db 95 be cc d6 33 bc
       0.13103174 -0.0011970835 -0.29269302 -0.010976505
0001b0 7b 4c e4 bc 5a d9 1f 3e 2f 01 13 bf 4a 69 99 be
       -0.0278685 0.15610257 -0.5742368 -0.29963142
0001c0 69 5f 0e bf c2 b9 63 3d 7b b3 88 bd e5 b7 3a 3f
       -0.55614334 0.055597074 -0.06674858 0.7293685
0001d0 3f f0 ac 3e dc 54 a7 3d 80 ed 33 3e a1 1c e9 3d
       0.33777043 0.081704825 0.17571068 0.11382414
0001e0 7c e7 a3 3e d8 da ac 3e 3c e7 14 3f fc 65 02 3e
       0.32012546 0.33760715 0.58165336 0.12734216
0001f0 ec cf 0f be aa ef 20 3e 23 01 05 3e 07 e1 94 be
       -0.1404416 0.15716425 0.12988715 -0.29077932
000200 cb 4f 45 3d 49 b7 97 3e bf fa a8 bd 8b 42 2f bd
       0.0481718 0.29632023 -0.08250951 -0.04278807
000210 57 6d 84 bd f2 bb cb be 0d 89 71 3e bb bf 59 3e
       -0.064661674 -0.39791828 0.23587437 0.21264546
000220 2e f3 f2 3d 75 fe fb 3c de cd 71 be 58 e5 fa 3c
       0.11862789 0.030760983 -0.23613688 0.030626938
000230 81 8e 87 be fd e4 d7 3e e9 e9 9f 3e 0c ca e2 bd
       -0.2647591 0.42166892 0.31233147 -0.11073694
000240 ba 8a 06 3d f6 ec 67 bd b1 37 6f be 2e d6 1d 3f
       0.032847144 -0.056622468 -0.23361088 0.6165494
000250 9b af ef bd f6 8c 63 bd 57 85 d2 bd 11 93 99 be
       -0.11703416 -0.055554353 -0.10279339 -0.29995015
000260 a6 9c 4a 3f 64 6a e0 3b 70 19 15 bf c9 bb 81 be
       0.79145277 0.0068486203 -0.5824194 -0.2533858
000270 4f d7 f8 3c 03 c0 87 3d ca e2 de be 33 2e 84 3e
       0.030376105 0.0662842 -0.435324 0.25816497
000280 a9 0c 82 3d 76 37 11 3f fc fa 2a bc 99 61 48 bd
       0.06350071 0.5672525 -0.010435816 -0.0489212
000290 02 89 35 3f e2 0e 11 3f 7c 43 bc be 71 d1 86 3c
       0.7091218 0.56663334 -0.36770236 0.016457291
0002a0 17 5d 1e 3e 92 f3 53 be 20 a2 4c be 88 01 10 be
       0.15465198 -0.20698383 -0.19983721 -0.14063084
0002b0 ff 6e b0 3d a8 ac 50 3e 08 c1 fd bb 36 56 dc 3a
       0.08614921 0.20378363 -0.0077439584 0.0016810361
0002c0 4d 8c ad be 8b 90 4b 3d ad 5e ea be 2c a2 5a 3d
       -0.33896104 0.049698394 -0.45775357 0.053377315
0002d0 2f c8 6e 3c cf 5a ad be d1 fd 6f 3d 53 d6 01 3e
       0.014574095 -0.33858344 0.058591668 0.12679414
0002e0 c5 88 03 bf b7 91 5e bd 27 5e 74 3e 8c a4 13 bf
       -0.5138057 -0.054338183 0.23864041 -0.57672954
0002f0 2f 25 2e bd 42 eb e3 3e cf 43 ca 3e 4b 4e 73 be
       -0.04251593 0.44515425 0.3950486 -0.23760335
000300 21 c2 94 be 55 0f 05 bf c6 97 c5 be 7e 4e 18 be
       -0.2905436 -0.5197652 -0.38592356 -0.14873692
000310 ac 64 02 bf 77 e8 5c bb 29 c0 c9 3e 02 6c 9f 3e
       -0.50934863 -0.0033707896 0.3940442 0.3113709
000320 a1 c6 d0 3d 35 8e 83 bd 5e 0b ac bd ae 2c 14 3e
       0.101941355 -0.06423608 -0.084006056 0.14470169
000330 3c 8c 36 3d 88 78 bd 3e c8 bd 1b 3f 55 39 29 be
       0.04456733 0.3700602 0.6083646 -0.16525777
000340 8c 08 3e 3e 61 c5 38 be ab df 1f be 04 7a dd bd
       0.18557948 -0.18044044 -0.15612666 -0.10814288
000350 4c 18 12 be 85 a7 eb 3d 1b eb b8 3d 0d 9b 49 3f
       -0.14267081 0.11506561 0.09029218 0.78752214
000360 4d ca e0 be 0c 2c 53 3d 80 3e ae bd 05 14 e8 be
       -0.43904343 0.05155568 -0.08508015 -0.45327774
000370 98 0b 8b 3d c9 4b fc 3d 39 ea fd bb d4 f9 36 3e
       0.06789321 0.12319142 -0.007748869 0.1786874
000380 8e b3 1e bf 27 0d db be 4c 21 14 be 4f cd 42 3e
       -0.6199273 -0.42783472 -0.14465827 0.19023632
000390 0f 85 54 be 76 ce 34 3f e2 33 89 3d c8 58 f3 bd
       -0.20753883 0.70627534 0.06699349 -0.11882168
0003a0 78 9a de 3e f7 9c 20 3e cc 65 77 bd ba 58 bc bb
       0.43477225 0.15684877 -0.060399815 -0.0057478817
0003b0 7a 24 82 3d 52 5f 4e be 8e 77 44 3e a4 6b 7f 3d
       0.063546136 -0.2015355 0.19186231 0.062358513
0003c0 f4 98 31 3e 0a 45 8d be e2 23 86 be 72 69 92 be
       0.17343503 -0.27591735 -0.2619925 -0.28596073
0003d0 5a 21 d6 3d 4e c1 32 3d a0 de a7 bb b1 44 73 be
       0.1045558 0.04364138 -0.0051229745 -0.23756672
0003e0 49 2e 8d 3e cc a0 56 3e 05 d1 12 3f 31 10 f2 be
       0.27574375 0.20959777 0.5735019 -0.47277978
0003f0 00 22 14 be 75 0f 18 be b6 36 e4 3d f1 d2 2c be
       -0.14466095 -0.14849646 0.11143248 -0.16877343

blocks.0.attn.b_Q f4 [4, 8]
000000 d8 d8 d7 be ac 19 c7 be 2a 6b ad 3e 24 d0 8f 3f
       -0.42157626 -0.38886774 0.33870822 1.1235394
000010 bf 36 6c bf 2f fb 45 3f 3c c0 0d bf 15 46 28 bf
       -0.92271036 0.773364 -0.5537145 -0.65731937
000020 1b 41 20 bf c7 64 d1 3e f8 45 e4 3e 88 92 6f 3e
       -0.62599343 0.408972 0.44584632 0.23395741
000030 8e 6d 42 bf cf da 5e bf 54 9d fe be 79 91 12 bf
       -0.7594842 -0.87052625 -0.49729407 -0.57253224
000040 31 eb 01 3e 11 4c 36 bf 58 7f 71 3f 73 fc 7e 3e
       0.12687375 -0.7120982 0.94334936 0.24900989
000050 05 92 55 3f 55 f3 83 bf 93 06 6b 3f 2e 67 32 bf
       0.83425933 -1.0308634 0.91806906 -0.6968869
000060 7b 36 fb 3e 83 f9 1f 3f 2e c4 30 3f 20 24 c5 3e
       0.49065003 0.624901 0.69049346 0.38504124
000070 73 79 3d 3e 5b 88 6f bf 5a 93 4c 3f a6 35 96 3f
       0.1850336 -0.93567437 0.7991234 1.1735122

blocks.0.attn.b_K f4 [4, 8]
000000 c4 1f 54 bb f6 5d 5f 3b d7 8d 50 38 ba eb be 3b
       -0.0032367567 0.0034083105 4.9723163e-05 0.0058264406
000010 ed 00 a2 bb 43 bf 1a 3c e0 2b 9a ba d3 6f 61 3b
       -0.004943958 0.009445014 -0.0011762343 0.0034398928
000020 e1 6d 95 3b a8 df d8 b9 75 6f a2 ba 65 72 7f bb
       0.0045602177 -0.00041365367 -0.0012392836 -0.0038978097
000030 7b f9 82 3a 9e 14 88 3a 8c a6 04 bc 89 38 91 bb
       0.0009992564 0.0010382121 -0.0080963485 -0.0044317883
000040 e1 79 b1 bb 3b 08 09 bb f3 8a 8f ba e1 f4 29 ba
       -0.0054161404 -0.0020909447 -0.0010951444 -0.0006483328
000050 27 73 83 3c b4 cd 2d bc 06 d6 05 3d ca 0f d9 bb
       0.01604612 -0.0106081255 0.03267481 -0.0066241967
000060 49 8b 1d 3c 77 a2 02 3c fb 98 bc 3b d7 9a af 3c
       0.009615728 0.007973305 0.0057555414 0.021436138
000070 9a 42 36 3b 73 bb 92 bb a7 0d 6e 3c 34 79 86 3c
       0.0027810694 -0.004477912 0.014529622 0.016415216

blocks.0.attn.b_V f4 [4, 8]
000000 7b 2b e4 3c 38 11 09 bd 07 f5 fd 3c 97 93 93 3d
       0.027852764 -0.033463687 0.031000627 0.07205885
000010 9c 1a 8e bd d8 04 37 3d 59 fe dd bc 55 82 8d 3c
       -0.06938669 0.044682354 -0.027098821 0.017274061
000020 cf 5c 96 bd 75 f3 3c 3d 6f e5 b4 3c e0 98 10 3d
       -0.073419206 0.046130616 0.022082059 0.035302043
000030 43 7b 97 bc 17 0d 27 3d f2 3e 13 3d c7 7c a1 3d
       -0.018491393 0.040783968 0.0359487 0.078851275
000040 21 31 d5 3c 44 88 84 3c 8e 85 16 3d 5b 4e c3 bd
       0.026024403 0.016178258 0.03674846 -0.095364295
000050 89 df 5b bd f9 9f 9d bc 04 fd 6c 3c 38 94 8e 3c
       -0.053679977 -0.01924132 0.0144646205 0.01740466
000060 7c 18 db 3c db e7 9b bd 27 e0 0c bd 82 ed 35 bd
       0.026745073 -0.07612582 -0.034393456 -0.04441596
000070 d2 2f d5 3d c0 18 0e 3e da aa 20 bc f0 b1 84 3c
       0.104095116 0.13876629 -0.009806359 0.016198128

blocks.0.attn.b_O f4 [32]
000000 78 6c 4a 3e b4 c3 2f be 0b c9 ba bd ef 01 bc be
       0.1976794 -0.17164499 -0.09120377 -0.36720225
000010 64 e8 5d bd b8 05 94 3d b9 d5 f2 bd 0e a1 2a be
       -0.054176703 0.07227653 -0.118571706 -0.16663
000020 95 fd 95 3e 1c b3 a8 3e d4 a9 bd be 81 91 a6 be
       0.2929503 0.3294915 -0.3704363 -0.32532886
000030 4d c2 5d be 35 e3 0d 3e df 48 5b 3d 72 da 2f 3e
       -0.21656151 0.13856204 0.053536292 0.17173174
000040 2c 22 5b 3b a6 42 c2 3e 73 ae 19 be 03 ea 23 3e
       0.0033437116 0.37941474 -0.15007953 0.16007237
000050 fd 1c 81 be 49 2e 54 3e b7 6a aa be 93 04 f1 3d
       -0.2521743 0.20720781 -0.33284542 0.117684506
000060 09 54 90 bd db e8 91 be 58 60 b4 3d 9f 49 2f bc
       -0.070472784 -0.28497967 0.088074386 -0.010698705
000070 9b 62 b1 3e bb af 89 be 54 ce 71 3d 2e 26 70 be
       0.34645543 -0.26891884 0.05903466 -0.23452064

blocks.0.ln2.w f4 [32]
000000 d8 b2 ad 3f 0a 89 90 3f 9d 37 b9 3f 7e 6a c0 3f
       1.3570204 1.1291821 1.4470097 1.5032499
000010 72 79 a4 3f f2 2c 89 3f ae d4 87 3f df 76 b0 3f
       1.2849562 1.0716841 1.061178 1.3786277
000020 65 ce ab 3f f3 f1 b5 3f c4 87 a3 3f 23 1e b8 3f
       1.3422362 1.4214462 1.2775807 1.4384197
000030 52 a2 b7 3f e0 c6 ad 3f ab f8 81 3f 78 6a a2 3f
       1.4346411 1.3576317 1.0154012 1.2688742
000040 25 7e b6 3f 6b ed ef 3f d2 45 c5 3f dc 7a 91 3f
       1.4257246 1.8744329 1.5411932 1.1365619
000050 0e 5b 88 3f 76 be aa 3f 03 74 cf 3f 42 50 b3 3f
       1.0652788 1.3339374 1.6207279 1.4008868
000060 7a a0 61 3f 51 8f bd 3f 27 20 8d 3f b4 26 94 3f
       0.8813549 1.4809362 1.1025437 1.1574311
000070 df 83 b5 3f d3 5b bb 3f e9 79 de 3f fd 7f bf 3f
       1.4180869 1.4637398 1.7380954 1.4960934

blocks.0.ln2.b f4 [32]
000000 25 d6 71 be e2 24 51 3f a0 c6 6b 3f ae d5 58 3f
       -0.23616846 0.81696904 0.9209995 0.8470105
000010 8f 9b 51 3f a1 07 84 3f 1d 15 83 3f c0 49 89 3f
       0.8187799 1.0314828 1.0240818 1.0725632
000020 de 89 44 bf ee 31 4e bf 54 6d 70 3f 80 67 85 3f
       -0.7677287 -0.80544937 0.9391682 1.0422211
000030 d8 88 7e 3f 24 b5 13 bf 6b ad 77 3e 8a 1f 28 bf
       0.99427557 -0.57698274 0.24187247 -0.65673125
000040 bb 73 40 be 57 61 5a bf 5d 9d 5d 3f cd d6 7c be
       -0.18794148 -0.8530478 0.8656824 -0.24691315
000050 53 03 26 3f 24 36 1c bf 40 cb 76 3f 12 43 81 be
       0.6484882 -0.6102011 0.96403885 -0.25246483
000060 18 20 19 3f 8a 06 71 3f 80 ae 39 3f d6 81 f1 3e
       0.59814596 0.941506 0.7253189 0.4716937
000070 1a c2 13 bf 02 98 4c 3f 73 79 be 3e e2 62 6b 3f
       -0.5771805 0.79919446 0.37202033 0.9194776
