mem-str-models/1l_learned_embed.pt (torch, 108222 bytes, 22 tensors)

embed.W_E f4 [128, 32]
0.17716639 -0.038367763 -0.22549252 -0.002911408 -0.15631582 -0.123866625 -0.065319285 -0.02306705
-0.1289416 0.010277736 -0.067499116 -0.10842734 -0.047941487 0.08021829 0.07869995 -0.04730498
-0.14405134 0.3165701 -0.077580415 -0.12611543 -0.1661063 -0.18909554 -0.28534606 0.086264156
-0.18825495 -0.06743233 -0.007230791 0.24283095 -0.07566647 -0.069083124 -0.048256356 -0.30410948
-0.03260872 -0.0503251 -0.177805 -0.08957413 0.032695793 0.029094929 0.1635997 0.3278867
0.04753337 0.08097651 -0.27801815 0.12649576 -0.35625955 0.60631764 -0.027103996 0.030880317
-0.0078242365 -0.021094548 -0.28506702 -0.041118935 0.12615354 -0.32470715 -0.069600716 0.30182308
-0.21873216 0.062302142 0.04487747 0.103674516 -0.063034855 0.16357496 -0.008783998 0.12098073
-0.2510822 -0.22347511 -0.09525277 -0.26219222 -0.17627214 -0.025937328 -0.10879318 0.11296985
0.08341538 0.08586956 -0.11866709 0.09560557 0.09831798 0.23046187 -0.29341933 -0.12920044
-0.6698449 0.026240893 -0.10892214 0.12199168 0.08783759 0.17364201 0.14025934 -0.18592818
0.3827953 0.13934582 0.19980949 0.019965967 0.15893327 0.1487232 0.023604315 0.09819277
-0.04416008 0.3673857 0.09777422 -0.17319053 0.19314757 0.13170741 -0.34102634 0.034523696
0.080886364 0.019956155 -0.027106334 0.4926702 -0.39822716 0.026567431 -0.077820376 -0.08085361
0.07951226 0.036997337 -0.17849635 -0.17723054 -0.44587484 -0.13036923 0.09519666 -0.08639897
0.009341723 0.004066601 0.11640961 -0.12855202 0.24406676 0.061536897 -0.009059949 -0.052453633
0.02653971 0.08480204 -0.18293178 0.20659706 -0.27967238 -0.010919276 0.14377607 -0.014609858
0.048979003 -0.16147122 -0.14074719 0.11639847 0.04495521 0.34737566 -0.24575146 0.23491707
-0.10419478 0.0046322504 -0.16836005 0.28468722 -0.19724168 0.065717645 0.119694434 -0.002496396
0.07710698 -0.31993863 0.19864245 -0.086261176 -0.17781176 0.48870128 -0.15163702 -0.2251812
-0.19342801 0.033162143 0.11820811 -0.07085752 -0.15976226 -0.16939001 -0.18505758 0.018739708
-0.10910294 -0.17773335 -0.038454972 0.38107988 -0.009179627 0.08332015 0.14535095 -0.01478431
0.47846892 0.00511182 0.12202827 -0.3259591 0.06384638 0.3946502 -0.06374212 0.08208663
-0.3766571 0.013724603 -0.14160569 0.27602336 0.16184574 -0.029651402 -0.047169656 -0.018659035
0.060928762 -0.016788717 -0.12211249 0.22459957 0.133969 0.018624125 0.1105931 0.036427394
0.10552618 -0.27529764 -0.13667619 0.07628577 0.011785535 -0.10604993 0.18353191 0.23578466
-0.50993586 0.051739115 0.31515074 0.1286193 0.24540618 -0.09034835 0.015469072 -0.45129186
0.11861394 -0.20805968 -0.19901606 0.07911901 0.10076405 -0.14622805 0.05868998 -0.24468656
-0.025553774 -0.1274266 0.08882202 0.027548198 0.116180606 0.0057887784 0.37455234 0.19080356
0.13545474 0.04473085 0.050132904 -0.051850226 0.03586809 -0.43916303 -0.28699958 0.14593235
-0.3919804 0.06513504 0.072428755 -0.19274832 0.008944953 -0.22344226 -0.11311012 0.22600558
0.10678849 -0.07253063 -0.030183155 -0.13382979 -0.19990686 0.3361767 0.20141749 -0.19059083
00000000: 1b6b 353e 8427 1dbd 83e7 66be 52cd 3ebb
00000010: 4111 20be c9ad fdbd 1ec6 85bd 1cf7 bcbc
00000020: 4409 04be f363 283c fa3c 8abd 270f debd
00000030: 4b5e 44bd 7d49 a43d 702d a13d dec2 41bd
00000040: 3282 13be 7a15 a23e 7be2 9ebd 6724 01be
00000050: c517 2abe 43a2 41be e118 92be 43ab b03d
00000060: e8c5 40be f619 8abd 45f0 ecbb ada8 783e
00000070: 06f7 9abd 747b 8dbd 75a8 45bd 3db4 9bbe
00000080: b990 05bd b121 4ebd 8412 36be a472 b7bd
00000090: 06ec 053d 7d58 ee3c ae86 273e c4e0 a73e
000000a0: 5ab2 423d 03d7 a53d 6558 8ebe 1b88 013e
000000b0: a767 b6be a237 1b3f 3309 debc b8f8 fc3c
000000c0: 3a31 00bc 79ce acbc 4ef4 91be 546c 28bd
000000d0: 652e 013e 0440 a6be d28a 8ebd 8e88 9a3e
000000e0: 53fb 5fbe 8830 7f3d 70d1 373d 4e53 d43d
000000f0: 6b18 81bd 3280 273e c2ea 0fbc bfc4 f73d
00000100: d98d 80be a9d6 64be e213 c3bd 0f3e 86be
00000110: af80 34be 857a d4bc f5ce debd bd5c e73d
00000120: afd5 aa3d 61dc af3d bb07 f3bd dacc c33d
00000130: f05a c93d 32fe 6b3e 0f3b 96be 1f4d 04be
00000140: f57a 2bbf 24f7 d63c 9212 dfbd c6d6 f93d
00000150: 32e4 b33d 36cf 313e 25a0 0f3e f563 3ebe
00000160: bffd c33e acb0 0e3e dc9a 4c3e ab8f a33c
00000170: 67bf 223e e54a 183e d65d c13c 4a19 c93d
00000180: 33e1 34bd fa19 bc3e da3d c83d dc58 31be
00000190: 7ac8 453e 4fde 063e 019b aebe b868 0d3d
000001a0: c0a7 a53d 177b a33c 1a0e debc 453f fc3e
000001b0: 6ee4 cbbe f1a3 d93c 4a60 9fbd 9496 a5bd
000001c0: 53d7 a23d 858a 173d bfc7 36be ec7b 35be
000001d0: b549 e4be 837f 05be 77f6 c23d f1f1 b0bd
000001e0: 070e 193c 1f41 853b 2968 ee3d 24a3 03be
000001f0: a3ec 793e 1d0e 7c3d 2e70 14bc 9fd9 56bd
00000200: ce69 d93c b1ac ad3d 7852 3bbe 2e8e 533e
00000210: 3831 8fbe c3e6 32bc 093a 133e 305e 6fbc
00000220: 359e 483d b658 25be 0820 10be 5262 ee3d
00000230: f422 383d 39db b13e 45a6 7bbe 1a8e 703e
00000240: 1364 d5bd 22ca 973b 9466 2cbe 86c2 913e
00000250: b9f9 49be f996 863d 5b22 f53d 939a 23bb
00000260: 44ea 9d3d ffce a3be ed68 4b3e b3a9 b0bd
00000270: 4914 36be 0e37 fa3e bc46 1bbe e795 66be
00000280: fe11 46be 07d5 073d 1817 f23d bf1d 91bd
00000290: b898 23be 9374 2dbe bc7f 3dbe 0484 993c
000002a0: 5d71 dfbd bbff 35be f682 1dbd e71c c33e
000002b0: 2566 16bc c1a3 aa3d e1d6 143e e439 72bc
000002c0: e1f9 f43e 0e81 a73b f5e9 f93d 1ce4 a6be
000002d0: e4c1 823d 970f ca3e 3b8b 82bd 091d a83d
000002e0: 33d9 c0be 28dd 603c 1501 11be ef52 8d3e
000002f0: e4ba 253e 7fe7 f2bc f834 41bd d5da 98bc
00000300: 7090 793d 7e88 89bc 1d16 fabd 6efd 653e
00000310: 2b2f 093e 9f91 983c a37e e23d e434 153d
00000320: 1c1e d83d d0f3 8cbe d8f4 0bbe b73b 9c3d
00000330: 1e18 413c b530 d9bd caef 3b3e 8971 713e
00000340: 288b 02bf 65ec 533d 705b a13e c7b4 033e
00000350: c24b 7b3e 8e08 b9bd fe71 7d3c ba0f e7be
00000360: deeb f23d 990d 55be deca 4bbe 2609 a23d
00000370: 625d ce3d cebc 15be e864 703d 1d8f 7abe
00000380: 2656 d1bc 1e7c 02be 52e8 b53d c2ac e13c
00000390: 19f0 ed3d cbaf bd3b 53c5 bf3e 0262 433e
000003a0: a6b4 0a3e b237 373d 2958 4d3d e760 54bd
000003b0: 6bea 123d fad9 e0be 9cf1 92be 4a6f 153e
000003c0: a8b1 c8be 8565 853d 8755 943d d15f 45be
000003d0: da8d 123c 0cce 64be 47a6 e7bd 026e 673e
000003e0: edb3 da3d f08a 94bd aa42 f7bc ad0a 09be
000003f0: 62b4 4cbe 5a1f ac3e 6340 4e3e 3e2a 43be

pos_embed.W_pos f4 [128, 32]
0.17741084 -0.038395643 -0.22470291 -0.0031059273 -0.15598442 -0.12354542 -0.06515189 -0.023202995
-0.12852482 0.010551912 -0.06735369 -0.10900696 -0.047897313 0.080350496 0.078264244 -0.047595598
-0.14409256 0.31669545 -0.078085326 -0.12598485 -0.16591169 -0.18889432 -0.28514126 0.086520836
-0.18833105 -0.067600995 -0.007426797 0.24255833 -0.07549218 -0.06877884 -0.048146207 -0.3039808
0.23000272 -0.45355678 0.38001156 -0.18759017 -0.34440222 -1.2301605 -0.1249627 -0.30377898
-0.39118522 -0.5900777 0.110669725 -0.7569165 -0.0825883 -0.21245459 -0.8870599 -0.27209148
0.018438946 1.8388497 -0.04502806 -0.050146393 -0.109019354 -0.4411747 0.33090857 -0.11465471
-0.8516126 -0.009315855 -0.18114585 0.3126248 0.24629398 -0.24982265 0.004579206 -0.0616187
-0.24144197 0.17382562 0.28276896 -0.021934215 -0.15065235 -0.24859332 -0.23925094 -0.08737502
-0.44620594 -0.3780936 -0.3063425 0.38346836 -0.32310283 -0.20502008 -0.7103459 -0.03635168
-0.4206883 1.4757638 -0.4497376 -0.2052301 0.08854316 -0.09103945 -0.54510653 0.34377822
-0.053312913 0.061866436 0.16723895 0.10681996 -0.2768168 -0.35097712 0.020479271 -0.53550917
-0.076190166 -0.17329106 0.14391373 -0.013044704 0.063069046 -0.03902936 -0.07008351 -0.08100502
-0.12835155 -0.15220255 -0.16073161 -0.10419845 -0.014954128 -0.10546171 -0.10812496 0.013058595
0.004008969 0.8816079 -0.12156312 -0.045114834 -0.034867413 -0.12686995 -0.0350813 -0.17987922
-0.108001426 -0.14075147 -0.23584948 -0.21841723 -0.048031397 -0.25550532 -0.054439895 -0.014249644
-0.13117816 -0.098682046 0.04405437 -0.06379753 0.04408264 -0.10766266 -0.078076914 -0.1245982
-0.086193085 -0.10667895 -0.09366619 -0.08555904 -0.050433468 -0.099428825 -0.10767628 0.00013172805
0.027295046 0.8037049 -0.103449024 -0.08617322 -0.059635296 -0.10605713 0.008582532 -0.15396863
-0.09699017 -0.105655566 -0.12830116 -0.17781994 0.010273174 -0.17770392 -0.05624613 -0.060133737
-0.12497298 -0.128296 -0.018820355 -0.06930685 0.018956471 -0.034389853 -0.053401098 -0.1072422
-0.090447366 -0.12377929 -0.1379789 -0.078013815 -0.053125024 -0.1280234 -0.114734404 -0.008569962
-0.019288031 0.739182 -0.05902257 -0.082846716 -0.06544889 -0.10199469 -0.023317752 -0.14537138
-0.10241464 -0.094154224 -0.11835911 -0.15678152 -0.038572207 -0.106066726 -0.01791979 -0.0588152
-0.105525486 -0.09099249 -0.026906783 -0.036055584 -0.029136147 -0.027828924 -0.037639495 -0.045062326
-0.12714396 -0.11072068 -0.13672884 -0.03269304 -0.054329127 -0.081574365 -0.15569684 -0.03620112
0.017365567 0.6926997 -0.10423761 -0.07239829 -0.037836526 -0.101385094 -0.010485334 -0.12450292
-0.10677635 -0.086314194 -0.13392264 -0.13271703 -0.057338357 -0.106179975 -0.03249979 -0.056901887
-0.08673867 -0.106262125 -0.06811706 -0.050796732 -0.038306702 -0.04801787 -0.022670262 -0.07583551
-0.06507251 -0.08780417 -0.10883988 -0.026246518 -0.048789944 -0.06484909 -0.15572287 -0.0372689
-0.016704947 0.6715676 -0.06784653 -0.046653323 -0.047681604 -0.044790708 -0.045399558 -0.11989329
-0.11944208 -0.05969689 -0.10323238 -0.15501992 -0.07708508 -0.08633206 -0.055787195 -0.08294037
00000000: 30ab 353e c044 1dbd 8518 66be d08c 4bbb
00000010: 61ba 1fbe 6205 fdbd 5b6e 85bd 3514 bebc
00000020: 039c 03be ede1 2c3c bbf0 89bd 0b3f dfbd
00000030: f92f 44bd cd8e a43d 0149 a03d 9af3 42bd
00000040: 008d 13be e825 a23e 33eb 9fbd 2c02 01be
00000050: c1e4 29be 836d 41be 09fe 91be d631 b13d
00000060: dbd9 40be 6472 8abd 7d5c f3bb 3661 783e
00000070: a59b 9abd ecdb 8cbd f534 45bd 5fa3 9bbe
00000080: d585 6b3e 9838 e8be e090 c23e a317 40be
00000090: 7d55 b0be e675 9dbf 72ec ffbd eb88 9bbe
000000a0: 6e49 c8be 550f 17bf cfa6 e23d 48c5 41bf
000000b0: 0e24 a9bd b28d 59be 5c16 63bf 934f 8bbe
000000c0: 460d 973c 6d5f eb3f 586f 38bd 4e66 4dbd
000000d0: 8a45 dfbd a6e1 e1be d96c a93e 17d0 eabd
000000e0: 4903 5abf 87a1 18bc 4c7e 39be 5c10 a03e
000000f0: 7d34 7c3e 82d1 7fbe 2a0d 963b e463 7cbd
00000100: 903c 77be 58ff 313e 18c7 903e 62af b3bc
00000110: 9c44 1abe 3f8f 7ebe 33fe 74be adf1 b2bd
00000120: 1b75 e4be 7c95 c1be edd8 9cbe f755 c43e
00000130: bc6d a5be c9f0 51be 3bd9 35bf 80e5 14bd
00000140: 7564 d7be d4e5 bc3f 0244 e6be d727 52be
00000150: 1e56 b53d e472 babd 1a8c 0bbf b303 b03e
00000160: a45e 5abd a967 7d3d b040 2b3e 6cc4 da3d
00000170: eeba 8dbe 46b3 b3be 25c4 a73c 2117 09bf
00000180: 9709 9cbd 3673 31be 1f5e 133e 74b9 55bc
00000190: 582a 813d 40dd 1fbd f187 8fbd f6e5 a5bd
000001a0: 976e 03be fcda 1bbe d496 24be ff65 d5bd
000001b0: 2902 75bc 4ffc d7bd 9e70 ddbd b8f3 553c
000001c0: ab5d 833b 0eb1 613f 16f6 f8bd 55ca 38bd
000001d0: 22d1 0ebd 32ea 01be 69b1 0fbd 4232 38be
000001e0: da2f ddbd 2721 10be 8782 71be c4a8 5fbe
000001f0: 92bc 44bd 98d1 82be 5efc 5ebd 5777 69bc
00000200: 9153 06be d019 cabd 5b72 343d 48a8 82bd
00000210: 0090 343d 3e7e dcbd cae6 9fbd 572d ffbd
00000220: 0086 b0bd 7e7a dabd 0fd4 bfbd 9439 afbd
00000230: 5393 4ebd 57a1 cbbd 6285 dcbd 7b20 0a39
00000240: dc99 df3c 9bbf 4d3f 15dd d3bd 967b b0bd
00000250: 2444 74bd 7b34 d9bd c09d 0c3c f4a9 1dbe
00000260: c8a2 c6bd f261 d8bd 6161 03be 6e16 36be
00000270: d150 283c 04f8 35be 5862 66bd cb4e 76bd
00000280: d5f1 ffbd 0760 03be 252d 9abc c0f0 8dbd
00000290: 9a4a 9b3c 60dc 0cbd 1cbb 5abd cca1 dbbd
000002a0: 783c b9bd ff7f fdbd 574a 0dbe b5c5 9fbd
000002b0: a099 59bd 9118 03be dff9 eabd 0769 0cbc
000002c0: ef01 9ebc 083b 3d3f a6c1 71bd 8aab a9bd
000002d0: 110a 86bd 98e2 d0bd df04 bfbc 3cdc 14be
000002e0: c4be d1bd eed3 c0bd 4366 f2bd 568b 20be
000002f0: e4fd 1dbd 8339 d9bd 86cc 92bc 35e8 70bd
00000300: bf1d d8bd 455a babd 9d6b dcbc 05af 13bd
00000310: eeae eebc 7cf9 e3bc df2b 1abd 4693 38bd
00000320: 0732 02be 86c1 e2bd a502 0cbe 23e9 05bd
00000330: 3888 5ebd 7610 a7bd fe6e 1fbe a047 14bd
00000340: 3c42 8e3c c454 313f 877a d5bd 8e45 94bd
00000350: 79fa 1abd fda2 cfbd aeca 2bbc 63fb febd
00000360: 8fad dabd 7fc5 b0bd 0423 09be f9e6 07be
00000370: a0db 6abd e374 d9bd 801e 05bd f411 69bd
00000380: 0ba4 b1bd f59f d9bd f580 8bbd 3c10 50bd
00000390: 7de7 1cbd 63ae 44bd fcb6 b9bc a64f 9bbd
000003a0: bc44 85bd acd2 b3bd 71e7 debd f002 d7bc
000003b0: f7d7 47bd 9acf 84bd d175 1fbe 46a7 18bd
000003c0: d0d8 88bc dbeb 2b3f 1ff3 8abd 8e17 3fbd
000003d0: c94d 43bd 7676 37bd e3f4 39bd 9d8a f5bd
000003e0: 0d9e f4bd ba84 74bd 7f6b d3bd 8bbd 1ebe
000003f0: c8de 9dbd ddce b0bd 1d81 64bd a4dc a9bd

blocks.0.ln1.w f4 [32]
0.565781 0.6451608 0.6342916 0.70470965 0.6715305 0.87234336 0.56342864 0.8039792
0.7052252 0.69626 0.59259033 0.65753806 0.70462704 0.524875 0.6848575 0.73777544
0.5590807 0.9463936 0.67507 0.67974955 0.72337425 0.7127021 0.8257075 0.67762756
0.6053187 0.82029194 0.74203676 0.652843 0.6340078 0.75852764 0.5788253 0.57076275
00000000: 06d7 103f 4229 253f ef60 223f da67 343f
00000010: 6ce9 2b3f e551 5f3f dc3c 103f 95d1 4d3f
00000020: a489 343f 183e 323f 00b4 173f 6a54 283f
00000030: 7062 343f 355e 063f d252 2f3f dade 3c3f
00000040: ea1f 0f3f da46 723f 63d1 2c3f 1104 2e3f
00000050: 0e2f 393f a573 363f 9161 533f 0079 2d3f
00000060: 2bf6 1a3f a7fe 513f 1ff6 3d3f b820 273f
00000070: 564e 223f de2e 423f e52d 143f 821d 123f

blocks.0.ln1.b f4 [32]
-0.11045727 -0.016123554 -0.00940187 -0.012642793 0.020181399 0.029116223 -0.03889718 0.10232446
-0.040393844 0.020107415 0.014579065 -0.009324088 -0.021142326 -0.060507055 0.110626765 -0.07180085
0.07178642 -0.35269096 0.008154528 0.045416087 0.02335428 0.0130346 0.037033565 0.0023261902
0.1642447 0.05836297 0.02438551 -0.052516654 0.0587716 0.004702838 -0.0829858 0.16514944
00000000: 6c37 e2bd 8b15 84bc 4d0a 1abc b823 4fbc
00000010: 7653 a53c 2585 ee3c a652 1fbd 7d8f d13d
00000020: 0474 25bd 4eb8 a43c 08dd 6e3c 0fc4 18bc
00000030: ac32 adbc 3fd6 77bd 4990 e23d 530c 93bd
00000040: c204 933d e993 b4be 929a 053c 3806 3a3d
00000050: 7a51 bf3c 138f 553c 82b0 173d ff72 183b
00000060: c32f 283e 020e 6f3d 1fc4 c73c b41b 57bd
00000070: 7dba 703d 441a 9a3b 76f4 a9bd ef1c 293e

blocks.0.attn.W_Q f4 [4, 32, 8]
-0.0499916 -0.14947605 0.20230757 -0.1191632 0.007102928 -0.12920144 0.17658463 -0.3294663
0.1573555 -0.13691558 -0.14454901 0.14279775 -0.07971814 -0.066832446 0.07693651 -0.22868606
-0.06026859 0.33367696 0.10086364 -0.15622443 -0.24001068 -0.17973992 -0.023894472 0.11681058
-0.14974904 -0.12482128 -0.3945924 0.08637933 -0.12845917 -0.13210094 -0.110924624 0.09976974
0.0073272893 -0.060072243 -0.23107037 0.033716675 0.26378012 0.3239681 -0.289499 0.13983907
-0.11740714 -0.056297947 0.043729547 0.14210244 -0.393962 -0.36145538 0.13353966 0.24060985
0.12716125 0.077723905 -0.078183904 -0.24550672 -0.23390079 0.43147644 0.023240011 0.18425758
0.023738649 0.0044128224 -0.088533804 -0.12106797 0.07444287 0.098934315 -0.046990097 -0.066303246
-0.1195558 -0.046093065 0.045762245 -0.09055026 0.0037784614 0.37826324 -0.021899102 -0.28261465
-0.3100476 0.07716843 0.031031767 -0.105895594 -0.21970655 0.50134844 0.123793796 -0.1304671
0.05091984 0.15141803 0.030690113 -0.02710518 -0.009171633 0.08221478 0.027213663 -0.11573526
0.03426113 0.15338282 0.04520325 0.12651724 0.100606 0.014908087 0.22076826 0.12476083
0.16011131 0.43700105 0.07368713 0.06876072 0.009266677 -0.063720435 -0.34559962 0.12119713
0.13478424 -0.31654683 -0.022977192 0.05842802 -0.50644 0.040715437 0.5310385 -0.18688007
-0.15425122 -0.073416516 0.08144502 -0.20031287 -0.06928665 -0.14854674 -0.0070624896 -0.4246082
-0.42347622 -0.18819186 0.14964063 0.39326078 0.3783582 -0.16216698 0.221486 -0.12431709
0.06305836 0.16593403 0.09392229 0.11064153 0.2214015 0.42704266 -0.1805818 0.17646451
0.24772544 -0.058838144 0.09965461 0.063473664 0.10363066 -0.097929664 -0.048503872 0.07528589
0.26734328 0.18889211 -0.12205985 0.2601993 0.12366848 0.11797039 0.14136465 -0.048121482
-0.0034395119 -0.071112305 -0.34270352 -0.104492284 -0.023292705 0.0756624 0.09915551 -0.119195975
0.14801307 -0.03887565 0.092753656 0.049804274 0.0073590092 -0.005252129 0.046930794 0.12154201
-0.25911188 -0.13000332 -0.1771761 -0.25889605 -0.12657443 0.06848797 -0.20700853 -0.41288853
0.16225006 -0.37212732 0.22239612 -0.37890363 0.1770837 -0.005661685 -0.5066744 0.4504017
-0.19846146 -0.33649158 -0.031820346 -0.012949553 0.1816504 0.12141537 -0.17097346 -0.19920756
-0.39186853 0.19292015 0.50630546 -0.18671988 0.36145335 -0.06614679 0.26763833 -0.23451681
0.2744898 0.08618839 -0.009821052 -0.28920868 -0.15743496 -0.5015294 -0.29004073 -0.15098907
0.17806485 0.023831759 0.15056166 0.11936576 -0.22909506 -0.46568665 -0.17512661 0.020851756
-0.0024313906 0.37678775 -0.15212697 0.28452012 -0.15247928 -0.26245922 -0.14049874 0.024648255
-0.4182145 -0.004626972 0.23368405 0.15607786 0.15538836 0.1824665 0.0414331 0.13982747
-0.013113344 -0.11338666 -0.18191169 0.13734543 -0.12989266 -0.09452051 0.07532014 0.2486885
0.056036342 -0.32002246 0.23896334 -0.062189084 -0.31348082 -0.01753439 0.017361302 0.27512535
0.2616028 0.2583305 -0.20220302 0.40542394 0.47176522 0.14585494 0.042955328 0.31202525
00000000: fec3 4cbd 4010 19be b729 4f3e d60b f4bd
00000010: aebf e83b 624d 04be 9ad2 343e cfaf a8be
00000020: cd21 213e 9933 0cbe a804 14be 9339 123e
00000030: 4443 a3bd 73df 88bd e490 9d3d ae2c 6abe
00000040: 32dc 76bd b5d7 aa3e 9991 ce3d 4cf9 1fbe
00000050: 5cc5 75be be0d 38be 57be c3bc 633a ef3d
00000060: d057 19be 4da2 ffbd 0408 cabe a5e7 b03d
00000070: cd8a 03be 7845 07be 732c e3bd 1454 cc3d
00000080: c219 f03b 500e 76bd b69d 6cbe 7f1a 0a3d
00000090: 300e 873e 26df a53e 3739 94be f931 0f3e
000000a0: 2873 f0bd ad98 66bd c11d 333d 4d83 113e
000000b0: 63b5 c9be ae10 b9be 9fbe 083e 6e62 763e
000000c0: 8f36 023e b62d 9f3d e21e a0bd 1d66 7bbe
000000d0: b083 6fbe 7bea dc3e d661 be3c 05ae 3c3e
000000e0: 8e77 c23c 7099 903b 3651 b5bd 7cf2 f7bd
000000f0: 8175 983d 139e ca3d b078 40bd ffc9 87bd
00000100: acd9 f4bd 15cc 3cbd 3171 3b3d 6a72 b9bd
00000110: 10a0 773b b8ab c13e bf65 b3bc deb2 90be
00000120: 8fbe 9ebe 7b0a 9e3d 5536 fe3c cadf d8bd
00000130: c1fa 60be 5f58 003f 9a87 fd3d 2b99 05be
00000140: 5291 503d 540d 1b3e d569 fb3c af0b debc
00000150: 9e44 16bc 3960 a83d 30ef de3c 9c06 edbd
00000160: 6655 0c3d 6310 1d3e 0b27 393d bc8d 013e
00000170: 850a ce3d 0d41 743c 1311 623e 9b82 ff3d
00000180: 38f4 233e 9abe df3e 47e9 963d 6cd2 8c3d
00000190: 43d3 173c dc7f 82bd 6ff2 b0be 3336 f83d
000001a0: e104 0a3e 6d12 a2be aa3a bcbc 3852 6f3d
000001b0: 0da6 01bf 3bc5 263d 24f2 073f 7d5d 3fbe
000001c0: 08f4 1dbe 665b 96bd a6cc a63d d11e 4dbe
000001d0: 29e6 8dbd a31c 18be 756c e7bb 3f66 d9be
000001e0: e0d1 d8be 5eb5 40be 653b 193e 7a59 c93e
000001f0: 2ab8 c13e 1a0f 26be 3acd 623e f599 febd
00000200: be24 813d 9cea 293e 545a c03d 0798 e23d
00000210: 13b7 623e 56a5 da3e 6fea 38be 1db3 343e
00000220: bdab 7d3e 4400 71bd b717 cc3d 7bfe 813d
00000230: 503c d43d 598f c8bd ffab 46bd 7d2f 9a3d
00000240: 38e1 883e ef6c 413e 84fa f9bd d838 853e
00000250: e645 fd3d 769a f13d e5c1 103e 081b 45bd
00000260: 6f69 61bb 54a3 91bd d676 afbe 0d00 d6bd
00000270: 58d0 bebc e3f4 9a3d 0b12 cb3d 051d f4bd
00000280: bd90 173e 133c 1fbd a1f5 bd3d 91ff 4b3d
00000290: d823 f13b 0d1a acbb 813a 403d 04eb f83d
000002a0: 50aa 84be 971f 05be a76d 35be 068e 84be
000002b0: ba9c 01be 6c43 8c3d 0bfa 53be 2066 d3be
000002c0: e124 263e 7987 bebe cfbb 633e a8ff c1be
000002d0: 6e55 353e a885 b9bb 6ab5 01bf 0d9b e63e
000002e0: 7b39 4bbe a048 acbe 0d56 02bd 5d2a 54bc
000002f0: 9002 3a3e 9fa8 f83d ab13 2fbe 11fd 4bbe
00000300: fea2 c8be dc8c 453e 3c9d 013f 7f33 3fbe
00000310: 6a10 b93e f877 87bd e407 893e 2d25 70be
00000320: ed89 8c3e 8a83 b03d 7ae8 20bc 2913 94be
00000330: a136 21be 3b64 00bf 3880 94be e19c 1abe
00000340: a256 363e d23a c33c d62c 1a3e 0976 f43d
00000350: e597 6abe 7b6e eebe 6454 33be 4dd1 aa3c
00000360: f757 1fbb 53ea c03e 2cc7 1bbe 9fac 913e
00000370: 8723 1cbe 0e61 86be e7de 0fbe 23eb c93c
00000380: 3620 d6be db9d 97bb df4a 6f3e e0d2 1f3e
00000390: 201e 1f3e 80d8 3a3e c1b5 293d ef2e 0f3e
000003a0: 5ad9 56bc 4437 e8bd 0f47 3abe 48a4 0c3e
000003b0: 9502 05be f893 c1bd 7241 9a3d 33a8 7e3e
000003c0: 5d86 653d fcd9 a3be ceb2 743e fbb9 7ebd
000003d0: 8f80 a0be 48a4 8fbc 4a39 8e3c 3bdd 8c3e
000003e0: cdf0 853e e543 843e 4f0e 4fbe ba93 cf3e
000003f0: 368b f13e ff5a 153e edf1 2f3d c6c1 9f3e

blocks.0.attn.W_K f4 [4, 32, 8]
0.11176499 0.3418251 0.15522456 0.25177625 -0.017180244 -0.0056631626 0.02506977 0.4036509
-0.14172398 -0.17066398 0.20499803 -0.0074133608 0.024385452 -0.10839224 0.32910034 0.02081787
0.053772572 0.26460415 0.054445013 -0.025850428 -0.23495324 -0.034410685 -0.4257979 0.04649285
-0.13800761 0.0017088323 -0.07139121 0.2714856 -0.09395348 -0.16257912 0.21877281 -0.03072863
-0.24659207 -0.11649397 0.12235007 0.06775355 -0.08971248 -0.16172703 0.004309922 -0.123611614
0.10628904 -0.004953694 -0.16569942 0.10665744 -0.071795315 0.16308776 -0.21687122 0.022303576
-0.06459847 0.35015815 0.040384047 0.0072332174 -0.20839849 -0.16055499 -0.1124668 0.05841851
-0.06375313 -0.03858313 0.09712661 0.045181565 0.049003813 -0.086035945 0.014864075 -0.13975681
-0.04635551 -0.27149516 0.23494898 0.3460686 -0.37897077 0.20892283 -0.11617868 -0.044837203
0.11456903 0.19322234 -0.2838776 0.076917805 0.13255487 -0.08244321 0.3566365 -0.16511227
-0.046814416 0.2609099 0.053393364 -0.26837057 0.16610512 0.061338108 -0.033146176 -0.017955702
-0.071515255 -0.03595939 0.27819625 -0.06853336 0.044151507 -0.09755715 0.031415373 0.1443355
-0.0066685025 -0.2822119 -0.10572047 -0.2842477 0.13816701 0.018066404 -0.08170021 -0.015977243
-0.0285606 -0.3822026 -0.43497908 0.122514196 -0.02445509 0.07098783 -0.17820898 0.24531552
0.063397035 0.10188516 -0.29344943 -0.13023572 -0.037945405 0.043542128 -0.0585913 0.09664024
0.07988566 0.06081103 0.15301041 -0.10811725 -0.07048887 -0.018336156 -0.11260355 0.0044813356
-0.114688374 0.0842324 0.1457007 0.23454288 -0.033127137 0.12766643 -0.013940034 -0.16158645
1.3564532 0.56750435 -0.7876061 -0.849248 1.1808349 -1.2301476 0.7700092 1.2463251
-0.10076607 -0.2821733 -0.022132408 -0.0148000065 -0.35877907 -0.06812451 0.016957518 -0.04795608
0.13461718 -0.06304027 0.20160396 0.019042185 -0.23128618 0.13820639 0.056615643 -0.35902634
-0.0007484944 -0.053277355 0.20004797 0.065372765 0.0395891 0.27645418 0.025316343 -0.019363765
-0.011116393 0.14026728 -0.1872015 -0.117017485 0.070233844 -0.21838005 0.20542511 0.14587967
-0.016479408 -0.09607902 -0.04291524 -0.52246755 0.39556935 -0.14027178 0.2598866 -0.019710258
0.04859963 -0.053638536 -0.120877005 0.10025142 -0.0032897752 0.1683743 -0.01828965 0.069295675
-0.072708376 0.09206589 -0.17923503 -0.34011558 0.21729736 -0.012634684 0.08853033 -0.047348116
-0.11856471 -0.08709125 0.21149412 0.16596301 0.018331181 -0.04841332 -0.011627546 0.04383614
0.030234855 0.013983244 0.03953401 0.097776726 -0.17797527 0.14008519 0.09118407 -0.058779024
0.085601225 -0.30714348 -0.112372436 -0.045277342 0.31252402 -0.22823356 -0.21112381 0.058323283
0.054247368 -0.24317299 -0.15380658 0.042274825 -0.2676182 -0.110578254 -0.3694327 -0.13703868
-0.050004244 -0.10142109 -0.065824546 -0.00064908946 0.26058537 0.3899477 0.039631795 0.18437213
-0.015747847 0.10320166 0.15680557 0.40287033 -0.022837551 0.3190426 -0.0025906896 -0.24747656
-0.08857706 0.12685938 0.16739951 -0.25828528 0.3141237 -0.12855871 -0.28362665 -0.35272303
00000000: 0be5 e43d b303 af3e 30f3 1e3e d1e8 803e
00000010: 95bd 8cbc 0d92 b9bb 1e5f cd3c 55ab ce3e
00000020: 1720 11be 8ac2 2ebe 01eb 513e c7eb f2bb
00000030: 00c4 c73c c0fc ddbd d77f a83e 3d8a aa3c
00000040: a140 5c3d 327a 873e bc01 5f3d 47c4 d3bc
00000050: 9597 70be 38f2 0cbd 2f02 dabe 496f 3e3d
00000060: de51 0dbe e6fa df3a 8e35 92bd 2900 8b3e
00000070: af6a c0bd 247b 26be fb05 603e 9cba fbbc
00000080: a282 7cbe 6494 eebd ac92 fa3d 60c2 8a3d
00000090: 2dbb b7bd c59b 25be 3f3a 8d3b 1628 fdbd
000000a0: 11ae d93d 9952 a2bb 1cad 29be 376f da3d
000000b0: 6c09 93bd 7a00 273e 7d13 5ebe fdb5 b63c
000000c0: 344c 84bd ee47 b33e be69 253d a004 ed3b
000000d0: 6a66 55be 8768 24be fe54 e6bd 3f48 6f3d
000000e0: 0091 82bd 5809 1ebd 51ea c63d 4e10 393d
000000f0: 39b8 483d 9d33 b0bd 7388 733c 691c 0fbe
00000100: 46df 3dbd 6a01 8bbe 7796 703e e72f b13e
00000110: 7508 c2be deef 553e 16ef edbd 37a7 37bd
00000120: 2ba3 ea3d 14dc 453e 6858 91be 1587 9d3d
00000130: 77bc 073e fcd7 a8bd 0f99 b63e 3113 29be
00000140: 79c0 3fbd fb95 853e 00b3 5a3d de67 89be
00000150: 7617 2a3e ab3d 7b3d 49c4 07bd d617 93bc
00000160: 9776 92bd 274a 13bd bd6f 8e3e 385b 8cbd
00000170: 36d8 343d 0bcc c7bd 68ad 003d afcc 133e
00000180: 7483 dabb 147e 90be f983 d8bd ea88 91be
00000190: a77b 0d3e ffff 933c 7152 a7bd b5e2 82bc
000001a0: ebf7 e9bc 0fb0 c3be 94b5 debe b9e8 fa3d
000001b0: 0a56 c8bc 1162 913d 6a7c 36be fe33 7b3e
000001c0: 4ed6 813d 2ba9 d03d 013f 96be 835c 05be
000001d0: a46c 1bbd 3b59 323d 6efd 6fbd 51eb c53d
000001e0: 189b a33d fd14 793d c3ae 1c3e 946c ddbd
000001f0: 785c 90bd b535 96bc b19c e6bd 2bd8 923b
00000200: bde1 eabd 0982 ac3d 9032 153e 022c 703e
00000210: 52b0 07bd fdba 023e be64 64bc eb76 25be
00000220: 42a0 ad3f f747 113f 8ea0 49bf 5168 59bf
00000230: 9925 973f 7a75 9dbf 531f 453f 9587 9f3f
00000240: 715e cebd 0579 90be 064f b5bc ba7b 72bc
00000250: e4b1 b7be dd84 8bbd 7eea 8a3c 986d 44bd
00000260: 16d9 093e 421b 81bd 4571 4e3e 5bfe 9b3c
00000270: 49d6 6cbe fa85 0d3e cee5 673d 4dd2 b7be
00000280: 9c36 44ba 5b39 5abd 60d9 4c3e 28e2 853d
00000290: 2e28 223d 678b 8d3e 3864 cf3c c2a0 9ebc
000002a0: 8821 36bc 3aa2 0f3e c0b1 3fbe dda6 efbd
000002b0: c3d6 8f3d 059f 5fbe f65a 523e 7b61 153e
000002c0: d3ff 86bc 14c5 c4bd e4c7 2fbd 6fc0 05bf
000002d0: 1188 ca3e 68a3 0fbe db0f 853e 6877 a1bc
000002e0: 6810 473d 15b4 5bbd 5d8e f7bd 9e50 cd3d
000002f0: 4599 57bb 506a 2c3e 2dd4 95bc e4ea 8d3d
00000300: 21e8 94bd 0b8d bc3d 6389 37be a123 aebe
00000310: 3383 5e3e b501 4fbc 644f b53d 19f0 41bd
00000320: 0ed2 f2bd e65c b2bd ea91 583e 35f2 293e
00000330: 462b 963c 0c4d 46bd 7681 3ebc 868d 333d
00000340: 16af f73c fa19 653c 6aee 213d 2a3f c83d
00000350: 263f 36be 7e72 0f3e b7be ba3d 46c2 70bd
00000360: b24f af3d e941 9dbe 8523 e6bd bc74 39bd
00000370: 2603 a03e 0fb6 69be d730 58be 65e4 6e3d
00000380: 7d32 5e3d 5702 79be 797f 1dbe 5e28 2d3d
00000390: 4105 89be da76 e2bd 4826 bdbe de53 0cbe
000003a0: 40d1 4cbd dcb5 cfbd 05cf 86bd a827 2aba
000003b0: 726b 853e 3aa7 c73e f354 223d 0ccc 3c3e
000003c0: a101 81bc 645b d33d a491 203e 0545 ce3e
000003d0: d115 bbbc 8d59 a33e 8fc8 29bb 7f6a 7dbe
000003e0: e467 b5bd 6de7 013e c76a 2b3e f83d 84be
000003f0: d2d4 a03e e5a4 03be 8337 91be 1d98 b4be

blocks.0.attn.W_V f4 [4, 32, 8]
-0.067877464 -0.37040818 -0.21448165 0.21577063 0.26886514 0.031678155 0.21336533 0.73504
-0.5643987 0.21382685 -0.4292048 0.062087256 -0.24129574 0.17557666 0.36793733 -0.13634945
-0.45747134 0.117368475 -0.34425792 -0.30845624 0.4705314 -0.42284286 -0.024365436 -0.11070689
0.27358878 0.016700212 0.02285466 0.4459652 -0.24461772 -0.03254487 0.11255948 -0.35739756
0.21793109 0.2776323 0.26439214 0.38824284 0.041147005 -0.0031651359 -0.62637156 0.07970804
-0.41940916 0.24605748 0.091889 0.60499865 0.27062264 0.08560669 -0.022989925 0.37359732
-0.011164376 -0.38747033 0.1509448 -0.29244205 0.25482842 0.4706485 0.13176562 -0.2520884
-0.17078526 0.04614617 -0.16170983 -0.073101036 -0.0072956793 0.31051898 0.22354583 -0.11869218
-0.24366777 0.08299641 -0.16113864 -0.11928558 0.058235522 -0.3735898 0.10689077 0.14867249
0.047281034 0.011844813 0.85469294 0.3145191 -0.16556701 -0.30366266 0.15838182 0.5727848
-0.3403938 0.11469645 0.096785314 0.5721437 0.1490282 0.4319427 -0.04179998 -0.054348897
0.5522076 -0.05729864 -0.07448541 0.057830095 -0.5653032 -0.4296823 -0.019894334 -0.4754488
0.17028028 -0.09262152 -0.37823698 -0.2950164 0.09254416 -0.2416558 -0.09818358 0.13778664
-0.0075541176 0.3537146 -0.49469143 -0.18751757 -0.24082918 0.23131874 0.16989747 -0.13178197
-0.18696311 0.41199732 0.47765166 -0.47013408 -0.22291951 0.065291986 -0.2544382 -0.22117628
-0.42493942 -0.58299124 -0.005518967 -0.29566854 -0.04659591 0.09867703 -1.0645599 -0.22946183
0.4513587 -0.15874405 0.09470483 0.3222943 0.48931795 0.20372763 0.05822728 -0.43388438
-0.040497575 -0.019888872 0.0013354868 -0.08405215 0.0054855775 -0.019495184 0.14855792 0.02956873
0.030096047 -0.6268807 0.26678357 -0.03698027 -0.26587033 -0.10881056 0.17664734 -0.011662633
-0.37072608 -0.4318524 0.51667166 0.027734969 -0.06628632 -0.43703857 -0.18481916 -0.15457903
0.2386401 0.10792591 0.076726556 -0.0038684346 0.9320171 0.3706452 -0.25376743 0.19668774
0.47741404 -0.059705894 0.3832292 0.25229377 -0.12822244 0.33848643 0.45854628 -0.08573328
-0.08688178 0.10254654 -0.16832961 -0.0903659 -0.086278625 -0.0806983 -0.3552337 0.18155304
-0.016350523 0.08657008 0.24000473 0.34527802 0.24985473 -0.11361622 -0.31032526 -0.48844695
-0.033728518 -0.49555978 -0.2532842 0.14615579 -0.4886872 0.37459508 0.19160675 0.21987759
-0.049281463 -0.04107668 0.2547159 0.09123146 0.07908356 0.3720313 0.4701508 -0.3599389
-0.41783407 0.9224017 0.18789873 -0.031908378 -0.08685704 -0.20365228 0.12726116 0.009492366
0.49562326 0.15619907 -0.23388673 -0.24446039 0.47113982 -0.43631056 0.041048996 -0.09982368
0.32711655 0.21854965 -0.16756967 -0.43849438 -0.19065192 0.033175405 -0.25656772 0.13387713
0.09484001 -0.19211675 -0.3552271 0.25647622 -0.28531462 -0.19894417 -0.22034013 0.6419038
0.39073244 -0.041210476 -0.20138638 -0.58637613 -0.19497293 0.19211972 0.17668992 0.20126194
0.16342662 0.12810044 -0.23592064 0.07889577 -0.09107556 -0.3719089 -0.10929776 0.030493671
00000000: 5703 8bbd 24a6 bdbe 14a1 5bbe faf2 5c3e
00000010: b1a8 893e f4c0 013d 717c 5a3e 952b 3c3f
00000020: 6f7c 10bf 6df5 5a3e bbc0 dbbe 354f 7e3d
00000030: 3b16 77be 5eca 333e 4862 bc3e 319f 0bbe
00000040: af39 eabe e25e f03d 9342 b0be faed 9dbe
00000050: 7ee9 f03e dc7e d8be 069a c7bc 4bba e2bd
00000060: d413 8c3e e2ce 883c b239 bb3c 8d55 e43e
00000070: 117d 7abe c54d 05bd 9685 e63d d0fc b6be
00000080: 5429 5f3e d225 8e3e 685e 873e c4c7 c63e
00000090: c389 283d 2b6e 4fbb e359 20bf f83d a33d
000000a0: ccbc d6be 7ef6 7b3e 4d30 bc3d 31e1 1a3f
000000b0: 0d8f 8a3e 8f52 af3d 5e55 bcbc 2648 bf3e
000000c0: c9ea 36bc 8362 c6be 4691 1a3e f7ba 95be
000000d0: df78 823e d7f8 f03e 91ed 063e bb11 81be
000000e0: 55e2 2ebe c403 3d3d 4397 25be ffb5 95bd
000000f0: 9810 efbb 58fc 9e3e 33e9 643e e314 f3bd
00000100: 0b84 79be 06fa a93d 8701 25be 004c f4bd
00000110: 5f88 6e3d 2a47 bfbe 8ce9 da3d 9a3d 183e
00000120: c2a9 413d bf10 423c 28cd 5a3f a608 a13e
00000130: 668a 29be ac79 9bbe d82e 223e 06a2 123f
00000140: 1948 aebe f9e5 ea3d 6137 c63d 0278 123f
00000150: d99a 183e 9827 dd3e 7536 2bbd f39c 5ebd
00000160: 7a5d 0d3f fbb1 6abd ce8b 98bd 40df 6c3d
00000170: b6b7 10bf 52ff dbbe 71f9 a2bc 066e f3be
00000180: f45d 2e3e 5ab0 bdbd 47a8 c1be 640c 97be
00000190: cb87 bd3d 9e74 77be 7914 c9bd f117 0d3e
000001a0: 8888 f7bb 141a b53e 3248 fdbe 9b04 40be
000001b0: ed9b 76be d2de 6c3e 9af9 2d3e daf1 06be
000001c0: 4273 3fbe 50f1 d23e c28e f43e 6ab5 f0be
000001d0: 0345 64be ceb7 853d b945 82be 097c 62be
000001e0: a991 d9be ea3e 15bf 73d8 b4bb de61 97be
000001f0: 5adb 3ebd 2f17 ca3d 8043 88bf 0bf8 6abe
00000200: 7d18 e73e cd8d 22be 9bf4 c13d c203 a53e
00000210: e287 fa3e fa9d 503e ba7f 6e3d 1826 debe
00000220: c9e0 25bd fded a2bc 800b af3a 8923 acbd
00000230: 5cc0 b33b 5db4 9fbc 911f 183e 1f3a f23c
00000240: fc8b f63c 417b 20bf db97 883e a078 17bd
00000250: 2820 88be 12d8 debd 0ae3 343e a114 3fbc
00000260: cfcf bdbe c21b ddbe 9844 043f 7234 e33c
00000270: 1fc1 87bd 85c3 dfbe 3c41 3dbe f749 1ebe
00000280: 125e 743e 4208 dd3d d022 9d3d 9085 7dbb
00000290: ac98 6e3f 35c5 bd3e ceed 81be 8368 493e
000002a0: 9d6f f43e 2b8e 74bd 9e36 c43e a62c 813e
000002b0: be4c 03be 184e ad3e 94c6 ea3e ee94 afbd
000002c0: 13ef b1bd ec03 d23d 995e 2cbe c211 b9bd
000002d0: d9b2 b0bd 2645 a5bd 31e1 b5be 0ae9 393e
000002e0: 88f1 85bc a74b b13d cdc3 753e 48c8 b03e
000002f0: ebd9 7f3e 9faf e8bd f4e2 9ebe b815 fabe
00000300: ea26 0abd 03ba fdbe 77ae 81be dda9 153e
00000310: 3535 fabe edca bf3e 8f34 443e 9727 613e
00000320: 5cdb 49bd 0540 28bd 1f6a 823e 8fd7 ba3d
00000330: 90f6 a13d e37a be3e 9bb7 f03e e949 b8be
00000340: 59ee d5be 8522 6c3f 8668 403e 5cb2 02bd
00000350: 1be2 b1bd 398a 50be c050 023e de85 1b3c
00000360: 55c2 fd3e a6f2 1f3e 0180 6fbe d353 7abe
00000370: 3d39 f13e 1964 dfbe fe22 283d 5c70 ccbd
00000380: d27b a73e 7bcb 5f3e 6297 2bbe 5682 e0be
00000390: 423a 43be efe2 073d d85c 83be 1617 093e
000003a0: 7b3b c23d 41ba 44be 54e0 b5be da50 833e
000003b0: c214 92be 05b8 4bbe d8a0 61be cf53 243f
000003c0: 150e c83e 51cc 28bd 3b38 4ebe bf1c 16bf
000003d0: fca6 47be 08bb 443e 34ee 343e 9c17 4e3e
000003e0: 4f59 273e c32c 033e 2e95 71be 1b94 a13d
000003f0: d385 babd d86a bebe 81d7 dfbd ddcd f93c

blocks.0.attn.W_O f4 [4, 8, 32]
0.3448842 0.27941072 0.081900656 -0.18037355 -0.2743158 -0.12549816 0.5832517 0.34366202
0.11176845 0.087842956 -0.20248161 0.09059427 -0.016618391 -0.173877 0.20614474 -0.24708763
-0.60703623 -0.8196457 -0.17638622 -0.71925086 0.54588866 -0.16218011 0.17373618 0.19539678
0.54826516 -0.042515736 -0.045187872 0.32824317 -0.014797636 0.34242082 0.00058881025 -0.25910035
0.38131288 0.30926862 0.0068543213 0.25871804 -0.54590553 -0.33283266 0.4854429 0.09711806
-0.09029619 0.042613033 0.23400074 -0.39024714 -0.12643035 0.05399348 0.090245195 -0.008696746
0.5421424 0.52449393 -0.075808965 0.21754245 0.05789816 0.06892809 0.10988144 -0.3118629
0.3085717 0.094885625 -0.39188924 -0.6768647 -0.1465687 -0.26541874 -0.070952006 -0.120863326
-0.102837406 -0.46285167 -0.51116115 -0.03740483 -0.33625877 -0.40269476 -0.46516854 0.01016436
-0.12554821 -0.3151355 -0.5730513 0.28910005 0.20402724 0.020551149 0.07726359 0.6213579
0.19557954 0.4765348 -0.0014420378 -0.4877978 0.38549656 -0.09617994 0.29617664 0.18653016
0.29020447 -0.076418206 -0.18803784 -0.010819656 0.24332528 0.19002524 0.28861746 -0.11944225
-0.45326704 -0.22146027 0.24132346 -0.07986679 -0.48278582 -0.5509257 0.09405099 -0.12401659
0.11999106 -0.034775656 -0.62359756 -0.08024229 0.03451012 0.054008238 -0.056683324 -0.20697895
-0.42621312 0.6516928 0.28640416 0.07590648 0.34667668 0.18749547 -0.0042974707 0.15257159
-0.67122465 0.2908273 0.8417421 0.30178472 -0.14415288 0.020395625 0.3688172 -0.27590576
-0.3629998 0.2784501 -0.0067495685 -0.06292692 -0.1579935 -0.4149877 -0.45409688 0.36998945
-0.028239518 0.1614875 -0.15544973 -0.10132543 -0.25267896 0.08019496 0.16635136 0.273433
-0.7980862 -0.05286704 0.17062509 0.8269774 0.41053843 0.0898057 -0.11376616 0.061033715
0.4971192 -0.016419021 -0.4005632 -0.38854957 0.09928508 0.07338223 -0.05740823 -0.047284983
0.4158769 0.49389893 0.088452704 -0.27772966 -0.27629107 -0.13864607 -0.00034209876 -0.35150456
-0.048718948 -0.13694742 -0.24344927 -0.11157433 0.2692046 0.21551539 -0.06433339 0.2412283
-0.660038 -0.32330787 0.3123403 0.38408422 -0.35491946 -0.07699971 0.2263692 -0.12832831
-0.74114877 -0.101109184 0.13862123 -0.5983639 0.2856903 0.2591856 0.7527295 0.085719556
-0.116650715 -0.0547358 0.016730059 -0.029538147 0.27671924 -0.086602926 0.065548755 -0.037930734
0.2374128 -0.17476387 -0.47852316 0.017571293 0.046542596 0.0785714 1.141278 -0.14794876
0.30819315 -0.3938883 -0.22741427 0.17102179 -0.42019606 0.06576923 0.114106156 -0.021828286
-0.49347696 0.13820224 -0.121867836 -0.24684197 -0.11287851 0.15531567 0.27870426 -0.10220261
-0.37269142 0.10530984 0.27914277 0.21488544 -0.36090472 0.74220544 -0.80961436 -0.023498544
0.14179832 -0.021822749 0.03912762 -0.056818448 -0.03499731 -0.27576393 0.18365283 0.3155521
-0.01895469 -0.13205756 -0.16633683 -0.38917002 0.050086837 0.13027167 0.01749671 0.0010039476
-0.10427124 0.35185486 0.55584633 -0.4345545 0.023514874 -0.32611865 -0.074616686 -0.16544284
00000000: a994 b03e ec0e 8f3e 88bb a73d d8b3 38be
00000010: 1f73 8cbe 9782 00be fc4f 153f 78f4 af3e
00000020: dbe6 e43d 02e7 b33d 5757 4fbe 7d89 b93d
00000030: 4b23 88bc d00c 32be 9b17 533e 8a04 7dbe
00000040: ba66 1bbf 4dd4 51bf 979e 34be d320 38bf
00000050: 5cbf 0b3f 8b12 26be e6e7 313e 1816 483e
00000060: 1b5b 0c3f fb24 2ebd eb16 39bd 7d0f a83e
00000070: c971 72bc c851 af3e 635a 1a3a cda8 84be
00000080: 713b c33e 7558 9e3e 379a e03b b176 843e
00000090: 77c0 0bbf 0b69 aabe f98b f83e d5e5 c63d
000000a0: 35ed b8bd 018b 2e3d e49d 6f3e 79ce c7be
000000b0: f576 01be 4428 5d3d 79d2 b83d cc7c 0ebc
000000c0: d8c9 0a3f 3c45 063f bb41 9bbd 73c3 5e3e
000000d0: 9f26 6d3d 2c2a 8d3d 8509 e13d 7eac 9fbe
000000e0: 1cfd 9d3e 6553 c23d b5a5 c8be 0147 2dbf
000000f0: 1b16 16be f7e4 87be 494f 91bd 3187 f7bd
00000100: 6b9c d2bd e5fa ecbe 75db 02bf cf35 19bd
00000110: 1c2a acbe 022e cebe 922a eebe 6a88 263c
00000120: b68f 00be 7159 a1be 7db3 12bf ec04 943e
00000130: 84ec 503e e25a a83c 603c 9e3d 5011 1f3f
00000140: 0146 483e 5ffc f33e c202 bdba a2c0 f9be
00000150: ce5f c53e fdf9 c4bd 77a4 973e c301 3f3e
00000160: ae95 943e 2681 9cbd fe8c 40be ed44 31bc
00000170: 432a 793e fa95 423e abc5 933e 239e f4bd
00000180: 9e12 e8be 7bc6 62be 7f1d 773e 3391 a3bd
00000190: b42f f7be 7709 0dbf ce9d c03d 69fc fdbd
000001a0: dfbd f53d eb70 0ebd 17a4 1fbf 1256 a4bd
000001b0: 7c5a 0d3d be37 5d3d c62c 68bd 4af2 53be
000001c0: 9b38 dabe 57d5 263f 91a3 923e db74 9b3d
000001d0: 9b7f b13e d0fe 3f3e ccd1 8cbb ba3b 1c3e
000001e0: 61d5 2bbf 51e7 943e 697c 573f 8783 9a3e
000001f0: d09c 13be ba14 a73c 9cd5 bc3e 8543 8dbe
00000200: 1cdb b9be 0391 8e3e 7c2b ddbb d4df 80bd
00000210: 0cc9 21be 4579 d4be 637f e8be 426f bd3e
00000220: 9056 e7bc fb5c 253e 372e 1fbe b583 cfbd
00000230: 235f 81be 413d a43d 0358 2a3e 69ff 8b3e
00000240: 614f 4cbf 1c8b 58bd 58b8 2e3e cab4 533f
00000250: 1832 d23e 0dec b73d 3cfe e8bd 7dfe 793d
00000260: 6886 fe3e 2f81 86bc 9f16 cdbe f8ef c6be
00000270: fa55 cb3d 6c49 963d e424 6bbd e6ad 41bd
00000280: d1ed d43e 52e0 fc3e b126 b53d 9532 8ebe
00000290: 0676 8dbe 3cf9 0dbe b85b b3b9 68f8 b3be
000002a0: 858d 47bd f23b 0cbe c44a 79be 1581 e4bd
000002b0: 2fd5 893e 11b0 5c3e 39c1 83bd 8d04 773e
000002c0: 40f8 28bf 9c88 a5be 11eb 9f3e b0a6 c43e
000002d0: 01b8 b5be 06b2 9dbd 54cd 673e 7f68 03be
000002e0: edbb 3dbf 5512 cfbd b9f2 0d3e 602e 19bf
000002f0: 0046 923e fab3 843e e1b2 403f bc8d af3d
00000300: 92e6 eebd a532 60bd 7a0d 893c fcf9 f1bc
00000310: 25ae 8d3e e05c b1bd 6d3e 863d 425d 1bbd
00000320: 571c 733e 4df5 32be fd00 f5be acf1 8f3c
00000330: 73a3 3e3d 0bea a03d 6615 923f e17f 17be
00000340: 7ecb 9d3e baab c9be 49df 68be 5620 2f3e
00000350: f023 d7be 05b2 863d 7db0 e93d 3cd1 b2bc
00000360: 03a9 fcbe e384 0d3e d895 f9bd 24c4 7cbe
00000370: d92c e7bd 120b 1f3e 53b2 8e3e 9a4f d1bd
00000380: 69d1 bebe afac d73d cdeb 8e3e ee0a 5c3e
00000390: 81c8 b8be 2d01 3e3f e342 4fbf 0580 c0bc
000003a0: 9433 113e 9fc5 b2bc 4944 203d 76ba 68bd
000003b0: 5759 0fbd ee30 8dbe 7d0f 3c3e 0b90 a13e
000003c0: de46 9bbc 193a 07be 3454 2abe 4b41 c7be
000003d0: db27 4d3d f065 053e 4355 8f3c e496 833a
000003e0: 298c d5bd 5226 b43e f24b 0e3f ed7d debe
000003f0: 44a2 c03c 06f9 a6be a2d0 98bd d969 29be

blocks.0.attn.b_Q f4 [4, 8]
-0.48870468 -0.29093242 0.5751333 0.82137936 -0.98183626 0.86164254 -0.4829065 -0.69239867
-0.22097673 0.47115418 0.5460907 0.3110577 -0.8492906 -0.7844333 -0.5238283 -0.40396944
0.18975452 -1.0788175 0.68595237 0.45164058 1.019174 -0.8207375 0.97811973 -0.90637255
0.8552761 0.32128724 0.69493735 0.641086 -0.12517291 -0.60134435 0.7446944 0.89661664
00000000: 8037 fabe 18f5 94be f03b 133f eb45 523f
00000010: 9f59 7bbf 9b94 5c3f 853f f7be 0a41 31bf
00000020: b947 62be 1f3b f13e 9acc 0b3f f442 9f3e
00000030: 1c6b 59bf 9fd0 48bf 9d19 06bf 15d5 cebe
00000040: 024f 423e b116 8abf 939a 2f3f 6f3d e73e
00000050: 4b74 823f da1b 52bf 0e66 7a3f 0808 68bf
00000060: 60f3 5a3f c37f a43e 6ae7 313f 361e 243f
00000070: 542d 00be b4f1 19bf 4ba4 3e3f ab88 653f

blocks.0.attn.b_K f4 [4, 8]
-0.004340741 0.009091482 0.0047281343 -0.010667122 0.0053656944 -0.01686448 0.003846046 0.009805293
0.00041427606 0.0035259442 -0.003542128 -0.0066622174 -0.0002672493 -0.0083815595 0.0138177825 -0.0040527587
-0.007406786 0.0014075283 -0.013967619 0.007106409 0.001012154 -9.001947e-05 -0.00685388 0.01346102
0.0087634185 0.0030804996 -0.011184036 0.002715672 0.0038578676 0.0074606533 0.002693046 -0.001101513
00000000: c63c 8ebb 70f4 143c 77ee 9a3b 27c5 2ebc
00000010: b5d2 af3b 6127 8abc f20d 7c3b 61a6 203c
00000020: 3133 d939 8713 673b 0c23 68bb bb4e dabb
00000030: 981d 8cb9 cf52 09bc fb63 623c 01cd 84bb
00000040: a0b4 f2bb d07c b83a 71d8 64bc e1dc e83b
00000050: 41aa 843a d6c8 bcb8 8396 e0bb 9c8b 5c3c
00000060: 7194 0f3c 35e2 493b 3f3d 37bc 6af9 313b
00000070: 47d4 7c3b 7f78 f43b d07d 303b a560 90ba

blocks.0.attn.b_V f4 [4, 8]
0.009524066 0.010120644 0.013596527 0.07436235 -0.05681024 0.049558952 0.026702326 0.073491134
-0.10850981 -0.033623904 0.049571812 -0.004169512 0.035444774 0.07758662 0.13698904 0.11929473
0.067325935 0.026596056 0.03568859 0.06573669 0.038353212 0.10213221 0.038091186 -0.01374251
0.08426032 0.080443576 0.008338012 0.036858052 0.07447905 -0.09481613 0.092591666 -0.084666066
00000000: d40a 1c3c 0fd1 253c f8c3 5e3c 4a4b 983d
00000010: dbb1 68bd 54fe 4a3d d6be da3c 8582 963d
00000020: 643a debd 38b9 09bd d00b 4b3d 67a0 88bb
00000030: 8a2e 113d bce5 9e3d db46 0c3e cc50 f43d
00000040: 2ee2 893d f9df d93c 332e 123d f5a0 863d
00000050: 4218 1d3d b12a d13d 8105 1c3d 4428 61bc
00000060: ad90 ac3d 9abf a43d 289c 083c 78f8 163d
00000070: 7988 983d f62e c2bd b3a0 bd3d 6765 adbd

blocks.0.attn.b_O f4 [32]
0.34203917 -0.15933469 -0.1302862 -0.20513996 -0.13840945 0.06753504 -0.10105734 -0.10636436
0.34242186 0.3190632 -0.0707788 -0.23250686 -0.22402571 0.2639112 0.17328669 0.20093392
0.08890744 0.29171425 -0.21321443 -0.07311903 -0.21741536 0.26582974 -0.39709914 0.17629819
-0.09756737 -0.36846226 0.04331772 0.07903517 0.46892223 -0.21165045 0.0380856 -0.37062347
00000000: c21f af3e a228 23be bf69 05be 3610 52be
00000010: 35bb 0dbe d04f 8a3d 27f7 cebd 8fd5 d9bd
00000020: eb51 af3e 405c a33e 7af4 90bd 4716 6ebe
00000030: ff66 65be 5e1f 873e 1172 313e 9fc1 4d3e
00000040: 1b15 b63d 925b 953e e254 5abe 6ebf 95bd
00000050: 22a2 5ebe d61a 883e 9450 cbbe 8387 343e
00000060: 67d1 c7bd 16a7 bcbe ec6d 313d 31dd a13d
00000070: 9316 f03e e5ba 58be a5ff 1b3d 5cc2 bdbe

blocks.0.ln2.w f4 [32]
1.4647613 1.4738334 1.3633075 1.419023 1.3844014 1.0870404 1.2366272 1.4647104
1.3370814 1.2422315 1.0896616 1.3159479 1.4599977 1.3147845 1.0920439 1.3029925
1.0733942 1.206459 1.6320019 0.99389434 1.3618052 1.383311 1.400251 1.6087728
0.91112196 1.4162037 0.95423985 1.1165354 1.3861418 1.6302785 1.2696861 1.3487904
00000000: 4c7d bb3f 93a6 bc3f dc80 ae3f 8ca2 b53f
00000010: 1134 b13f 2424 8b3f cd49 9e3f a17b bb3f
00000020: 7c25 ab3f 7101 9f3f 087a 8b3f fb70 a83f
00000030: 34e1 ba3f dc4a a83f 18c8 8b3f 75c8 a63f
00000040: fb64 893f 406d 9a3f 70e5 d03f dc6f 7e3f
00000050: a24f ae3f 5610 b13f 6d3b b33f 44ec cd3f
00000060: 4a3f 693f 2a46 b53f 1049 743f a2ea 8e3f
00000070: 186d b13f f7ac d03f 1385 a23f 2aa5 ac3f

blocks.0.ln2.b f4 [32]
-0.36406758 0.6483127 0.9931261 0.8019239 1.0661315 0.9055019 0.8798243 0.9780132
-0.80082214 -0.80832916 0.7291144 0.8446237 1.0944339 -0.510559 0.16523401 -0.55560046
-0.06369049 -0.37919903 0.720893 0.37115142 0.63592964 -0.6026846 0.99437624 -0.50348425
0.7761683 1.0318532 0.39637423 0.22951399 -0.63383496 0.7391535 0.7174369 0.96908545
00000000: 1167 babe d2f7 253f 833d 7e3f e24a 4d3f
00000010: ff76 883f f9ce 673f 2a3c 613f 135f 7a3f
00000020: ae02 4dbf a9ee 4ebf 3ea7 3a3f 4239 583f
00000030: 6916 8c3f ffb3 02bf 1b33 293e d53b 0ebf
00000040: 2970 82bd 6026 c2be 728c 383f 8f07 be3e
00000050: 49cc 223f 8a49 1abf 718f 7e3f 58e4 00bf
00000060: f7b2 463f c413 843f 90f1 ca3e b705 6b3e
00000070: 0243 22bf 2a39 3d3f f2a9 373f fc15 783f

blocks.0.mlp.W_in f4 [32, 128]
-0.019026477 -1.4509472 0.05325505 0.51873726 0.60864794 0.08373301 -0.50777453 -0.31021062
-0.21006632 0.11171501 -0.28138253 -0.7832329 -0.18797104 0.23244238 -0.2761155 -0.373429
-0.28267694 -0.0673413 -0.45741984 -0.060971525 -0.24293119 -0.2740356 0.1750221 -0.15923129
-1.1707743 0.60866743 -0.11275564 -0.39638355 -0.3616585 0.1184336 -0.12932466 -0.33888274
-0.22312765 -0.046524897 -0.009708914 1.280902 -1.1963422 0.13827196 0.20551927 0.15155761
0.5492144 -0.28158242 -0.17045173 -0.21817327 0.12860918 -0.4112434 -0.11556506 0.30840144
0.072508045 0.109127425 -0.064121634 -0.1382766 0.11673697 -0.51436937 -0.053812686 0.63107944
-0.1981975 0.024828486 -0.05032056 -0.43112943 0.09649656 -0.1655577 -0.037058152 0.17533275
0.2176451 0.14870495 0.14045708 -0.18135926 0.043764014 -0.27365997 -0.073206745 0.26956552
0.19769157 0.310311 -0.46685323 -0.09984937 0.13261132 0.37103963 -0.10577206 0.05399458
0.18924463 0.081988424 -0.22222209 -0.015277186 0.34577584 0.022871789 -0.57204956 0.14047113
0.34378242 0.13208115 0.371554 -0.39566526 -0.31227008 -0.04058904 -0.14044698 0.20135473
0.019728554 0.16134527 0.4561003 -1.2538477 -1.0913401 -0.047633708 -0.71985275 -0.18719481
0.10884049 -0.05306035 -0.05148213 -0.036551528 -0.3060555 -0.3245954 -0.117707185 -0.08451711
-0.647043 0.35292062 -0.17580459 0.18411417 -0.36702123 -0.3337933 -0.42770422 -0.6699208
-0.7082403 -0.3505501 0.26185307 0.1722451 -0.2138094 -0.6118665 -0.5504788 0.021100676
0.16002461 0.26793763 -0.08053053 0.0170027 -0.51756096 -0.0059994217 0.11460064 1.2875602
0.18434587 0.002874753 -0.053794637 0.19827053 -0.39038372 -0.007065974 0.261991 0.35165036
0.37303227 0.18630016 -0.07600341 0.29538134 -0.2473121 -0.059009124 0.050749786 -0.20588282
0.4487291 -0.22883008 -0.1636396 -0.080974296 -0.038992222 0.1734574 0.3069222 0.5587399
-0.11602382 -0.019559344 -0.42427236 -0.9133894 0.019113403 0.00582176 0.2744318 0.038751163
-0.0028482336 -0.22735037 -0.18123601 0.123974346 0.41303074 0.13840485 0.10056029 0.14876257
0.065290935 -0.1360825 0.09080918 0.26252294 0.5652869 0.25668076 -0.22600226 -0.41538152
-0.3108336 -0.09202183 -0.17966019 0.7744781 -0.7941691 0.12030134 0.10725897 0.20534451
0.17142862 0.07405507 0.3239513 -1.4962133 -0.3506607 0.39515325 0.3450657 -0.27488053
-0.056363925 -0.5459989 -0.1068677 0.27262384 -0.23453501 -0.3394353 0.051459674 0.20777671
0.06546777 -0.18946813 0.15222219 0.47194144 0.24279965 -0.17660493 -0.34337458 -0.38557872
-0.14241329 0.75894094 0.0029021895 0.3811175 0.07460083 0.40723246 0.20105499 -0.5611441
-0.03593902 0.30998874 -1.0155742 1.0851152 1.1644418 -0.020460734 -0.01665497 -0.2867989
-0.3207579 -0.30736455 0.36554417 -0.10994115 0.021481257 0.29238045 -0.00342581 0.26792786
0.35400435 0.011130785 -0.40685606 -0.016505241 -0.069772296 0.24054866 0.092941105 -0.30240574
0.41610453 0.6475853 -0.034600325 -0.15543236 -0.16124833 0.15933675 0.3253969 -0.26480633
00000000: 6add 9bbc a3b8 b9bf f821 5a3d f7cb 043f
00000010: 5ad0 1b3f 367c ab3d 83fd 01bf edd3 9ebe
00000020: a01b 57be d7ca e43d 5f11 90be f481 48bf
00000030: 7b7b 40be 6005 6e3e 035f 8dbe 1632 bfbe
00000040: 08bb 90be 3cea 89bd ef32 eabe 47bd 79bd
00000050: f4c2 78be 654e 8cbe fe38 333e 870d 23be
00000060: efdb 95bf a1d1 1b3f 6eec e6bd c9f2 cabe
00000070: 4e2b b9be 518d f23d af6d 04be 0a82 adbe
00000080: 937b 64be e490 3ebd 2312 1fbc 99f4 a33f
00000090: be21 99bf 2a97 0d3e a573 523e eb31 1b3e
000000a0: 5199 0c3f 922b 90be e68a 2ebe d068 5fbe
000000b0: 20b2 033e 7f8e d2be 60ad ecbd cbe6 9d3e
000000c0: 197f 943d 337e df3d 3452 83bd 6298 0dbe
000000d0: cb13 ef3d b6ad 03bf b16a 5cbd 6c8e 213f
000000e0: 49f4 4abe 1c65 cb3c ee1c 4ebd ffbc dcbe
000000f0: fd9f c53d f587 29be 4aca 17bd 6e8a 333e
00000100: 5bde 5e3e 1c46 183e fbd3 0f3e 3eb6 39be
00000110: e541 333d 291d 8cbe 6bed 95bd 7e04 8a3e
00000120: a96f 4a3e 15e1 9e3e 6307 efbe d47d ccbd
00000130: 43cb 073e e8f8 bd3e 069f d8bd 6c29 5d3d
00000140: 58c9 413e 8ce9 a73d 308e 63be 2a4d 7abc
00000150: 8809 b13e 9e5d bb3c d771 12bf aad7 0f3e
00000160: 4004 b03e 4840 073e 533c be3e a394 cabe
00000170: dde1 9fbe b140 26bd 55d1 0fbe ef2f 4e3e
00000180: c79d a13c b237 253e fb85 e93e 157e a0bf
00000190: 08b1 8bbf 901b 43bd 4548 38bf ffaf 3fbe
000001a0: c3e7 de3d cf55 59bd edde 52bd 0eb7 15bd
000001b0: 4eb3 9cbe 5e31 a6be 7710 f1bd 4e17 adbd
000001c0: 9ca4 25bf 03b2 b43e 1e06 34be 6d88 3c3e
000001d0: 35ea bbbe f5e6 aabe 0cfc dabe ee7f 2bbf
000001e0: 3c4f 35bf 4d7b b3be 9b11 863e 0561 303e
000001f0: daf0 5abe 48a3 1cbf 2eec 0cbf 53db ac3c
00000200: 7edd 233e 1f2f 893e 31ed a4bd 3f49 8b3c
00000210: e07e 04bf cc96 c4bb beb3 ea3d c6ce a43f
00000220: 2ac5 3c3e 5a66 3c3b c457 5cbd 6e07 4b3e
00000230: 60e0 c7be b089 e7bb af23 863e 840b b43e
00000240: 16fe be3e 78c5 3e3e ada7 9bbd 393c 973e
00000250: 623f 7dbe 8db3 71bd 02df 4f3d f2d2 52be
00000260: d2bf e53e 6f52 6abe 2491 27be dad5 a5bd
00000270: 4fb6 1fbd d19e 313e e824 9d3e 9409 0f3f
00000280: e69d edbd eb3a a0bc 3a3a d9be e3d3 69bf
00000290: b693 9c3c 76c4 be3b 5382 8c3e 8ab9 1e3d
000002a0: 6ea9 3abb 89ce 68be ef95 39be 43e6 fd3d
000002b0: c478 d33e 00ba 0d3e 8ef2 cd3d 3755 183e
000002c0: 41b7 853d 3659 0bbe 2afa b93d 6869 863e
000002d0: a4b6 103f a96b 833e 236d 67be e3ac d4be
000002e0: 9525 9fbe f175 bcbd d7f8 37be 3244 463f
000002f0: ab4e 4bbf 8d60 f63d 97aa db3d d545 523e
00000300: fc8a 2f3e 2faa 973d f2dc a53e eb83 bfbf
00000310: cd89 b3be 8751 ca3e 74ac b03e 24bd 8cbe
00000320: dcdd 66bd 95c6 0bbf 74dd dabd 5a95 8b3e
00000330: f229 70be 77ca adbe 61c7 523d 6bc3 543e
00000340: f713 863d ef03 42be 22e0 1b3e 4fa2 f13e
00000350: 79a0 783e ecd7 34be cbce afbe 936a c5be
00000360: cad4 11be f449 423f a932 3e3b d521 c33e
00000370: 52c8 983d c680 d03e 5ce1 4d3e 24a7 0fbf
00000380: cb34 13bd d8b6 9e3e 56fe 81bf 0ee5 8a3f
00000390: 6e0c 953f 459d a7bc 0170 88bc 4ed7 92be
000003a0: 613a a4be e35e 9dbe 9b28 bb3e d328 e1bd
000003b0: 76f9 af3c e4b2 953e 8e83 60bb d72d 893e
000003c0: 0f40 b53e e55d 363c 704f d0be 0036 87bc
000003d0: c7e4 8ebd 6352 763e e857 be3d edd4 9abe
000003e0: a70b d53e 26c8 253f 12b9 0dbd a929 1fbe
000003f0: 481e 25be 2c29 233e 6c9a a63e b294 87be
