mem-str-models/1l_learned_embed.pt (torch, 108222 bytes, 22 tensors)

embed.W_E f4 [128, 32]
0	0xbd8a7f36	-0.06762545
1	0x3bcb18f4	0.006198043
2	0xbe20b87a	-0.15695372
3	0x3d39e867	0.04538765
4	0x3d875e6c	0.066098064
5	0xbe71f6fb	-0.23629372
6	0xbe2a39a4	-0.1662355
7	0xbe277047	-0.16351424
8	0xbd9bf3a7	-0.07614832
9	0xbdb6c86c	-0.08924946
10	0xbe5926d9	-0.21206225
11	0xbd2c3288	-0.042040378
12	0xbe09e831	-0.1346748
13	0x3c775bb8	0.015097551
14	0x3dac4324	0.084112436
15	0x3c498fbc	0.012302335
16	0x3e2f8958	0.17142236
17	0x3ed9c93a	0.42536336
18	0xbd97f329	-0.07419426
19	0x3d9c5733	0.076338194
20	0x3cce90cc	0.025215529
21	0xbd5352a4	-0.051592484
22	0x3dd4284f	0.10359251
23	0xbd9dc56a	-0.07703669
24	0x3d378c54	0.04481156
25	0xbcae7a6e	-0.021298613
26	0x3dbc9b2e	0.09209286
27	0x3da05c3d	0.07830093
28	0xbe915785	-0.28387085
29	0x3ce0e43b	0.027452579
30	0xbea3ac69	-0.31967476
31	0xbe124201	-0.14282991
32	0xbe01a2d1	-0.12659766
33	0xbe709d92	-0.23497608
34	0xbe0369e0	-0.12833357
35	0xbdaf07e5	-0.08546428
36	0xbe0065a3	-0.12538771
37	0x3e7d8b6b	0.24760215
38	0xbda090fe	-0.07840155
39	0x3ddde5dc	0.10834858
40	0xbe44ca36	-0.19217762
41	0xbc296b6e	-0.010340555
42	0x3e07e7f8	0.13272083
43	0x3e2e8400	0.17042542
44	0x3d3e0432	0.04639072
45	0x3f029258	0.5100455
46	0x3e12a1af	0.1431949
47	0xbd824af1	-0.0636195
48	0x3d8b5427	0.0680316
49	0x3d9d29fe	0.07674025
50	0x3d8cb1d0	0.068698525
51	0x3df1d13a	0.11807485
52	0x3d483e9d	0.048887838
53	0xbe529e89	-0.20568289
54	0xbddeab12	-0.10872473
55	0x3e6c10a2	0.2305322
56	0xbd85766e	-0.06516729
57	0xbe5a7d29	-0.21336807
58	0x3e57435f	0.21021794
59	0x3c9693c4	0.018381007
60	0xbeb08f66	-0.34484404
61	0xbe83fa6e	-0.25777
62	0xbe5912bc	-0.21198553
63	0x3eb47870	0.35248137
64	0xbe7ef89f	-0.24899529
65	0xbeed3c21	-0.46334937
66	0x3e6a18e2	0.22861055
67	0xbe0367d5	-0.12832578
68	0xbe59103d	-0.211976
69	0xbe6f078d	-0.23342724
70	0x3e3fd929	0.18735184
71	0xbe013a31	-0.12619855
72	0x3da83e04	0.082149535
73	0xbc8aa0e1	-0.016922416
74	0x3d0d0ffe	0.03443908
75	0x3de970b2	0.11398448
76	0xbb1793e2	-0.0023128917
77	0xbe4857c0	-0.19564724
78	0x3ddcedc3	0.10787537
79	0xbd9d7103	-0.07687571
80	0xbe17b5ad	-0.14815398
81	0x3e26a32f	0.16273187
82	0x3e71ebe9	0.23625149
83	0xbe077e3b	-0.13231747
84	0x3e55821f	0.20850419
85	0x3ede6ef1	0.43444017
86	0xbe3485a1	-0.176291
87	0x3d4fd1ac	0.050737068
88	0x3ecff34e	0.40615314
89	0x3d90176f	0.070357196
90	0xbb9cfe45	-0.0047910535
91	0x3dfff15d	0.12497208
92	0xbbb857ab	-0.005625685
93	0xbe744357	-0.23853813
94	0x3e5cd545	0.21565731
95	0xbdb34278	-0.08752912
96	0xbcb3f5f3	-0.021967864
97	0x3e8af49c	0.27139747
98	0x3dde8273	0.10864725
99	0xbd35dd0f	-0.04440027
100	0x3e81cddb	0.25352368
101	0x3d689397	0.056781378
102	0xbd824687	-0.06361108
103	0x3e84659e	0.25858778
104	0xbe295d8b	-0.1653959
105	0x3dec978d	0.115523435
106	0xbd2a0e45	-0.041517515
107	0x3e4e8c5e	0.20170733
108	0xbde6ab86	-0.11263184
109	0x3ead897f	0.33893964
110	0xbe4de4a6	-0.20106754
111	0x3df3b33b	0.1189942
112	0xbd053b5b	-0.03252731
113	0x3e12bfb2	0.14330938
114	0xbec6fe97	-0.38866112
115	0xbdb1cacc	-0.086812586
116	0xbefec7b7	-0.49761745
117	0xbe92c02c	-0.2866224
118	0xbdec4b67	-0.11537819
119	0xbe109493	-0.14119177
120	0x3e1203c8	0.14259255
121	0xbe160e43	-0.14653878
122	0x3e0ff3e9	0.14057888
123	0x3e92f5c0	0.28703117
124	0x3cda448e	0.026644018
125	0xbdbeb3ac	-0.093116134
126	0xbe13c4de	-0.14430568
127	0x3d2d7e08	0.04235652
128	0x3e9d536e	0.30727714
129	0xbdbbc9aa	-0.09169324
130	0x3dab1b00	0.08354759
131	0x3c93e466	0.018053245
132	0x3cff2d1e	0.031149443
133	0x3cd75908	0.02628757
134	0xbd8ecb2d	-0.069723465
135	0xbdebb888	-0.11509806
136	0x3e77f31f	0.24213837
137	0xbe493782	-0.19650081
138	0xbed0fe68	-0.40819097
139	0x3e9162cf	0.28395697
140	0x3dd48da1	0.10378576
141	0xbdcb664d	-0.09931622
142	0xbe3dfae8	-0.18552744
143	0x3e884317	0.26613685
144	0x3e429d16	0.19005236
145	0xbc4b4478	-0.012406461
146	0xbe93fc68	-0.28903508
147	0x3e628145	0.22119625
148	0xbe8e3c2a	-0.27780277
149	0xbe639f17	-0.22228657
150	0x3e0574ce	0.13032839
151	0xbe17cc46	-0.14824018
152	0x3e4bc98a	0.199011
153	0xbea44b58	-0.32088733
154	0x3de03240	0.109470844
155	0x3c9e5b43	0.019330626
156	0xbd97df05	-0.074155845
157	0x3dba43ba	0.09094949
158	0xbe087741	-0.13326742
159	0x3d873eb1	0.06603754
160	0x3d0e4462	0.034733184
161	0xbdb00836	-0.08595316
162	0x3e5c0eba	0.21489993
163	0x3e082118	0.13293874
164	0xbcfecb94	-0.031102933
165	0xbe3af687	-0.18258105
166	0xbef812ca	-0.48451835
167	0xbdbd65af	-0.0924791
168	0x3d034cd6	0.0320557
169	0xbdc158bc	-0.09440753
170	0x3e89fc94	0.26950514
171	0x3ebfd8ab	0.37469992
172	0xbe13c8f6	-0.1443213
173	0x3e2ef04a	0.1708385
174	0x3e262d63	0.16228251
175	0x3d98cf87	0.07461458
176	0x3db43985	0.088000335
177	0x3d29f123	0.04148973
178	0x3e34df14	0.17663223
179	0xbed6bdc6	-0.4194166
180	0x3cab857e	0.020937677
181	0x3d1ca735	0.0382454
182	0xbd5233ff	-0.05131912
183	0xbdf5cf3d	-0.12002418
184	0xbe4e633b	-0.20155041
185	0x3c97426d	0.018464291
186	0x3c4a5fbe	0.012351928
187	0x3e5fa972	0.21841982
188	0x3e0991fd	0.13434596
189	0xbe54a975	-0.20767768
190	0xbe0c07ba	-0.13674822
191	0x3e126320	0.14295626
192	0xbed777f8	-0.42083716
193	0xbd2b2854	-0.041786507
194	0x3e662a68	0.22477114
195	0x3dc78faa	0.097441986
196	0x3e58e291	0.21180178
197	0x3c78ae97	0.015178344
198	0x3d8992af	0.06717431
199	0xbd0f779c	-0.035026178
200	0x3ca6bf39	0.020354854
201	0x3c1d8d26	0.009616172
202	0xbeb6d5a8	-0.35709882
203	0xbe9f02f4	-0.3105694
204	0xbe428a3f	-0.18998049
205	0x3e2cb93f	0.16867541
206	0x3e5123cc	0.20423812
207	0x3e05255b	0.13002531
208	0xbda801f7	-0.082035
209	0x3a856c15	0.0010179306
210	0x3ee0de93	0.4391981
211	0xbc8b39a4	-0.016995259
212	0xbc0214ce	-0.007939531
213	0xbd951a65	-0.07280425
214	0x3ca9a99f	0.020710764
215	0xbe91b3b1	-0.28457406
216	0x3eb6f1af	0.35731265
217	0xbe8e5e3a	-0.27806264
218	0xbc0f7b9a	-0.008757496
219	0xbe07c290	-0.13257813
220	0x3d0fc7cd	0.035102654
221	0x3e002ad5	0.12516339
222	0x3c283324	0.010266099
223	0xbcc70767	-0.024295522
224	0x3e511dc3	0.2042151
225	0xbd29be4a	-0.04144124
226	0xbea7fbaa	-0.32809192
227	0x3e25fbaa	0.16209283
228	0xbd11773c	-0.0355141
229	0x3e7df0c8	0.24798882
230	0x3e90509d	0.28186503
231	0xbe3e66c1	-0.18593885
232	0x3cabf127	0.020989014
233	0xbd2de7fb	-0.042457562
234	0x3dbbe3d6	0.09174316
235	0xbd2d0403	-0.042240154
236	0x3e8d8941	0.2764378
237	0xbc16bdb0	-0.009200498
238	0xbe536469	-0.20643772
239	0x3cb64602	0.02225018
240	0xbeafb4eb	-0.34317717
241	0x3dd89b20	0.10576463
242	0x3eabfeb1	0.33592752
243	0xbdf8b2e8	-0.12143499
244	0x3d0f6070	0.03500408
245	0xbdebd2b1	-0.115147956
246	0xbdb44718	-0.088026226
247	0x3ed04c61	0.40683272
248	0xbe51d1bc	-0.20490164
249	0xbe8bdc50	-0.27316523
250	0xbdd7ad01	-0.10531045
251	0xbb944e30	-0.0045259222
252	0xbe097601	-0.13423921
253	0x3e24b2eb	0.16083877
254	0xbe8529f8	-0.26008582
255	0xbddbd017	-0.10733049

pos_embed.W_pos f4 [128, 32]
0	0xbd806935	-0.06270067
1	0x3bb8940d	0.0056328834
2	0xbe1072df	-0.1410632
3	0x3d29da6a	0.04146806
4	0x3d950f03	0.07278254
5	0xbe6b5cb6	-0.22984585
6	0xbe26cb2c	-0.16288441
7	0xbe2a3b16	-0.16624102
8	0xbd8ac18f	-0.067751996
9	0xbdab6c44	-0.083702594
10	0xbe5627bb	-0.20913593
11	0xbd5c26fb	-0.053748112
12	0xbe0900ca	-0.13379207
13	0x3c91a4f1	0.017778846
14	0x3d9a3ee1	0.075315244
15	0x3bd2fd42	0.006438882
16	0x3e2eb32a	0.17060533
17	0x3edb19e7	0.427932
18	0xbdacc65e	-0.08436273
19	0x3da1b375	0.07895557
20	0x3cef198f	0.029186992
21	0xbd42e370	-0.047580183
22	0x3ddc943d	0.10770462
23	0xbd932c0a	-0.07186134
24	0x3d31368e	0.043264918
25	0xbcca82d6	-0.02472059
26	0x3db48146	0.088137195
27	0x3d953d88	0.07287127
28	0xbe8f89b7	-0.28034756
29	0x3d098c20	0.0335809
30	0xbea287d8	-0.31744266
31	0xbe0f9b8c	-0.1402418
32	0xbec3842c	-0.38186777
33	0x3dfb536f	0.12271773
34	0x3d475c41	0.048671965
35	0xbd45e2d3	-0.04831202
36	0xbeb75723	-0.35808668
37	0xbe635396	-0.22199854
38	0xbd90cbf5	-0.07070152
39	0xbea93882	-0.33050925
40	0x3dfadb29	0.12248833
41	0xbedfd359	-0.43715933
42	0xbf0e2858	-0.5553031
43	0x3d3ecfbb	0.046584826
44	0xbe2ada00	-0.16684723
45	0x3bd219a1	0.0064117466
46	0x3c9a3cf5	0.018827895
47	0xbe8d1bbe	-0.27560228
48	0xbe505234	-0.20343858
49	0x3fc7c189	1.5605937
50	0x3ec69327	0.38784143
51	0xbe05a3c3	-0.13050751
52	0xbca9c0d3	-0.020721829
53	0xbf5a7b9c	-0.8534486
54	0x3f705a19	0.9388748
55	0xbddf764a	-0.10911234
56	0xbe9b330a	-0.30312377
57	0xbe9f29fc	-0.3108672
58	0xbda0603c	-0.07830855
59	0xbddf7e78	-0.10912794
60	0xbcedc1b8	-0.029023036
61	0x3e57d265	0.21076353
62	0xbe52677d	-0.2054729
63	0xbf1afd6a	-0.6054293
64	0xbe481810	-0.19540429
65	0x3e5e111e	0.21686217
66	0xbdfd9d77	-0.1238355
67	0x3e3e42c0	0.1858015
68	0xbe9fe970	-0.31232786
69	0xbeb06f5a	-0.34459955
70	0xbd0d2aa4	-0.034464493
71	0xbdb719c3	-0.089404605
72	0xbea99fd3	-0.3312975
73	0xbeebe421	-0.46072486
74	0xbed4592c	-0.41474283
75	0xbe5685ed	-0.20949526
76	0xbd921710	-0.07133305
77	0xbdf64646	-0.12025122
78	0xbd329014	-0.043594435
79	0xbe20bd1b	-0.15697138
80	0xbf0aac01	-0.5416871
81	0x3f9ebf12	1.240206
82	0xbd3d6ea5	-0.046248097
83	0xbdd8cfdc	-0.10586521
84	0x3d15b5e7	0.03655043
85	0xbeb89a33	-0.36055145
86	0x3f3fb346	0.74882925
87	0x3ca2dcfe	0.019880768
88	0xbeee1642	-0.46501356
89	0xbe9d9871	-0.30780366
90	0x3e209e4e	0.15685388
91	0xbd1ccc53	-0.038280796
92	0x3ce7a17d	0.028275246
93	0xbe9b6b9f	-0.30355546
94	0x3ce34bc2	0.027746085
95	0xbe91d667	-0.28483889
96	0xbe3fcf17	-0.18731342
97	0x3e7e2212	0.24817684
98	0xbd451846	-0.048118852
99	0x3d953ee0	0.07287383
100	0xbdf62fc9	-0.12020833
101	0xbda7c8ec	-0.0819262
102	0x3de35cb0	0.11101663
103	0x3bc5a218	0.006031286
104	0xbecaf6c4	-0.39641392
105	0xbecd8786	-0.4014246
106	0xbe828f57	-0.25499985
107	0xbe8490a7	-0.2589161
108	0xbd02ea98	-0.031962007
109	0x3d21698e	0.039407305
110	0xbd4a6c6d	-0.04941981
111	0xbe01197d	-0.1260738
112	0xbeac36ed	-0.33635655
113	0x3f7d9535	0.99055797
114	0x3d72f2e5	0.059313674
115	0xbe1f1699	-0.15535964
116	0x3dcb43b6	0.09925024
117	0xbe0edc10	-0.13951135
118	0x3f393296	0.72342813
119	0xbe395dcf	-0.18102191
120	0xbeb41fdd	-0.3518056
121	0xbe0e2ca1	-0.13884212
122	0xbd8b3f91	-0.06799234
123	0xbdeb8956	-0.11500804
124	0x3d40f0b8	0.047104567
125	0xbea6619c	-0.32496345
126	0xbe181ae8	-0.14854014
127	0xbea844aa	-0.32864887
128	0xbde56d27	-0.1120246
129	0xbc8b4490	-0.017000467
130	0xbd1ed137	-0.03877374
131	0xbd832356	-0.06403224
132	0x3ca4dde9	0.020125346
133	0xbc3461dd	-0.011009661
134	0xbca0c1fb	-0.019623747
135	0x3b1bf4d0	0.0023797043
136	0xbe2c3a3a	-0.16819087
137	0xbde967a3	-0.1139672
138	0xbe07de74	-0.13268453
139	0xbe095437	-0.13411032
140	0xbd2828a4	-0.041054383
141	0xbdf740d4	-0.12072912
142	0xbda432cf	-0.080175035
143	0xbe0c2200	-0.13684845
144	0xbde7caca	-0.11317976
145	0x3f31a307	0.69389385
146	0xbcd2b6b7	-0.02572189
147	0xbd951f07	-0.072813086
148	0x3d3a4d06	0.04548361
149	0xbdc4fca8	-0.09618503
150	0x3f1a23a5	0.6021064
151	0xbdf9a6b2	-0.12189998
152	0xbe1bbf2a	-0.15209642
153	0xbe094e59	-0.13408794
154	0xbdba037e	-0.09082697
155	0xbe137629	-0.14400543
156	0x3c11324b	0.008862088
157	0xbdfde41b	-0.12397023
158	0xbc8d0e8c	-0.01721885
159	0xbdd46804	-0.10371402
160	0xbdf1c58c	-0.11805257
161	0xbd7bfd64	-0.06152095
162	0xbd98d8cf	-0.07463228
163	0xbd96913f	-0.07351922
164	0xbd7b66b1	-0.06137723
165	0x3ca4f456	0.02013604
166	0xbd73e92d	-0.059548546
167	0xbbf46687	-0.0074585113
168	0xbe23aea8	-0.15984595
169	0xbdd50996	-0.10402219
170	0xbdf545e1	-0.11976219
171	0xbd4b357d	-0.049611557
172	0xbd2fd5e7	-0.042928603
173	0xbe157660	-0.14595938
174	0xbdb3bc02	-0.08776094
175	0xbdaef814	-0.08543411
176	0xbdb9d470	-0.09073722
177	0x3f268a5f	0.6505489
178	0xbc3de362	-0.011589857
179	0xbd7aaca9	-0.061199818
180	0xbcd5f0b2	-0.026115749
181	0xbd91642a	-0.07099183
182	0x3effa52e	0.4993071
183	0xbe0c4d9e	-0.13701484
184	0xbdf3bafc	-0.11900899
185	0xbd88955d	-0.06669114
186	0xbdc758e7	-0.09733754
187	0xbdf32602	-0.11872484
188	0x3c694343	0.014237228
189	0xbdfc682d	-0.123245575
190	0xbc8c2548	-0.01710762
191	0xbced925b	-0.029000452
192	0xbdc2bd4b	-0.09508761
193	0xbd902f39	-0.07040257
194	0xbda457bd	-0.08024547
195	0xbdac8f38	-0.08425754
196	0x3ba35239	0.004984167
197	0xbd1b5010	-0.03791815
198	0xbcf12b87	-0.0294397
199	0xbba32ae3	-0.0049794777
200	0xbde83266	-0.11337738
201	0xbdfde767	-0.12397652
202	0xbe05812b	-0.13037555
203	0xbd8c12c8	-0.0683952
204	0xbd657e41	-0.05602861
205	0xbe1d2092	-0.15344456
206	0xbda5a23d	-0.08087585
207	0xbda02b52	-0.07820763
208	0xbda491e6	-0.080356404
209	0x3f2138ab	0.62977093
210	0xbc0dcb31	-0.008654402
211	0xbdb03d61	-0.08605457
212	0x3d8c6fe7	0.06857281
213	0xbd8bbe91	-0.06823457
214	0x3ef399b7	0.47578213
215	0xbdffb006	-0.12484746
216	0xbe2ce0d6	-0.16882643
217	0xbddeae99	-0.108731456
218	0xbde2715d	-0.110567786
219	0xbdc33b14	-0.09532753
220	0xbc7f1f8a	-0.015571484
221	0xbe2c3ca4	-0.16820008
222	0xbd5adfff	-0.053436276
223	0xbd4b99d7	-0.04970726
224	0xbd4f56af	-0.050619777
225	0xbda5aa5d	-0.08089135
226	0xbd8dfb0c	-0.06932649
227	0xbda89cb9	-0.082330175
228	0xbc26ddcf	-0.010184719
229	0xbd5891ee	-0.052873544
230	0xbd09433a	-0.033511378
231	0x3b47c5c0	0.0030482858
232	0xbe08276d	-0.1329629
233	0xbe03ea33	-0.12882309
234	0xbcac3e2f	-0.021025745
235	0xbda91252	-0.082554474
236	0xbd99a75c	-0.075026244
237	0xbdef9cf0	-0.11699855
238	0xbdc81152	-0.097689286
239	0xbdd23d2d	-0.102655746
240	0xbde81ef8	-0.11334032
241	0x3f15c553	0.5850422
242	0xbcc4d030	-0.024025053
243	0xbdca51f8	-0.098789155
244	0xbbd7a708	-0.006581191
245	0xbd5dcc6e	-0.054150037
246	0x3ee9d071	0.4566684
247	0xbe05291b	-0.13003962
248	0xbe10079a	-0.140654
249	0xbd1606c2	-0.03662754
250	0xbd83f54f	-0.06443273
251	0xbdc566b1	-0.096387275
252	0x3a87217c	0.0010309662
253	0xbdf4e5e3	-0.1195791
254	0xbd6bbc46	-0.0575526
255	0xbdccc9c5	-0.09999422

blocks.0.ln1.w f4 [32]
0	0x3f12581f	0.5716571
1	0x3f38d751	0.72203547
2	0x3f306b5a	0.68913805
3	0x3f300052	0.6875049
4	0x3f2204f6	0.6328882
5	0x3f4fcaa4	0.8116858
6	0x3f3786a3	0.71689814
7	0x3f41660b	0.7554633
8	0x3f3ef48b	0.7459189
9	0x3f52760e	0.8221139
10	0x3f2774e3	0.6541273
11	0x3f1d6110	0.6147623
12	0x3f14016b	0.57814664
13	0x3f1b1744	0.60582376
14	0x3f519b35	0.8187745
15	0x3f3fb7ae	0.7488965
16	0x3f3b9be2	0.73284733
17	0x3f822610	1.0167866
18	0x3f17b33d	0.5925787
19	0x3f522946	0.8209423
20	0x3f3816bd	0.71909696
21	0x3f42f5b1	0.76156145
22	0x3f7413db	0.953428
23	0x3f2c6518	0.67341757
24	0x3f2f0c25	0.68377906
25	0x3f43ce0f	0.76486295
26	0x3f3fc842	0.74914944
27	0x3f385b29	0.720141
28	0x3f4b7138	0.79469633
29	0x3f3d7cb6	0.7401842
30	0x3f3062a4	0.68900514
31	0x3f20ad8b	0.62764806

blocks.0.ln1.b f4 [32]
0	0x3a8bf47d	0.0010677722
1	0x3d4583ad	0.04822128
2	0x3cfd2b45	0.030904422
3	0xbbf7c322	-0.0075611034
4	0x3d4de288	0.050264865
5	0x3c300b9d	0.010744956
6	0x3d5b16b2	0.05348844
7	0x3ce23916	0.027615111
8	0x3d8330c4	0.06405786
9	0x3d5dde96	0.054167353
10	0xbd7bad81	-0.061444763
11	0x3d7d031b	0.06177054
12	0x3d938e1e	0.07204841
13	0xbd9f9345	-0.07791761
14	0xbd204b00	-0.039134026
15	0xbd10672e	-0.03525465
16	0xbd72f6f4	-0.059317544
17	0xbe4b029e	-0.19825217
18	0xbe1928de	-0.14956996
19	0x3d24862c	0.04016702
20	0xbd80e75f	-0.062941305
21	0x3cf7939f	0.030221758
22	0xbe255122	-0.16144231
23	0x3cc71399	0.024301337
24	0xbd217e2f	-0.03942698
25	0x3d4d9cfb	0.050198536
26	0xbbfc74f5	-0.007704372
27	0x3c82adc4	0.015951999
28	0x3d9a508a	0.07534893
29	0x3d910637	0.070812635
30	0x3e06d3f7	0.13166796
31	0x3d8c688e	0.0685588

blocks.0.attn.W_Q f4 [4, 32, 8]
0	0xbe0bb850	-0.13644528
1	0x3e70b263	0.23505549
2	0x3dd2cace	0.10292588
3	0x3d0a4606	0.033758186
4	0x3e1e18b7	0.15439115
5	0xbe87d1b7	-0.26527187
6	0x3e18fc3e	0.14939973
7	0xbf144394	-0.57915616
8	0x3e2f1b84	0.1710034
9	0xbe789948	-0.24277222
10	0x3c6d795b	0.014494265
11	0xbe60664c	-0.21914023
12	0xbdfe2679	-0.12409682
13	0x3e0d21a6	0.13782367
14	0xbc854729	-0.016269283
15	0x3c4e84cf	0.012604906
16	0x3daa40c1	0.08313132
17	0xbe188b22	-0.14896825
18	0xbee18672	-0.44047886
19	0xbebf1c79	-0.3732641
20	0xbe9488a2	-0.29010493
21	0xbcde74e2	-0.027155343
22	0xbdba16e6	-0.09086399
23	0xbe7c8d0c	-0.2466318
24	0x3b98b868	0.004660655
25	0x3dcdc4e4	0.100473195
26	0xbc85d2f3	-0.01633594
27	0x3dcdea7d	0.10054491
28	0xbe349822	-0.17636159
29	0xbe2c395b	-0.16818754
30	0x3b86f078	0.0041180216
31	0x3ea480a5	0.32129398
32	0xbe1e093b	-0.15433209
33	0xbdcdd241	-0.100498684
34	0x3d229a89	0.039698157
35	0x3cf76459	0.030199217
36	0x3ee9bd5a	0.45652276
37	0x3f0511e8	0.5198045
38	0x3e034c76	0.12822136
39	0x3e8dedd8	0.27720523
40	0x3dc9ff7a	0.098631814
41	0x3e01d059	0.12677135
42	0x3e885504	0.26627362
43	0x3ea69542	0.3253575
44	0xbe3b864f	-0.18312953
45	0xbe9f42df	-0.31105706
46	0xbdd69935	-0.10478441
47	0x3e9184c1	0.28421596
48	0xbce6bff0	-0.028167695
49	0x3eb21296	0.34779805
50	0x3e2c229a	0.16810074
51	0x3e21c286	0.15796861
52	0x3ded3462	0.11582257
53	0x3e60fe89	0.21972097
54	0xbc12b2c7	-0.008953757
55	0x3e685d7e	0.22691914
56	0xbd054f6b	-0.032546442
57	0xbda5af19	-0.08090038
58	0x3dd45ddd	0.103694655
59	0xbe99ea62	-0.30061632
60	0x3e995a25	0.29951587
61	0x3ed468d7	0.41486236
62	0xbdc72124	-0.09723118
63	0x3ca5af7b	0.020225277
64	0xbeba5eb2	-0.36400372
65	0xbea975c1	-0.33097652
66	0xbe6ba8d7	-0.23013626
67	0xbdabf6bc	-0.0839667
68	0xbc82172a	-0.015880186
69	0xbde01807	-0.10942083
70	0xbebc22d8	-0.36745334
71	0xbdd37d9c	-0.103266925
72	0xbcdf05e5	-0.02722449
73	0x3e93c095	0.28857866
74	0xbddcce0d	-0.107814886
75	0x3eb7705a	0.35827905
76	0xbea03027	-0.31286737
77	0xbe94c3e1	-0.29055694
78	0x3d08338f	0.033252295
79	0x3e940e50	0.2891717
80	0x3dd7220f	0.10504543
81	0x3e6e1598	0.23250425
82	0x3ec56289	0.3855174
83	0xbe9a0cf3	-0.30088004
84	0xbd8b15b2	-0.067912474
85	0x3e96b949	0.29438236
86	0x3e9b3dd1	0.303206
87	0xbed305dc	-0.41215408
88	0xbdab2769	-0.08357126
89	0xbe32e98b	-0.17471902
90	0x3ec9dbd4	0.39425528
91	0xba4e398e	-0.00078668527
92	0x3e034935	0.12820895
93	0xbec97684	-0.39348233
94	0x3e8f04c4	0.27933323
95	0xb7d395db	-2.5222942e-05
96	0x3eb512b2	0.35365826
97	0x3bf38c03	0.007432462
98	0xbe527e01	-0.20555879
99	0x3ef482ef	0.47756144
100	0x3eaeb612	0.34123284
101	0xbdd77337	-0.10520022
102	0xbedd9560	-0.43278027
103	0x3d11725d	0.035509456
104	0xbe03218e	-0.12805769
105	0xbccd2cd6	-0.025045794
106	0x3e641fc8	0.22277749
107	0xbe89d698	-0.26921535
108	0xbe93e5a2	-0.28886133
109	0x3d8dff14	0.06933418
110	0x3dd195fa	0.10233684
111	0xbf1c44c1	-0.6104241
112	0x3e15b790	0.14620805
113	0xbd5fbc21	-0.054622773
114	0x3d3e2cf3	0.046429586
115	0xbe66c3a6	-0.22535571
116	0xbe4f4127	-0.20239697
117	0x3e24e6ba	0.1610364
118	0xbcf5889d	-0.029972369
119	0xbcad38d4	-0.021145262
120	0xbef4cb37	-0.4781129
121	0x3cbc5899	0.022991465
122	0x3e4aa4d6	0.19789442
123	0x3c835fd2	0.016036902
124	0x3e374678	0.17897975
125	0x3e83fbda	0.25778085
126	0x3dfaaafb	0.12239643
127	0x3e552dbf	0.20818232
128	0xbdfb905a	-0.12283392
129	0x3dad82f2	0.084722415
130	0x3ea4496e	0.32087272
131	0x3c2bf689	0.01049579
132	0x3d0ba850	0.034096062
133	0x3e4bfc67	0.19920503
134	0x3d5d4054	0.054016426
135	0x3e4ad278	0.1980685
136	0xbd8d76d3	-0.069074295
137	0x3e4b3421	0.19844104
138	0xbe0608aa	-0.13089243
139	0x3e5f4ec2	0.21807387
140	0x3d9f5166	0.077791974
141	0xbe034233	-0.12818222
142	0x3e368949	0.17825808
143	0x3c94d77d	0.01816916
144	0x3cb20be4	0.021734186
145	0x3e46efc4	0.19427401
146	0xbea84e21	-0.32872108
147	0x3d96ef71	0.073698886
148	0x3e841a81	0.2580147
149	0x3af722ea	0.001885501
150	0xbe69300f	-0.22772239
151	0xbe7407f2	-0.23831156
152	0x3c42c37f	0.01188743
153	0xbe811589	-0.25211743
154	0xbe498370	-0.19679046
155	0x3e87bbef	0.2651057
156	0xbc10d408	-0.008839615
157	0xbe414a26	-0.18875942
158	0x3e8eddc5	0.27903572
159	0x3d55fc02	0.052242287
160	0x3e378db4	0.17925149
161	0x3e3848a9	0.17996468
162	0x3e10419b	0.14087527
163	0xbde8fada	-0.11375971
164	0xbc925630	-0.017863363
165	0xbdf5fbee	-0.120109424
166	0x3cae9f22	0.021316115
167	0x3e8fc2ee	0.28078407
168	0x3ae77d8b	0.0017661316
169	0x3e199af2	0.15000513
170	0xbeb5d511	-0.3551412
171	0x3ede41b1	0.43409494
172	0x3de6de83	0.112729095
173	0x3d941406	0.07230382
174	0xbd7c738e	-0.06163364
175	0xbedc2019	-0.4299324
176	0x3ec6f9e8	0.38862538
177	0xbeba6bd4	-0.3641039
178	0x3dc6b31f	0.097021334
179	0xbe677c29	-0.22605957
180	0x3e17ca0c	0.14823169
181	0x3d72d6d8	0.059286922
182	0xbebfc6ef	-0.37456462
183	0xbce07778	-0.027400717
184	0xbe47b57e	-0.19502828
185	0xbe2b10b4	-0.1670559
186	0xbc3b1661	-0.01141891
187	0xbd90798e	-0.07054435
188	0xbda75271	-0.08170021
189	0x3e8032ca	0.2503875
190	0xbdaa0ec7	-0.083036
191	0x3e2d9d92	0.1695464
192	0xbddb558d	-0.10709677
193	0x3ec36312	0.38161522
194	0xbe7b1292	-0.24518803
195	0xbe173cf9	-0.14769353
196	0xbd874725	-0.066053666
197	0x3e8e7f8f	0.27831694
198	0xbd9c09ff	-0.07619094
199	0xbdc3ab2a	-0.09554131
200	0x3f17aafc	0.59245276
201	0xbcf86bf6	-0.030324917
202	0x3ecd6b9c	0.40121162
203	0x3dddb03a	0.10824628
204	0xbe3184ce	-0.17335817
205	0xbe3e0f1b	-0.1856045
206	0x3ce29ac5	0.02766169
207	0x3e8c2ffa	0.27380353
208	0x3cfabea4	0.030608483
209	0xbee0c11e	-0.43897337
210	0x3ec79d71	0.38987306
211	0x3cc06f62	0.023490611
212	0x3e9f7ad4	0.31148398
213	0xbe3bedaf	-0.18352388
214	0xbe78ad82	-0.24284938
215	0x3daeb92a	0.08531411
216	0xbe6c36ef	-0.2306783
217	0x3e501c19	0.20323218
218	0xbf030f8a	-0.51195586
219	0xbe88a3a5	-0.2668735
220	0xbef0c817	-0.47027656
221	0xbdcf45d0	-0.101207376
222	0xbef0e485	-0.47049347
223	0x3e62f9e6	0.22165641
224	0xbe8c7c30	-0.27438498
225	0x3e125eab	0.14293925
226	0xbdae48f8	-0.085100114
227	0xbd4c1745	-0.04982688
228	0x3f06170d	0.5237892
229	0x3f098ad0	0.53727436
230	0x3d9025dd	0.07038472
231	0xbe0e9017	-0.13922153
232	0xbe08d878	-0.13363826
233	0xbe8af237	-0.2713792
234	0x3d12349c	0.035694703
235	0x3e82fcb8	0.25583434
236	0xbe64a85f	-0.22329853
237	0xbec689ee	-0.38777107
238	0x3ecc1c5b	0.39865384
239	0xbcd409c6	-0.025883567
240	0xbdb9ed00	-0.09078407
241	0x3ba5dd1f	0.00506176
242	0x3d768381	0.060184006
243	0xbc8110de	-0.015755113
244	0xbee72d51	-0.4515176
245	0xbefafba4	-0.49020112
246	0xbcad707f	-0.021171806
247	0x3d38470f	0.04498964
248	0x3e888671	0.2666507
249	0xbe4f09fc	-0.20218652
250	0xbe82f5b6	-0.25578088
251	0xbd2db19a	-0.042405702
252	0xbe95d48b	-0.2926372
253	0x3e7b1d57	0.24522911
254	0x3f265994	0.64980435
255	0x3dba3586	0.0909224

blocks.0.attn.W_K f4 [4, 32, 8]
0	0xbe40bd9c	-0.1882233
1	0x3e493795	0.19650109
2	0x3e7404d9	0.23829974
3	0x3d92c61d	0.07166693
4	0x3e9a6204	0.30152905
5	0x3e2feda1	0.17180492
6	0x3d43e33f	0.04782414
7	0xbd1a0f3a	-0.037612177
8	0x3e115711	0.1419337
9	0x3e9cb6b3	0.30608138
10	0xbda1afda	-0.07894869
11	0x3e0c9936	0.1373032
12	0xbe82edec	-0.25572145
13	0xbdcaae38	-0.09896511
14	0xbe8ea01b	-0.27856526
15	0x3e8f9b25	0.28048053
16	0x3b002c78	0.0019557755
17	0xbd82af99	-0.06381149
18	0x3e190cae	0.14946243
19	0xbe4a40f7	-0.19751345
20	0x3d5d5a7e	0.05404138
21	0x3ce513c0	0.02796352
22	0xbe891156	-0.2677104
23	0x3dafa617	0.08576601
24	0x3ce4a902	0.02791262
25	0xbe2732db	-0.16327994
26	0x3e6f7ee0	0.23388243
27	0xbd876fd7	-0.06613129
28	0x3d16f192	0.036851473
29	0x3ceaca07	0.028660787
30	0x3e03c27a	0.12867156
31	0x3e8dd0ec	0.27698457
32	0xbda8a375	-0.08234302
33	0xbe76eb92	-0.241133
34	0xbd18ed59	-0.037335727
35	0x3d8e3195	0.06943051
36	0xbd39c017	-0.045349207
37	0xbeb25ab4	-0.34834826
38	0xbe4d42b6	-0.2004498
39	0xbd1eeb46	-0.038798593
40	0xbe3e6d75	-0.18596442
41	0x3e1aeae8	0.15128672
42	0xbef4752c	-0.47745645
43	0x3e165b53	0.14683275
44	0xbe2cd39f	-0.16877602
45	0x3e50a59a	0.20375672
46	0xbe989ce8	-0.2980721
47	0xbe806390	-0.2507596
48	0x3c883f03	0.016631609
49	0xbd98feca	-0.07470472
50	0x3ec9ceb7	0.39415523
51	0xbd54f471	-0.05199093
52	0xbedc8d25	-0.43076435
53	0xbe51387c	-0.20431703
54	0xbe95a070	-0.29223967
55	0xbdd80687	-0.1054812
56	0xbe2233ea	-0.15840116
57	0x3eb494a6	0.3526966
58	0xbd17de5f	-0.037077304
59	0x3e3899b0	0.18027377
60	0xbe059593	-0.1304534
61	0x3e62203a	0.22082606
62	0xbdd651eb	-0.10464843
63	0x3d53860e	0.051641516
64	0x3d640ad6	0.055674396
65	0x3e914f5c	0.2838086
66	0xbcc0aa69	-0.023518758
67	0x3d533e0f	0.051572856
68	0xbcd73df7	-0.026274664
69	0x3ea2cbfd	0.31796256
70	0x3df78263	0.12085416
71	0xbd82b7b5	-0.063826956
72	0xbe754f2c	-0.23955983
73	0xbd2d87b7	-0.042365756
74	0xbe8e2a7f	-0.27766797
75	0xbebd0f5c	-0.3692578
76	0x3e02a4c2	0.12758163
77	0x3e5eab33	0.21744995
78	0x3da3f036	0.08004801
79	0xbe6f8901	-0.23392107
80	0xbe882b1f	-0.265954
81	0xbdce0620	-0.10059762
82	0x3dbf01a0	0.09326482
83	0xbe222fc5	-0.15838535
84	0x3de3edd5	0.11129347
85	0x3ccc7bd6	0.024961393
86	0x3d9f526f	0.07779395
87	0x3e8b9091	0.27258733
88	0x3c719e5b	0.014747228
89	0xbe9d4b6e	-0.3072161
90	0x3e06cfb4	0.1316517
91	0x3ec96207	0.393326
92	0x3e0c9c39	0.13731469
93	0x3d212c97	0.039349165
94	0x3e81ab82	0.25326163
95	0x3e530ace	0.2060959
96	0xbe5c76c6	-0.21529683
97	0x3e53c939	0.20682229
98	0xbe7b4f49	-0.24541964
99	0x3e775df3	0.24156933
100	0x3df2cbdd	0.1185529
101	0xbc9e44c6	-0.019319903
102	0xbecda205	-0.40162674
103	0xbe8a8348	-0.27053285
104	0x3d1ea2d6	0.03872951
105	0xbd68964d	-0.056783963
106	0xbec74f90	-0.3892789
107	0x3e85b35c	0.26113403
108	0xbe9fcd22	-0.3121119
109	0xbea5051d	-0.32230464
110	0x3d9664f7	0.07343476
111	0xbdff7495	-0.12473408
112	0x3ea5baf7	0.32369205
113	0xbcc19762	-0.023631755
114	0x3d2390ce	0.03993302
115	0xbe3cd53f	-0.18440722
116	0x3cfb7f1c	0.030700259
117	0x3d41ade1	0.047284964
118	0x3c4e898a	0.012606034
119	0x3be6a29e	0.0070384284
120	0xbdab282a	-0.0835727
121	0xbe95a39e	-0.29226393
122	0xbd81f187	-0.06344896
123	0xbe31bcbe	-0.17357156
124	0x3e5eba50	0.2175076
125	0x3d22166f	0.039572176
126	0xbe2128b2	-0.1573818
127	0xbd68e69c	-0.05686055
128	0xbca646e5	-0.020297477
129	0xbd82a446	-0.06378989
130	0x3de71868	0.11283952
131	0x3ea16035	0.31518713
132	0xbd88c2f9	-0.06677813
133	0xbe06ab6d	-0.13151331
134	0x3e12966f	0.14315198
135	0xbe9ba4de	-0.3039922
136	0x3f2a96c5	0.66636306
137	0x3ec2ccd5	0.380469
138	0xbdd2ed27	-0.102991395
139	0xbf457d45	-0.7714427
140	0x3f85a980	1.0442352
141	0xbf4fa100	-0.8110504
142	0x3e4aed18	0.19817007
143	0x3f318d52	0.6935626
144	0x3de52955	0.11189524
145	0xbe8dcd8a	-0.27695876
146	0x3d0df44c	0.034656808
147	0xbe5f4b2d	-0.21806021
148	0xbea342c8	-0.31886888
149	0x3d9b4c27	0.07582884
150	0x3dcb9653	0.099407814
151	0x3e8d96f2	0.27654225
152	0x3e005a26	0.12534389
153	0x3e1a268a	0.15053764
154	0xbdd894c9	-0.105752535
155	0x3d85091e	0.064958796
156	0xbc64381d	-0.013929394
157	0x3d28d7a1	0.041221265
158	0xbba03b92	-0.004889914
159	0xbdc77278	-0.0973863
160	0x3d899ee1	0.06719757
161	0xbe0604b3	-0.1308773
162	0x3ce5b014	0.028038062
163	0x3cc7e39b	0.024400523
164	0xbb90b1d9	-0.0044157323
165	0x3e38fa1c	0.18064159
166	0xbda497bd	-0.08036754
167	0xbcf7114a	-0.030159611
168	0xbe0b74a5	-0.13618715
169	0x3d24297c	0.040078625
170	0x3d7cf801	0.061759952
171	0xbde61874	-0.11235133
172	0x3e403ea6	0.18773898
173	0xbe6f859e	-0.23390815
174	0x3f30090b	0.687638
175	0x3d957d29	0.07299263
176	0x3f5551da	0.8332802
177	0x3e80f5a1	0.251874
178	0xbf49cf9e	-0.78832424
179	0xbf25cbea	-0.64764273
180	0x3f30f564	0.69124436
181	0xbf3cdc0b	-0.7377326
182	0x3f1ac95c	0.604635
183	0x3f566b80	0.8375778
184	0xbd73f6be	-0.059561484
185	0xbeda56f7	-0.42644474
186	0x3c98de67	0.018660737
187	0x3e1f9d6c	0.15587395
188	0xbc1a49dd	-0.009417024
189	0x3ed623e3	0.41824254
190	0xbeb589a6	-0.3545658
191	0xbe3cd01a	-0.1843876
192	0x3d91d139	0.07119984
193	0x3dcbd3e0	0.09952521
194	0xbdc8e2a5	-0.09808854
195	0xbd88faee	-0.06688486
196	0xbda3bb2d	-0.07994685
197	0xbe220a90	-0.15824342
198	0x3e34002f	0.17578195
199	0xbdf4b2f1	-0.11948193
200	0xbec465fc	-0.38359058
201	0xbe9f246f	-0.31082484
202	0xbe09e1a9	-0.13464989
203	0x3e8d8386	0.27639407
204	0xbdefba7c	-0.11705491
205	0xbd3bcd68	-0.045850188
206	0xbecdc726	-0.40191
207	0x3e37ddce	0.17955706
208	0x3bf6d5fc	0.007532833
209	0x3e0227b3	0.12710457
210	0xbcdb2046	-0.026748788
211	0x3e957725	0.29192463
212	0xbc3f6d86	-0.011683827
213	0x3b583fc6	0.0032996996
214	0x3e07c5d9	0.13259067
215	0xbc11926e	-0.008885009
216	0x3e4eda25	0.20200403
217	0xbe62053e	-0.22072312
218	0x3e8aec5e	0.2713346
219	0xbe01eb41	-0.12687398
220	0x3d4b4e78	0.04963538
221	0x3d2bfbcb	0.041988175
222	0x3ded6168	0.115908444
223	0xbe08fbe8	-0.13377345
224	0xbd96a46e	-0.07355581
225	0xbe85a1a5	-0.26099887
226	0x3e42cfb9	0.19024552
227	0xbc4d7c26	-0.012541806
228	0xbe7f2b90	-0.24918962
229	0x3c2aa932	0.010416316
230	0x3e5c3f15	0.21508439
231	0xbe6ffa93	-0.2343543
232	0x3e42601f	0.1898198
233	0x3ec17960	0.37787914
234	0xbc8a3895	-0.016872684
235	0x3ceabd00	0.028654575
236	0x3e1a7004	0.15081793
237	0x3deb5eae	0.11492668
238	0xbdbda1c6	-0.092593715
239	0xbd35ed66	-0.044415854
240	0xbe10fbe7	-0.14158593
241	0xbe0a39c9	-0.13498606
242	0xbe09af65	-0.13445814
243	0x3d1b9622	0.037984975
244	0xbeae4ae1	-0.34041503
245	0xbe7f1a86	-0.24912462
246	0x3de2326b	0.11044773
247	0xbd8677d4	-0.06565824
248	0xbb86b809	-0.004111294
249	0x3e1f2ba5	0.15543993
250	0x3f1ce898	0.6129241
251	0x3db3c5df	0.08777975
252	0xbe0fbb55	-0.14036305
253	0xbe20c48b	-0.15699975
254	0xbc6fcc4e	-0.014636112
255	0x3be3abd0	0.006947972

blocks.0.attn.W_V f4 [4, 32, 8]
0	0x3ebf3aab	0.37349448
1	0xbe821c06	-0.25412005
2	0xbe6d25f6	-0.23159012
3	0xbc7e7dc5	-0.0155329155
4	0x3e006735	0.1253937
5	0xbd3316ae	-0.0437228
6	0x3e98b71b	0.29827198
7	0xbe27327c	-0.16327852
8	0xbef19780	-0.47185898
9	0x3dd37161	0.1032436
10	0xbeee92f7	-0.465965
11	0xbd74b214	-0.05974014
12	0xbea6d9cd	-0.32588044
13	0x3ed58734	0.41704714
14	0x3e674cbc	0.22587866
15	0xbeb7163c	-0.3575915
16	0xbecc7af6	-0.39937562
17	0xbc81b8ea	-0.015835244
18	0x3f00ebef	0.50360006
19	0x3e8a81d7	0.27052185
20	0x3d98c80d	0.07460032
21	0x3b4381f3	0.0029832094
22	0xbf05d735	-0.52281505
23	0x3dbddae0	0.09270263
24	0xbe318c11	-0.17338587
25	0x3cfbdfa5	0.03074629
26	0xbe833ebc	-0.256338
27	0x3ed0f202	0.40809637
28	0x3da524eb	0.08063682
29	0x3d637684	0.055532947
30	0xbe67d123	-0.22638373
31	0xbe494250	-0.19654202
32	0x3e33c9f5	0.17557509
33	0x3e2307e3	0.15920977
34	0xbd2af7bf	-0.041740175
35	0x3ea48f9e	0.3214082
36	0xbe38f3e8	-0.18061793
37	0xbe8cb3f4	-0.27481043
38	0xbe2ee6a8	-0.17080176
39	0x3edfe217	0.4372718
40	0xbf1d7acd	-0.61515504
41	0x3d510f56	0.051040016
42	0x3e2220df	0.15832852
43	0x3e1ac0e8	0.1511265
44	0xbdcabdcf	-0.09899484
45	0x3bb77d5e	0.0055996617
46	0x3ee9f791	0.4569669
47	0x3e276de0	0.16350508
48	0xbe6e1331	-0.23249508
49	0xbe4f0fcc	-0.2022087
50	0x3dae8b54	0.085226685
51	0xbe9a9050	-0.30188227
52	0x3e59a130	0.21252894
53	0x3e0dac75	0.13835318
54	0x3ec905e8	0.3926232
55	0x3e611b9f	0.21983193
56	0x3e07c42a	0.13258424
57	0x3e9d686b	0.30743727
58	0xbe881bf7	-0.26583835
59	0x3ea29fd4	0.31762564
60	0xbf069d39	-0.5258365
61	0x3e8b33d7	0.27187988
62	0x3e1624c5	0.14662464
63	0xbe1d4e76	-0.15361962
64	0x3d7a8746	0.061164163
65	0xbe26a6dc	-0.1627459
66	0xbd9f9ffa	-0.07794185
67	0x3f18b3a4	0.5964911
68	0x3e4f510d	0.20245762
69	0xbe9027c4	-0.2815534
70	0x3e9d6676	0.30742234
71	0xbe810663	-0.25200185
72	0x3ee421d8	0.4455707
73	0xbdc683af	-0.096930854
74	0x3cf6bb9a	0.030118752
75	0x3e9c60fe	0.3054275
76	0xbe9eee7e	-0.3104133
77	0x3e32b951	0.17453505
78	0xbe64f3cb	-0.22358625
79	0x3e348f9f	0.17632912
80	0xbc81e3f5	-0.015855769
81	0x3e93643f	0.2878742
82	0xbe160936	-0.14651951
83	0x3e7afd16	0.24510607
84	0x3cef812d	0.0292364
85	0x3f0d6826	0.5523704
86	0xbe9d145d	-0.30679598
87	0xbe578a2d	-0.21048804
88	0xbd8afc8e	-0.06786452
89	0x3d56c4a6	0.052433632
90	0xbeb7ba5b	-0.35884365
91	0x3e758e8a	0.23980156
92	0x3dce39dc	0.100696295
93	0xbf17ab5f	-0.59245867
94	0xbe77188b	-0.24130456
95	0x3efe0a6a	0.4961732
96	0xbe8eae16	-0.27867192
97	0xbe602b10	-0.21891427
98	0x3c7a9865	0.015295123
99	0x3e29cb80	0.16581535
100	0xbe0bcba0	-0.13651896
101	0xbe1ec2e6	-0.15504035
102	0x3de2537d	0.110510804
103	0xbdd14c2f	-0.10219609
104	0xbec65ba8	-0.38741803
105	0x3f1a62bf	0.60306925
106	0xbc158bdf	-0.009127586
107	0xbe9042d5	-0.2817599
108	0xbde4ae77	-0.11166089
109	0xbe37f9d8	-0.17966402
110	0xbe837e5c	-0.25682342
111	0xbe9699c1	-0.2941418
112	0xbed02017	-0.40649483
113	0xbe4d2c94	-0.20036536
114	0x3f0f8c26	0.56073225
115	0xbe906d13	-0.28208217
116	0x3dd6265b	0.104565345
117	0x3d417f30	0.047240436
118	0xbeca405e	-0.39502233
119	0x3ba06ec3	0.0048960163
120	0x3e97cd32	0.2964874
121	0xbefd0dc8	-0.49424577
122	0xbde1766e	-0.11008917
123	0xbe99adce	-0.30015415
124	0xbdb76f72	-0.089568034
125	0x3e00651a	0.12538567
126	0xbec530b5	-0.38513723
127	0xbe8f2d96	-0.27964467
128	0x3e4d02f1	0.20020653
129	0xbddcd59b	-0.107829295
130	0x3d69a0f7	0.057038274
131	0xbe9027f7	-0.2815549
132	0xbdbab637	-0.09116786
133	0x3de3647b	0.111031495
134	0xbd59cb47	-0.053172376
135	0xbed1fa73	-0.4101139
136	0x3cc4421c	0.023957305
137	0x3dc13ae5	0.09435061
138	0xbc238a83	-0.009981754
139	0x3de26288	0.110539496
140	0x3e3acc12	0.18241909
141	0xbdb78be0	-0.08962226
142	0x3d162b1f	0.036662217
143	0xbde003fe	-0.109382614
144	0x3bd72ccb	0.006566619
145	0xbea8af6b	-0.32946333
146	0x3d184366	0.03717365
147	0xbeb58d3d	-0.3545932
148	0xbe5c0d77	-0.21489511
149	0x3c09f60e	0.00842048
150	0x3e71a184	0.2359677
151	0x3dd7a0a9	0.1052869
152	0x3ba50e25	0.0050370866
153	0xbe34c413	-0.17652921
154	0x3e5929db	0.21207373
155	0xbdefdf29	-0.11712486
156	0x3dca34ce	0.09873353
157	0xbec1317b	-0.37733063
158	0x3e03f377	0.12885843
159	0x3b588732	0.0033039567
160	0x3e898ea4	0.2686664
161	0x3edf5745	0.4362127
162	0xbe409bfb	-0.18809502
163	0xbe26ffe6	-0.16308555
164	0x3f3b8576	0.7325052
165	0x3e1acc2a	0.15116945
166	0x3df02589	0.11725909
167	0xbd2aa434	-0.041660503
168	0x3e020e7d	0.1270084
169	0x3dfd0f73	0.12356462
170	0x3ec3cb8c	0.3824123
171	0x3e612274	0.21985799
172	0xbf03f795	-0.51549655
173	0x3d982983	0.07429793
174	0x3e12685f	0.14297627
175	0xbdd1101c	-0.10208151
176	0xbdcc3e36	-0.09972803
177	0xbdf0baed	-0.11754403
178	0x3d04c340	0.032412767
179	0xbe360ae6	-0.17777595
180	0xbe435426	-0.19075069
181	0x3de0ef64	0.1098316
182	0xbc85349d	-0.01626044
183	0x3db1ca8b	0.0868121
184	0x3ea44ebb	0.32091317
185	0xbcccb198	-0.024987027
186	0x3d4ca72b	0.04996411
187	0xbd8e0310	-0.06934178
188	0x3e466504	0.19374472
189	0x3c8eb3b0	0.017419666
190	0xbeba9a4c	-0.36445844
191	0xbe81ec55	-0.2537562
192	0xbe14cb6f	-0.14530729
193	0xbe0ca889	-0.13736166
194	0xbe8ba90c	-0.2727741
195	0xbda877f6	-0.08226006
196	0x3e141e79	0.1446475
197	0x3eab58bf	0.33466145
198	0x3e265bb6	0.16245922
199	0x3efb87d0	0.49127054
200	0xbecff898	-0.4061935
201	0x3e8a0a4b	0.26960978
202	0xbe87314c	-0.26404798
203	0xbd0c4d2f	-0.034253296
204	0x3ed11bb4	0.40841448
205	0xbcaceb02	-0.021108154
206	0x3e536622	0.2064443
207	0xbd84c49a	-0.06482811
208	0x3ec5745f	0.38565347
209	0x3efdaf9c	0.49548042
210	0x3ed4f4b3	0.4159294
211	0x3bfea256	0.007770817
212	0x3eb1f10b	0.34754214
213	0x3d8b8868	0.06813127
214	0x3ddc5180	0.107577324
215	0x3f06d826	0.52673566
216	0x3ea81c84	0.32834256
217	0x3d8d2f35	0.0689377
218	0x3ed63618	0.41838145
219	0xbee79d50	-0.45237207
220	0xbe3f2b4d	-0.18668862
221	0xbe8f52fc	-0.27993
222	0x3dd15f2d	0.102232315
223	0xbe9ea0e3	-0.30982122
224	0x3dee8e31	0.116482146
225	0x3c875b92	0.016523156
226	0x3ee41320	0.4454584
227	0x3e8839a8	0.26606488
228	0xbd38a789	-0.04508165
229	0xbe6cdebf	-0.23131846
230	0xbd9bc09a	-0.07605095
231	0xbeb0f347	-0.34560606
232	0x3d2f0b47	0.042735364
233	0xbc878512	-0.016542945
234	0xbdecc7ec	-0.115615696
235	0x3daadfc9	0.08343465
236	0xbdcf9668	-0.101361096
237	0x3b84bcf8	0.004050847
238	0x3e901973	0.28144416
239	0x3f1e1860	0.61755943
240	0x3e6760d6	0.22595534
241	0xbe14b03e	-0.14520356
242	0xbe6b198a	-0.22958961
243	0xbf6bb1c2	-0.9206811
244	0x3d300659	0.042974804
245	0xbe8266c6	-0.25469035
246	0x3e541d71	0.20714356
247	0x3e0b1ed4	0.13585979
248	0x3e83d0f0	0.25745344
249	0xbedee2b4	-0.43532336
250	0xbe38c1b7	-0.18042646
251	0x3ea0fadc	0.3144139
252	0x3d638fe4	0.055557147
253	0x3e606039	0.21911706
254	0xbef5d38b	-0.48012957
255	0x3e9cc059	0.306155

blocks.0.attn.W_O f4 [4, 8, 32]
0	0xbf3175f3	-0.693206
1	0x3dfaa099	0.12237663
2	0x3e9abfdb	0.302245
3	0xbda2bf7e	-0.079466805
4	0xbea16f71	-0.31530336
5	0x3ebca02d	0.36840954
6	0x3f262993	0.6490719
7	0xbe660b1b	-0.22465174
8	0xbd9cd3b1	-0.076575644
9	0x3e8f5a79	0.27998713
10	0xbde17c40	-0.11010027
11	0xbea6956b	-0.32535872
12	0xbcf9aca0	-0.030477822
13	0xbe29f348	-0.1659671
14	0x3cc6856d	0.024233544
15	0xbe2d2bd1	-0.16911246
16	0xbe8c4db5	-0.27403036
17	0xbe1bd308	-0.15217221
18	0x3d5ede05	0.054410953
19	0xbea1bf38	-0.315912
20	0x3e8b7141	0.27234843
21	0x3c37b855	0.011213382
22	0x3e03a32e	0.12855217
23	0x3e95ca36	0.29255837
24	0x3dc026b7	0.09382384
25	0xbd77d08f	-0.06050163
26	0xbe1db37d	-0.154005
27	0x3f00aee2	0.5026685
28	0x3e165da4	0.14684159
29	0x3e074bc2	0.13212493
30	0xbe06315f	-0.13104771
31	0x3ce778ba	0.02825581
32	0x3e857a19	0.26069716
33	0x3e8ea251	0.27858213
34	0xbd0a10c8	-0.03370741
35	0x3c7d59d3	0.01546331
36	0xbeae45be	-0.34037584
37	0xbdb60fd5	-0.088897385
38	0xbda82127	-0.08209448
39	0xbcca3528	-0.02468355
40	0x3cc180ac	0.023620926
41	0xbda67cc8	-0.08129269
42	0xbe176ae9	-0.14786877
43	0x3d88d5f5	0.06681434
44	0x3c9c6bd6	0.019094389
45	0xbd26dd00	-0.040738106
46	0x3f12417c	0.5713117
47	0x3d8aa399	0.06769485
48	0xbcfe89d1	-0.031071575
49	0x3df16cc4	0.117883235
50	0x3e1bf807	0.15231334
51	0xbe535d09	-0.20640959
52	0x3f21113f	0.6291694
53	0xbd8142e6	-0.06311588
54	0xbdccb255	-0.09994952
55	0xbd9e7391	-0.07736886
56	0x3e6b328f	0.22968505
57	0x3e6034e4	0.21895176
58	0xbe588372	-0.21143892
59	0xbeeb2456	-0.4592616
60	0x3d8ea802	0.06965639
61	0xbee7a63f	-0.45244023
62	0xbdb3aa46	-0.087727115
63	0xbe78db11	-0.24302317
64	0xbd2e3723	-0.04253305
65	0xbf398a9a	-0.72477114
66	0xbed569e5	-0.41682354
67	0x3e52d4c0	0.2058897
68	0xbde6c970	-0.1126889
69	0x3e784a1b	0.24247019
70	0xbe744d9e	-0.23857734
71	0x3c81a3e2	0.015825216
72	0xbdc04042	-0.09387256
73	0xbd2cab7b	-0.042155724
74	0xbe91ee24	-0.28502
75	0x3eab7500	0.334877
76	0xbdfdc4fd	-0.12391088
77	0xbea29fc3	-0.31762514
78	0xbe0cf2ad	-0.13764448
79	0x3e23e977	0.16007029
80	0x3ab6bcdc	0.0013941783
81	0x3eb30388	0.34963632
82	0x3e44938a	0.19196907
83	0xbe88a95b	-0.26691708
84	0x3ed4a260	0.41530132
85	0xb9c58713	-0.00037675406
86	0x3e4a61d6	0.19763884
87	0xbc133cfa	-0.008986706
88	0x3d0162de	0.031588428
89	0xbe01ea51	-0.12687041
90	0xbe4acc87	-0.19804583
91	0x3e01ac0d	0.12663288
92	0x3c8428e1	0.016132774
93	0x3df8c279	0.12146468
94	0xbd6184a7	-0.055058148
95	0xbde1c12c	-0.11023173
96	0xbdfbb855	-0.12291018
97	0x3eb9636f	0.36208674
98	0x3e2db323	0.16962866
99	0xbef34300	-0.47512054
100	0xbeb082ae	-0.344747
101	0x3e223ead	0.15844221
102	0xbea37cd2	-0.31931168
103	0xbe6da64f	-0.23207973
104	0xbdf62485	-0.12018684
105	0xbdc0674a	-0.09394701
106	0xbe5ba84d	-0.2145092
107	0x3cd0455e	0.025423702
108	0xbe504fe4	-0.20342976
109	0x3f00577e	0.501335
110	0x3e49d706	0.19710931
111	0xbe0d28ab	-0.13785045
112	0xbee94e77	-0.45567676
113	0x3e42940a	0.19001785
114	0x3edf3a33	0.4359909
115	0x3e12b909	0.14328398
116	0xbdb8cd68	-0.09023553
117	0x3e7d3325	0.24726541
118	0x3de2b6fe	0.11070059
119	0xbd8f5c97	-0.07000082
120	0xbf233083	-0.637459
121	0x3eb260e4	0.34839547
122	0x3e870386	0.26369876
123	0x3dd0fadd	0.102040984
124	0xbe3f4537	-0.18678747
125	0xbdba48fa	-0.090959504
126	0x3ef5f0b2	0.48035198
127	0xbd43330e	-0.04765611
128	0x3e2b5ee8	0.16735423
129	0xbe206d71	-0.15666749
130	0x3e956f9e	0.2918672
131	0x3dea74a8	0.11448032
132	0xbee717c8	-0.4513533
133	0xbeeb4299	-0.45949247
134	0xbcb8cb89	-0.02255799
135	0x3e883ee0	0.2661047
136	0xbd4a75ae	-0.049428634
137	0x3e0cc67c	0.13747591
138	0xbd421b6f	-0.047389444
139	0x3d9830d4	0.07431188
140	0xbe87a1b1	-0.26490548
141	0x3d93d6ce	0.07218705
142	0xbdb1cd70	-0.08681762
143	0x3e1ddd77	0.15416513
144	0xbe60d11a	-0.21954766
145	0xbde608c4	-0.11232141
146	0x3e037709	0.12838377
147	0x3f16295f	0.5865688
148	0x3ea94769	0.33062294
149	0x3e980c37	0.2969682
150	0xbe6f9483	-0.23396496
151	0x3d58ac1b	0.052898508
152	0x3ebdc8a9	0.37067154
153	0xbdf2a150	-0.11847174
154	0xbf429127	-0.76002735
155	0x3cb6de83	0.022322899
156	0xbd01206d	-0.031525064
157	0x3df445ad	0.11927352
158	0x3e9d8ce9	0.30771568
159	0xbd6019e8	-0.054712206
160	0xbded81f6	-0.11597054
161	0x3e8e8f07	0.27843496
162	0x3f15a9fe	0.5846251
163	0xbccdb9f9	-0.025113093
164	0x3d1b1db5	0.037870128
165	0xbc571681	-0.013127924
166	0x3b11eadf	0.0022265238
167	0x3cb12b5c	0.02162712
168	0xbe4ba4dc	-0.19887108
169	0xbe381d58	-0.17979944
170	0x3d4d4ca9	0.050121937
171	0xbdf27b18	-0.118398845
172	0x3ecc5681	0.39909747
173	0xbd08565e	-0.03328549
174	0xbeddae7a	-0.43297178
175	0xbd0dee44	-0.034651056
176	0xbe24fa4a	-0.16111103
177	0x3d40a398	0.047031015
178	0x3e38302e	0.17987129
179	0x3ea8b739	0.32952288
180	0x3e661e36	0.22472462
181	0xbe4365a7	-0.19081746
182	0xbdcec13a	-0.10095449
183	0xbe1937f2	-0.14962748
184	0xbe42d7fc	-0.19027704
185	0x3bf3f1b2	0.007444584
186	0x3d0b53d8	0.034015507
187	0xbf26b169	-0.65114456
188	0x3ead9b8a	0.3390773
189	0x3e5ea903	0.2174416
190	0xbd85b9f8	-0.06529611
191	0x3e7610c4	0.24029833
192	0xbe8e04bd	-0.2773799
193	0xbe3d6186	-0.18494233
194	0xbe4c2b84	-0.19938475
195	0xbd872791	-0.065993436
196	0x3db03e9a	0.0860569
197	0xbdede5a1	-0.11616064
198	0xbe689f10	-0.22716928
199	0xbc5a96bf	-0.013341605
200	0x3df204f2	0.118173495
201	0x3e5d2b48	0.21598542
202	0xbe7240b7	-0.23657499
203	0x3bd4ac03	0.006490232
204	0x3e2b172a	0.16708055
205	0x3e03aee0	0.12859678
206	0x3e68b593	0.22725515
207	0x3e68d68f	0.22738098
208	0xbd8bf513	-0.068338536
209	0xbe9a7482	-0.30167013
210	0xbeeebb22	-0.46627146
211	0x3e8e249a	0.277623
212	0x3c0d75f3	0.008634078
213	0x3e362bd4	0.17790157
214	0x3e08b1bb	0.13349049
215	0x3dd91082	0.10598852
216	0xbe62444d	-0.22096367
217	0x3e84a4f8	0.2590711
218	0x3de23615	0.110454716
219	0xbf399483	-0.72492236
220	0x3d82691d	0.06367705
221	0x3e6ae2e1	0.2293811
222	0xbe894005	-0.26806656
223	0x3de58698	0.11207312
224	0xbce212f1	-0.027596923
225	0xbee6a455	-0.4504725
226	0x3e6e7d27	0.2328993
227	0x3d76b480	0.060230732
228	0xbe09078b	-0.13381784
229	0x3f0bfc2f	0.54681677
230	0xbe7a48df	-0.2444186
231	0x3e27db94	0.16392356
232	0x3dfb615c	0.12274429
233	0xbe8e5e5b	-0.27806363
234	0x3eb97cac	0.3622793
235	0xbe5ca7c0	-0.21548367
236	0x3bb11fbd	0.005405395
237	0x3e2369fb	0.15958397
238	0xbde87fac	-0.113524765
239	0x3e45a6c7	0.19301902
240	0x3d55d60f	0.052206095
241	0xbe842d74	-0.25815928
242	0xbe961694	-0.293141
243	0xbdd1f017	-0.10250872
244	0x3e3e5221	0.18586017
245	0x3e788733	0.24270324
246	0xbbf4ec91	-0.00747449
247	0x3e846285	0.25856414
248	0xbe787312	-0.24262646
249	0x3eec029f	0.4609575
250	0xbdd8bd7d	-0.10583017
251	0x3dcababb	0.09898897
252	0xbe447c86	-0.19188127
253	0x3de128f9	0.10994143
254	0x3e8d4660	0.27592754
255	0xbe8ecfd1	-0.27892926

blocks.0.attn.b_Q f4 [4, 8]
0	0xbec7294f	-0.38898703
1	0xbe93e172	-0.2888294
2	0x3e99447c	0.29935062
3	0x3f8d79e3	1.1052822
4	0xbf8fb1d1	-1.122614
5	0x3f5978da	0.8495003
6	0xbf03ce62	-0.5148679
7	0xbf4352fa	-0.7629849
8	0xbf106604	-0.56405663
9	0x3f3be18a	0.7339102
10	0x3f0546e7	0.52061313
11	0x3e137031	0.14398266
12	0xbf2a104e	-0.6643113
13	0xbf5c1ac5	-0.8597835
14	0xbecd4b4b	-0.40096506
15	0xbe74c3a0	-0.2390275
16	0x3db6e402	0.08930208
17	0xbf7a95dd	-0.97884923
18	0x3f5d8edc	0.8654611
19	0x3ec0811d	0.37598506
20	0x3f3de647	0.741795
21	0xbf835c08	-1.0262461
22	0x3f6d8cad	0.9279278
23	0xbf34ba35	-0.7059663
24	0x3efa6417	0.48904487
25	0x3ed7f379	0.42177942
26	0x3f50642c	0.8140285
27	0x3eeea027	0.46606562
28	0x3d8e4a27	0.06947737
29	0xbf436f0a	-0.7634131
30	0x3f1e7be5	0.619078
31	0x3f8fc786	1.1232765

blocks.0.attn.b_K f4 [4, 8]
0	0xb9656304	-0.00021876028
1	0xb81c0c7a	-3.7204918e-05
2	0x3ab2b3ac	0.0013633869
3	0x3bff401d	0.0077896253
4	0xbc387ef7	-0.0112607395
5	0x3bfb6503	0.0076719536
6	0x3b115be2	0.002218001
7	0xbc0fafed	-0.008769971
8	0xbb4230e1	-0.0029631185
9	0x38cbe7f9	9.7230026e-05
10	0x39dbf882	0.00041956088
11	0x389304f6	7.01043e-05
12	0xbbdb80d2	-0.006698706
13	0xbb8a2b60	-0.0042165965
14	0xbc13169c	-0.008977558
15	0x3afde5b7	0.0019370829
16	0xbbcc581b	-0.006236089
17	0xbc346810	-0.011011139
18	0x3acb113e	0.001549281
19	0xbac72fa7	-0.0015196697
20	0xba3f7caa	-0.0007304648
21	0x3b72a3e6	0.003702396
22	0x3b191ef2	0.0023364392
23	0xbbeca84c	-0.007222211
24	0xbbd9b831	-0.006644272
25	0xbbb8e88d	-0.0056429566
26	0x3b646b4b	0.003485399
27	0xbb7b7143	-0.003836707
28	0x3ad2db78	0.0016087135
29	0x3c2a2adb	0.010386194
30	0xbbcbe829	-0.006222744
31	0xba8bc851	-0.0010664557

blocks.0.attn.b_V f4 [4, 8]
0	0x3cb9ec72	0.022695754
1	0xbd8561f5	-0.065128244
2	0xbb2f879c	-0.002678371
3	0x3c588f84	0.013217811
4	0xbd35767b	-0.044302445
5	0xbc9393ae	-0.018014755
6	0xbd840f9b	-0.06448289
7	0x3d932ff0	0.07186878
8	0xbd8e666c	-0.06953129
9	0x3d4a587a	0.049400784
10	0x3c88c5b2	0.016695831
11	0x3d7a0c6f	0.061047014
12	0xbd75285c	-0.059852943
13	0x3c1c6ee1	0.00954792
14	0x3d9846dc	0.0743539
15	0x3d548e20	0.051893353
16	0xbdaf1158	-0.0854823
17	0x3d23c22b	0.039980095
18	0x3d340f8c	0.04396014
19	0xbbdb9bcd	-0.0067019225
20	0x3c1871ac	0.009304445
21	0xbd3c3d7c	-0.045957074
22	0xbd591027	-0.05299392
23	0x3ce5308a	0.027977247
24	0xbc925980	-0.017864943
25	0x3c25f2d3	0.010128695
26	0xbd28c944	-0.041207567
27	0x3c29e684	0.010369901
28	0x3d59d7e0	0.05318439
29	0x3d101841	0.03517938
30	0x3e20edc0	0.15715694
31	0x3c6b93bf	0.014378487

blocks.0.attn.b_O f4 [32]
0	0x3e341b6d	0.17588587
1	0xbe66981d	-0.22518964
2	0xbd947a4b	-0.07249888
3	0xbea3f68a	-0.32024032
4	0xbe2dc2f0	-0.16968894
5	0x3c4e2625	0.012582337
6	0xbe34d60c	-0.17659777
7	0xbe02c96c	-0.12772149
8	0x3eaad12e	0.33362716
9	0x3e7311e3	0.23737292
10	0xbe3d20e9	-0.18469585
11	0xbea53471	-0.32266572
12	0xbdf3e3a8	-0.11908656
13	0x3e14edf1	0.14543892
14	0xbe0b9fe0	-0.13635206
15	0x3e23222d	0.15931006
16	0x3d5ee191	0.054414336
17	0x3ecf0786	0.40435427
18	0xbe503a5a	-0.2033476
19	0x3cd8f09c	0.026481919
20	0xbea73053	-0.32654056
21	0x3e789458	0.24275339
22	0xbe963596	-0.29337758
23	0x3dfbfc23	0.12303951
24	0xbe1c18fd	-0.15243907
25	0xbea343fb	-0.31887802
26	0x3c5b87e2	0.013399096
27	0x3e1c2685	0.15249069
28	0x3edd1c85	0.4318582
29	0xbe3805a1	-0.17970897
30	0xbd3ccef8	-0.04609582
31	0xbe71b234	-0.23603135

blocks.0.ln2.w f4 [32]
0	0x3fb9c7d6	1.451411
1	0x3fa98fd6	1.324702
2	0x3f8c1d21	1.094639
3	0x3fd0cb22	1.6311991
4	0x3fc00952	1.5002844
5	0x3f969b0b	1.1766065
6	0x3f9eafc5	1.2397391
7	0x3fd0ed31	1.6322385
8	0x3fc93a64	1.5720944
9	0x3fb4ad40	1.4115372
10	0x3fbed3a4	1.4908338
11	0x3fb9bb73	1.451033
12	0x3fb4948e	1.4107835
13	0x3f94d8ab	1.1628622
14	0x3f883614	1.0641503
15	0x3fd5e3bd	1.6710125
16	0x3fab401b	1.3378938
17	0x3feba46e	1.8409555
18	0x3f9de31f	1.2334937
19	0x3fb18f50	1.387186
20	0x3f90ac33	1.1302551
21	0x3fa9fb25	1.3279768
22	0x3fe5dbaf	1.7957667
23	0x3fb9b591	1.4508535
24	0x3fbf6c44	1.4954915
25	0x3fb38ca1	1.4027292
26	0x3f758b4c	0.95915675
27	0x3fa845c0	1.3146286
28	0x3fce2c7b	1.6107324
29	0x3fc9e185	1.5771948
30	0x3fc5b112	1.5444663
31	0x3fcb9efb	1.5907892

blocks.0.ln2.b f4 [32]
0	0xbe1c848c	-0.15284938
1	0x3f4cd462	0.8001157
2	0x3fa26066	1.2685668
3	0x3f4f10bc	0.8088491
4	0x3f874e7c	1.0570827
5	0x3f93024a	1.1485074
6	0x3f729dd6	0.9477209
7	0x3f8e6830	1.1125546
8	0xbf72a7f2	-0.94787514
9	0xbf81cde7	-1.0140961
10	0x3f30f630	0.6912565
11	0x3f8b7d27	1.0897568
12	0x3f7f0fdd	0.9963358
13	0xbf034c55	-0.5128835
14	0x3eed9ab7	0.464071
15	0xbf3095ac	-0.6897838
16	0xbdf9aaee	-0.121908054
17	0xbf4d9d87	-0.8031849
18	0x3f4455ee	0.7669362
19	0xbe2a2a5f	-0.16617726
20	0x3f3a31e0	0.72732353
21	0xbeffccc4	-0.4996091
22	0x3f930e4c	1.1488738
23	0xbef96dbc	-0.48716533
24	0x3f20e9ba	0.6285664
25	0x3f911c61	1.1336786
26	0x3f0ef622	0.5584432
27	0xbe0b3fb5	-0.13598521
28	0xbf27441a	-0.6533829
29	0x3f4550c4	0.77076364
30	0x3e2c7ae2	0.16843751
31	0x3f75760c	0.9588325
