mem-str-models/1l_learned_embed.pt (torch, 108222 bytes, 22 tensors)

embed.W_E f4 [128, 32]
000000 0e a5 a6 3d 8a 49 80 bc 57 6a 27 3d 3d 23 eb bd
       0.081369504 -0.015660066 0.040872898 -0.114813305
000010 79 d8 26 bd b5 5d 41 be 1f bf 4b 3e 45 80 8a 3d
       -0.04073379 -0.18883403 0.19897126 0.06762747
000020 79 c4 66 3e 02 35 2d bd a9 4c 49 be 4f 5b 48 bd
       0.22535886 -0.04228688 -0.1965815 -0.048915204
000030 84 7a 00 bd c1 70 88 3d eb 4a 06 b9 f6 75 98 bc
       -0.03136684 0.06662131 -0.00012807145 -0.018610936
000040 80 f4 0a bd a6 8c 0b bd ec 27 53 bd 6c 95 a9 bd
       -0.03392458 -0.03406968 -0.051551744 -0.08280453
000050 31 3b 17 be c6 75 04 be 97 76 6b be b3 de 37 bc
       -0.14768673 -0.12935552 -0.22994457 -0.011222529
000060 d1 60 ef bd 23 0c 71 3d c3 49 fb bd cc 9f 0c bc
       -0.11688388 0.058849465 -0.12269928 -0.00858302
000070 7a 12 53 3d 50 b0 26 3e bc 84 69 3b fb 0b ad 3d
       0.051531292 0.16278195 0.0035632094 0.08449551
000080 e7 96 81 3e 88 d3 cb be f3 40 e2 3e f8 e1 27 bd
       0.25310442 -0.39809823 0.44190177 -0.040986985
000090 53 9f 63 be 10 f0 b1 3d e8 60 8f 3e 96 fa e3 bd
       -0.22228746 0.086883664 0.2800362 -0.1113178
0000a0 88 b1 7e 3d 9a 4e 52 be e0 11 9f bd f5 50 21 be
       0.062181026 -0.20537797 -0.07767081 -0.15753539
0000b0 ce 13 42 be de 7a 5d 3e 51 f6 2f be 3a 64 7d bd
       -0.18952867 0.21628901 -0.17183806 -0.06186316
0000c0 15 dc 7e 3d 87 4d 46 3d 7d d2 cc bc f5 ad 56 bd
       0.062221605 0.04841378 -0.025002712 -0.052411992
0000d0 e6 3f 1a be 7e 48 8a be 6e 05 14 be 70 9a 9d bd
       -0.15063438 -0.27008432 -0.14455196 -0.07695472
0000e0 ce c4 99 bc c5 7d 51 3e ee 68 97 be f6 db 48 3c
       -0.018770602 0.20458134 -0.29572242 0.012259474
0000f0 67 f8 79 3e 84 46 54 bd a4 ff 19 be 57 e9 9d 3d
       0.24411164 -0.05182506 -0.15038925 0.07710522
000100 85 cd e5 3c d7 a3 61 3e 8c 70 4d 3d 8e e4 7a 3e
       0.0280521 0.22035156 0.05015616 0.24501249
000110 ad f9 dd bd dc 2d 2d 3e 5d 34 f9 bd 17 07 89 3e
       -0.108386375 0.16912025 -0.12168191 0.26763222
000120 0a d8 fd 3d 6c 24 7c 3d 30 73 aa be ae b3 ce be
       0.12394722 0.061558172 -0.33291006 -0.4037146
000130 1b 55 76 bd e5 81 46 be 9f a2 0e 3e 10 32 99 be
       -0.060139757 -0.19385488 0.13929223 -0.29921007
000140 fc f8 f0 3d d6 93 5e be 3e 53 95 3d 1a bf 5d be
       0.1176624 -0.21736082 0.07291268 -0.2165493
000150 77 bc a1 3e bf 8a 24 3e 83 18 7a 3d 30 5b b4 be
       0.315891 0.16068552 0.061058532 -0.3522582
000160 67 10 3d be 72 21 8c 3a 53 42 e0 3c 4b ba 84 be
       -0.18463288 0.001069112 0.027375376 -0.2592338
000170 1e a4 89 be cb f7 4c bc 36 3c 77 3d 45 61 10 3d
       -0.26883024 -0.01251025 0.060360156 0.035249013
000180 33 f8 f4 3e e0 86 5e 3c 61 51 2d be 99 29 d7 be
       0.4784561 0.013581961 -0.16925575 -0.42023924
000190 ec ef d1 bd 16 a8 fa bd 5c cb 86 3e 06 65 26 be
       -0.102508396 -0.12239091 0.26327026 -0.16249475
0001a0 88 39 0b 3c a8 f8 03 bb 3a 26 a6 3c c2 83 92 bb
       0.008497603 -0.0020137224 0.0202819 -0.004471273
0001b0 47 6c 6e 3e 35 55 79 3e e3 ad 54 3e 33 22 3d be
       0.23283492 0.2434891 0.20769458 -0.18470077
0001c0 e5 4b 31 bd 59 ac 8a 3c af d5 41 3e 42 65 75 3e
       -0.04328527 0.016927885 0.1892917 0.23964408
0001d0 a5 18 a7 bc 99 9c a1 bd c8 e9 1d be 7a a2 cd 3d
       -0.020397494 -0.07891197 -0.15421212 0.100407556
0001e0 80 0e ef bd 02 d2 81 bd 90 86 a1 3e 77 f8 10 3e
       -0.116726875 -0.06338884 0.31547976 0.14157282
0001f0 9d ec 1d be 35 a8 64 bd ea 40 a9 bc f3 f9 9c be
       -0.15422292 -0.055824477 -0.020660836 -0.30659446
000200 54 64 b3 bc d4 2d c9 bc 18 93 31 3e 54 db 0f 3d
       -0.021898426 -0.024557985 0.17341268 0.035121277
000210 f5 91 49 be 36 cb 7a be 77 05 c8 bc 76 ef 86 3e
       -0.19684584 -0.24491581 -0.024416668 0.2635457
000220 6f 73 fb bd b6 9d 9d be be ea 2e 3e 80 57 b5 bb
       -0.122778766 -0.30784386 0.17081735 -0.0055341125
000230 48 68 72 be d6 e0 7d 3e 92 79 04 3f 84 44 17 be
       -0.23672593 0.247928 0.51748 -0.1477223
000240 9a 55 f5 3c 6b b3 fa bd b9 df 65 3e 04 97 9c be
       0.029948045 -0.122412525 0.22448625 -0.30583966
000250 f5 10 8b 3c 67 38 6a 3e 9f ed 3d 3c 34 7b 44 3d
       0.01697586 0.22873078 0.011592298 0.04796906
000260 12 22 6d bd 8b 17 91 3d fd 5f b7 bd fa 4e d5 3e
       -0.05789382 0.070845686 -0.08953855 0.41661817
000270 e1 f1 55 bd 86 ee 5c 3c f8 43 da 3d 8c 47 20 3e
       -0.052232627 0.013484603 0.10657495 0.15652293
000280 27 d9 62 bd 41 48 c9 be 91 49 10 3e 72 ac 37 be
       -0.055382874 -0.39312938 0.14090563 -0.17936876
000290 17 cd d9 3e 54 49 a4 3d 0e 44 de be 88 fe 13 be
       0.42539284 0.08021799 -0.43411297 -0.14452565
0002a0 3a b3 23 3e 9a fa 9e bd b4 9f 24 3e 1b 27 39 bd
       0.15986338 -0.07762642 0.16076547 -0.04520331
0002b0 c5 ab 53 3d 6a 7f d5 bd 53 85 76 bc 16 12 43 3e
       0.051677484 -0.10424693 -0.015046435 0.19049868
0002c0 d9 3a 2b bd 75 51 20 bd cc 36 53 be 28 c3 87 bc
       -0.04180417 -0.039140183 -0.20626372 -0.01657255
0002d0 b9 f7 2e 3e 62 f9 5d 3e 77 d2 55 3e 54 91 22 be
       0.17086686 0.21677163 0.20881067 -0.15875751
0002e0 fd 4e f2 3c 68 76 d3 3d 4a da f2 bd 49 d2 cd be
       0.02957868 0.103253186 -0.118580416 -0.40199497
0002f0 92 03 7e bd c7 a1 de bd c4 c4 ad bd 24 75 f4 bd
       -0.062015124 -0.108707 -0.08484796 -0.11936405
000300 31 87 41 bd e1 ae 99 3e 2f f1 0b be c0 bd 50 be
       -0.04724807 0.30016235 -0.13666223 -0.20384884
000310 fc 46 d2 3c a0 7e a5 bc 7e f0 0a 3e 31 63 9f be
       0.025668614 -0.020201981 0.13568303 -0.31130365
000320 6e e3 f8 3c c7 71 8e bd dd 26 96 3d 6b c0 43 be
       0.030381884 -0.06955295 0.07331631 -0.1911637
000330 49 92 95 bd 44 fd b2 3c 6b 4d 17 be 39 5b 3c 3e
       -0.07303292 0.021849282 -0.14775626 0.18394174
000340 2f c0 a4 ba d0 99 55 3e 5b 7f 87 3e 43 c5 b1 bd
       -0.0012569482 0.20859456 0.26464352 -0.08680203
000350 e0 52 03 be a8 ed 61 3e d1 b9 2e bd 94 b4 a1 3e
       -0.12824583 0.22063315 -0.042657677 0.31583083
000360 2c 5d 1c be fb 98 ba be db 1a d1 be 65 2d 01 3d
       -0.15269917 -0.3644484 -0.40840802 0.031537432
000370 6c 2a a1 3c 05 ec ae 3e 06 d0 1c b9 e6 7a 2f be
       0.019673549 0.34164444 -0.00014954814 -0.17136726
000380 b4 2d ba bc 68 07 c5 3d 52 b7 89 be b0 a2 ce 3d
       -0.022726871 0.09620553 -0.26897675 0.10089624
000390 86 ec 2c be ae d8 f1 3d 76 86 cd be f4 11 41 be
       -0.16887102 0.118089065 -0.40141648 -0.18854505
0003a0 eb f9 ef 3d b5 06 42 be cf aa 12 be ef ca bf be
       0.1171759 -0.18947871 -0.14322971 -0.37459514
0003b0 62 49 f8 bd 78 4f 0c be e8 e0 1e 3e 89 a5 c4 bd
       -0.12123372 -0.1370219 0.15515482 -0.09601886
0003c0 b6 95 fd 3c 26 76 e8 3d 52 c1 88 be 11 5f b8 bb
       0.030955177 0.1135066 -0.26709992 -0.005626567
0003d0 f8 42 6c bd b1 7f c6 3e eb 04 6d 3e d6 45 30 3d
       -0.057681054 0.38769296 0.23146407 0.04303535
0003e0 7f d3 79 3e 57 3a 94 bd 17 4e 44 3e af 2f e5 bc
       0.24397086 -0.0723769 0.19170414 -0.027976839
0003f0 3b 47 68 3e 13 f3 dd 3d a2 66 3b 3d 56 50 a2 be
       0.22683422 0.10837378 0.045752175 -0.31701916

pos_embed.W_pos f4 [128, 32]
000000 91 93 89 3d 41 e6 c4 bb 19 59 2e 3d a2 39 07 be
       0.06717599 -0.0060088937 0.04256544 -0.13205579
000010 36 f6 73 bd 95 ac 40 be f1 57 3f 3e 61 7e 42 3d
       -0.059560977 -0.18815835 0.1868589 0.047483806
000020 2f 47 71 3e 86 f6 de bc 1d c3 51 be 14 2f 39 bd
       0.2356231 -0.02721716 -0.20484586 -0.045210913
000030 b4 d6 0d bd de 44 87 3d 50 88 43 3b 5f 81 07 3c
       -0.034628585 0.06604932 0.0029835887 0.008270591
000040 bb 17 0c bd ae 54 dc bc be 45 e9 bc 36 76 d1 bd
       -0.03420232 -0.026895847 -0.028475638 -0.10227625
000050 ed 78 14 be 99 7b fc bd 81 cb 4d be 29 ab 17 3b
       -0.14499255 -0.12328262 -0.20097162 0.002314279
000060 03 69 e9 bd 57 6e 2d 3d bd 4f de bd 93 6f 9a ba
       -0.113969825 0.042341556 -0.108550526 -0.0011782519
000070 da 55 75 3d e8 8f 37 3e ec 74 ce bb 7c 4c 8d 3d
       0.059896328 0.1792599 -0.0063005593 0.06899354
000080 07 0b 02 be bb 64 3b 3e 2f 8d 32 3d 7b 75 81 bd
       -0.12699519 0.18300144 0.043591674 -0.06321236
000090 81 26 f9 be c0 41 85 bf ac 4a f1 3e 5a 12 ff bc
       -0.4866219 -1.041069 0.47127283 -0.03113668
0000a0 e9 66 65 3f 10 ee ce bd c4 f2 a4 bd a3 75 b7 3e
       0.89610153 -0.101040006 -0.08054116 0.35831937
0000b0 b2 f9 89 be b5 4a 92 3d 4b 40 00 bf c3 5c 86 be
       -0.26948315 0.071431555 -0.50098103 -0.26242647
0000c0 6b 81 bb bd 60 1d 8b 3b e6 af 83 be 4f a0 c6 3d
       -0.09155544 0.004245445 -0.25720137 0.09698545
0000d0 01 50 1c be 1f c4 d2 3e 7e 0b 36 bf 8a 49 82 be
       -0.15264894 0.41165254 -0.71111286 -0.2544673
0000e0 1f 70 e9 bd e4 1c f1 3d 82 13 00 3e cb 2c 2d bd
       -0.113983385 0.117730886 0.12507442 -0.042279046
0000f0 a9 5a d7 be f9 5d b8 3d fd c7 20 3e d8 43 a9 be
       -0.42061356 0.09002299 0.1570129 -0.33059573
000100 23 fd 33 3e bb f1 a4 bc e1 ba 57 3c 22 2b d1 be
       0.17577033 -0.020134797 0.013167114 -0.4085322
000110 60 31 64 3e 4d ee 50 bf 1d 2c ab 3e 9e 3c 5e be
       0.2228446 -0.8161362 0.33432093 -0.21702811
000120 fc e2 43 3f f7 60 81 be 49 bc 2b 3e de 5d 97 3d
       0.76518226 -0.2526929 0.16771044 0.073909506
000130 39 9b 74 be c8 66 73 be 75 5b e6 bd 69 81 0a be
       -0.23887338 -0.23769677 -0.11247913 -0.13525929
000140 9e d8 1e be ba 1d b6 3c 01 81 1d bd 76 40 9d be
       -0.1551232 0.022230972 -0.038453106 -0.30713242
000150 da 8f 9f be 88 83 9c 3e e3 fc f0 be bf b1 a3 bc
       -0.31164438 0.305691 -0.47067937 -0.019982217
000160 74 92 11 3e e8 ae 4f be f8 e5 a3 3d e3 e4 a5 be
       0.14216024 -0.20281565 0.080028474 -0.3240119
000170 79 06 af 3d 0d 0f b6 be 78 d6 01 be f0 a9 7a be
       0.085461564 -0.35558358 -0.1267947 -0.24478889
000180 ee 63 e3 bd b1 08 d3 bd e0 a2 a3 bd 4c c7 fe bd
       -0.111030445 -0.10304392 -0.0799005 -0.124403566
000190 bf 54 80 3c b5 d1 e6 be 8e f8 64 3d 93 b5 8b bc
       0.01566541 -0.4508187 0.055901103 -0.017054355
0001a0 52 97 13 3f 27 55 ce bd 62 e4 50 3d ea 5c aa bb
       0.5765277 -0.10074835 0.050999053 -0.0051990645
0001b0 2e 87 df bd 09 ea 94 bd 7f c6 0c be c6 2a 05 bb
       -0.10914455 -0.07271201 -0.13747595 -0.0020319684
0001c0 72 2f 11 be b2 41 21 3d 21 17 30 3d a3 13 24 bc
       -0.14178255 0.039369293 0.042990807 -0.010014447
0001d0 7f ab 5c bd 53 eb 14 3e 0d cc 21 be 79 bf 18 bd
       -0.05387449 0.14542894 -0.15800495 -0.037291978
0001e0 3e 81 96 3d e5 46 27 bd e2 08 99 bd 1c 53 f9 bd
       0.0734887 -0.040839095 -0.074723974 -0.12174055
0001f0 93 d9 58 bd 81 69 a3 bd 86 4f 23 bc ef fd dc bd
       -0.05294187 -0.07979108 -0.00996769 -0.107906215
000200 9c 51 d7 bd 94 f2 91 bd 02 4e 4f bd 5c 91 8e bd
       -0.10513613 -0.07126346 -0.050611503 -0.06961319
000210 bb cf c8 3c 4f b4 d1 be 3a 4f 10 bc c5 b5 be bb
       0.024513116 -0.40957877 -0.008807952 -0.0058200085
000220 ee 70 0c 3f 60 90 55 bd 0f 64 2a bc ed 07 c8 bb
       0.5485982 -0.05213964 -0.010399832 -0.0061044605
000230 8f 90 cc bd 31 81 4b bd f9 8a 85 bd 3b 44 0e 3d
       -0.0998851 -0.049683753 -0.065206476 0.03473304
000240 81 67 53 bd 02 b9 81 3c 06 2a e1 3c 52 90 2d bd
       -0.05161238 0.015835289 0.027485859 -0.042373963
000250 8d be 44 be 4d 8f ba 3d 37 b2 18 bd 2e c0 b9 bc
       -0.19213314 0.09109364 -0.037279334 -0.022674646
000260 47 63 05 3c 6a f8 1c bd 53 52 a7 bd b5 7e f8 bd
       0.008141345 -0.038322844 -0.08169999 -0.121335424
000270 e9 30 89 bd b2 7b e9 3c 83 83 dd 3c 7d 93 16 3d
       -0.06698782 0.028501365 0.027040249 0.03676175
000280 e6 55 c1 bd eb 16 02 bd e0 0a ca bc 6b 29 86 bd
       -0.09440212 -0.031760138 -0.024663389 -0.065508686
000290 a7 9a c0 3c 08 0c c8 be 43 a7 29 3b a8 21 91 bc
       0.023511244 -0.3907168 0.002588705 -0.017716244
0002a0 82 d7 02 3f 37 34 a0 bd 56 50 bd 3c 36 f2 c8 bc
       0.5111009 -0.07822459 0.023109596 -0.024529558
0002b0 f1 bf d2 bd 28 c3 40 bd 6e a3 93 bd 2e 68 40 3d
       -0.10290516 -0.047061116 -0.07208906 0.046974353
0002c0 b5 92 85 bd b9 30 70 bc 70 1d d9 bb cd cd 15 bd
       -0.06522123 -0.014660054 -0.0066258237 -0.03657322
0002d0 10 c4 f4 bd e5 d5 77 3d ef 06 20 bd 8f a6 0c bd
       -0.119514585 0.06050672 -0.039069112 -0.03433853
0002e0 06 5c 3b bc 74 c1 8f bc f8 91 98 bd e6 60 02 be
       -0.011435514 -0.0175483 -0.07449716 -0.12732276
0002f0 dd b3 01 bd c6 ff 6d bc 3f 91 bd bc e4 21 d4 bc
       -0.03166567 -0.014526313 -0.023140548 -0.025895067
000300 8c 2a a4 bd 26 62 24 bd 26 23 10 bd 69 16 a0 bd
       -0.08015928 -0.040132664 -0.03518977 -0.078167744
000310 54 5c f8 3c 7d 2a bf be 36 6b 2a 3b 66 18 9b bc
       0.030317463 -0.37337103 0.0026003844 -0.018932533
000320 5e eb fe 3e 4e 7e 9a bc 30 06 28 bd 63 cc ec bc
       0.49788946 -0.018859055 -0.041021526 -0.028906053
000330 2b 74 b5 bd 2d 99 ae bc 3f fb 0d bd 81 1f 16 3c
       -0.08860048 -0.021313274 -0.034663435 0.009162785
000340 0c 3c 87 bd ea b9 bd bc a4 d9 1b bc 56 f6 02 bd
       -0.0660325 -0.02315994 -0.009512339 -0.031973206
000350 33 71 cf bd b1 e9 10 3d 35 d6 3d bd a1 93 45 3c
       -0.10129013 0.035379115 -0.046346862 0.012059123
000360 53 cd 1c 3c 27 46 8e 3c 8f 22 db bc e7 9a b4 bd
       0.0095704375 0.017367436 -0.026749877 -0.08818608
000370 fa 3c 62 bd a6 e8 30 bd c3 3b 0d bc e2 42 eb bc
       -0.055233933 -0.04319062 -0.008620205 -0.028718416
000380 49 d6 99 bd 46 c1 5d bd 4b d4 c2 bc ad 41 99 bd
       -0.07511575 -0.054139398 -0.02378287 -0.0748323
000390 bd d7 63 3c c5 d6 bb be e7 d2 94 3c df 96 0a bd
       0.0139064165 -0.36687294 0.018166972 -0.033835288
0003a0 f4 1f f4 3e 97 80 8b bc 95 17 81 bc 0e 05 c9 bb
       0.47680628 -0.01702909 -0.015758315 -0.006134636
0003b0 11 9e 90 bd d8 ea 0f bd 7c 68 16 bd cb ec 32 3c
       -0.07061399 -0.035136074 -0.036720738 0.010920714
0003c0 39 e5 a4 bd 1e b5 80 3c f2 a4 e8 bc 27 cf 27 bd
       -0.08051533 0.015711363 -0.028398965 -0.04096904
0003d0 58 0f a5 bd f1 1d a2 bb 2e 02 30 bd d0 0b c1 bb
       -0.08059567 -0.004947417 -0.04297083 -0.0058913007
0003e0 f8 e3 4e 3a 9b 1d c8 3b 2b f1 26 bd af 67 93 bd
       0.00078922464 0.006107045 -0.04075734 -0.071975105
0003f0 fb f3 2d bd 02 f8 05 bd f2 bd d9 bb d3 ce 1d bd
       -0.042469006 -0.03270722 -0.0066449577 -0.03852732

blocks.0.ln1.w f4 [32]
000000 95 b1 53 3f 96 8c 46 3f b9 d7 41 3f a4 64 46 3f
       0.82692844 0.7755827 0.7571979 0.77497315
000010 62 b9 4b 3f 92 b1 85 3f 23 0e 62 3f ff 4c 45 3f
       0.79579747 1.0444815 0.8830282 0.7707061
000020 fe 6b 98 3f 5b c8 49 3f a9 e0 49 3f 7b a2 3f 3f
       1.1907957 0.78821343 0.7885843 0.748573
000030 05 97 46 3f dc 12 68 3f 8c cc 41 3f 32 8e 41 3f
       0.7757419 0.9065378 0.7570274 0.756076
000040 b2 63 5d 3f 57 67 4d 3f c5 ef 85 3f 59 d7 4a 3f
       0.8648025 0.8023581 1.0463797 0.79234844
000050 86 00 4c 3f 5e 18 58 3f 7e 75 4f 3f af fd 4b 3f
       0.796883 0.8441218 0.81038654 0.79683965
000060 3e c3 6a 3f 01 a0 48 3f 73 2b 63 3f 91 75 48 3f
       0.91704166 0.78369147 0.88738173 0.7830439
000070 27 d5 6b 3f f2 85 7a 3f 5b 7b 42 3f f7 31 60 3f
       0.9212212 0.97860634 0.75969476 0.8757624

blocks.0.ln1.b f4 [32]
000000 9b d2 99 bd d6 df ce 3c 75 53 6b bd 67 72 d8 3d
       -0.07510873 0.025253218 -0.057452638 0.105686955
000010 1b 29 75 bd ee 70 c1 3e 80 48 98 3c 09 a2 83 bc
       -0.059853654 0.3778147 0.018589258 -0.016068475
000020 9e a2 03 bf c3 c5 b0 3c da b3 ca 3c 0c 7d 2e bd
       -0.5142001 0.021578675 0.024743963 -0.042599723
000030 46 bc 89 3d 25 13 e2 3b 9a 75 c4 3d 97 be a4 3c
       0.067253634 0.006899255 0.09592743 0.020110412
000040 c8 d9 6c 3d 03 c3 b2 bd 91 71 db 3c e1 d6 38 3d
       0.05782488 -0.08728602 0.026787551 0.0451268
000050 0c d2 31 3e e8 b7 bb bd 36 7c 26 3b 35 68 5c bc
       0.17365283 -0.09165937 0.0025403625 -0.013452579
000060 4e 39 75 3b ea d0 0c be 34 87 a5 3c 0e 88 a5 bc
       0.003741819 -0.1375157 0.020206071 -0.020206477
000070 eb f7 1a 3d c0 0b ed 3b 84 14 6b bd bc 53 a9 3d
       0.03783409 0.0072340667 -0.057392612 0.08267924

blocks.0.attn.W_Q f4 [4, 32, 8]
000000 0d a5 90 3e 81 d3 59 be 5a a2 67 3e 2e b5 c0 be
       0.28250924 -0.21272089 0.22620526 -0.3763823
000010 3f a3 5f 3e ee 3d a7 bd e1 88 11 3e bf 27 9b bc
       0.21839617 -0.08166109 0.14212371 -0.01893985
000020 f7 25 36 3d ce a1 06 3e ad 5c 4c be 95 7b 33 bd
       0.0444698 0.13147661 -0.19957228 -0.04381903
000030 d2 59 bf be 69 9f 44 3e f7 e0 2d 3c b0 fe ca 3e
       -0.37373215 0.19201435 0.010612718 0.39647436
000040 af f9 91 be 3a 82 be be ae 83 d7 be 48 1d 44 3e
       -0.28510806 -0.3720873 -0.4209265 0.19151795
000050 2e 7a b4 3c 47 e2 cc bd 9c 20 39 3d bd aa 96 3e
       0.022030916 -0.100040965 0.045197114 0.29427138
000060 ad 46 92 be c3 9c 2a 3e 5d 30 77 be 8b d9 21 be
       -0.28569546 0.16661362 -0.24139543 -0.15805642
000070 78 92 b1 be 10 da 90 be 18 c5 8d 3c 5d 01 01 3e
       -0.3468206 -0.28291368 0.017305896 0.12598176
000080 5b 47 6a 3d 79 fb 6f be 7f 33 c1 bd 19 09 85 3d
       0.057196956 -0.23435773 -0.0943365 0.06495876
000090 1f d4 f5 be fa cb 51 be 1c 50 c6 bd ab 22 ce 3c
       -0.48013398 -0.20487967 -0.096832484 0.025163015
0000a0 b7 2c b0 3e 3e 96 4e 3e f6 2f a8 be ed d2 ab bd
       0.34409115 0.201745 -0.3284909 -0.0838984
0000b0 ac 87 92 be a0 57 ad bc 52 61 64 3c 8c a3 c0 be
       -0.28619134 -0.021159947 0.013939219 -0.37624776
0000c0 9f 2b 8b bd 89 a3 e1 3d 40 26 d3 3d 20 68 5a 3d
       -0.067954294 0.1101752 0.1031003 0.053321958
0000d0 0a 3a 96 3e d0 ba 08 be 37 9c f0 bd 57 8d e1 3d
       0.29341155 -0.13352513 -0.117485456 0.110132866
0000e0 43 38 ca be d7 7d 43 be dd 5d a2 bc 56 ba 3f bf
       -0.3949605 -0.19090973 -0.019820148 -0.748937
0000f0 85 38 eb bd 00 41 67 bd 77 49 a1 3e 8d ac 01 bd
       -0.114853896 -0.056458473 0.31501362 -0.031658698
000100 89 aa 3d 3e d4 bb 1c 3e 0b 4f 1b be 37 be 88 bd
       0.18522085 0.15306026 -0.15166871 -0.066769056
000110 5a a9 61 be e6 a0 23 bd e9 17 71 bd b5 d5 20 be
       -0.22037259 -0.039948367 -0.058860693 -0.15706523
000120 dc 72 79 be dc 1b e0 3d 61 f0 3d be fd 72 5a 3e
       -0.24360222 0.10942814 -0.18548729 0.21332927
000130 84 70 b7 3e e2 8e 23 3e 42 81 30 3e b6 6f 34 3d
       0.3582803 0.15972474 0.17236808 0.04405185
000140 09 28 fe 3c a5 e2 6e bd 88 6c cb 3e c7 3c 83 3e
       0.03102495 -0.058321614 0.3973124 0.25632307
000150 dd 77 18 bd 4d 9b dd be 07 fd 66 3d f9 e3 7e be
       -0.037223686 -0.43282548 0.05639365 -0.24891652
000160 09 59 18 be ef 6d 23 be cf dc 75 bd 85 81 05 3d
       -0.14877714 -0.15959905 -0.060025033 0.032594223
000170 01 8c 0c be 05 42 c8 be dd c6 49 3e a5 24 05 3f
       -0.13725282 -0.3911287 0.19704767 0.5200904
000180 02 78 50 3d f9 a7 d8 3e 6a 5c 5b bd c5 b4 39 3e
       0.0508957 0.42315653 -0.05355493 0.18135364
000190 70 cd 16 3d 29 85 9b bd 01 8e aa 3d 33 fe b7 3e
       0.036817014 -0.07593758 0.08327866 0.35936126
0001a0 27 38 24 3e 49 85 9f be 1c 8a 88 3e a8 6d a9 3e
       0.16037045 -0.31156376 0.2666787 0.33091474
0001b0 c4 d8 9f 3d 13 ee a1 3e 25 ac 4c bd 99 5e 92 be
       0.07805017 0.3162695 -0.049968857 -0.28587797
0001c0 02 cb de 3e 2c 6c 17 bc 4a 6b eb 3d 4f 3b 8f 3e
       0.43514258 -0.009242099 0.11495073 0.27974936
0001d0 da d8 7a be 55 5d 01 3f 2c 99 ad bc 38 55 c9 3d
       -0.24496785 0.5053304 -0.021191202 0.09830707
0001e0 0b 9a b8 3d 89 27 2c 3e 37 31 9f 3e 28 fa 72 3b
       0.09013756 0.16811956 0.31092235 0.0037075374
0001f0 2f 21 a1 3c 10 e4 95 be 27 d3 e5 bd 98 fb a9 be
       0.019669143 -0.2927556 -0.11221915 -0.33199763
000200 6c dc 1f 3e 66 50 57 3d 1c d9 4c be d8 0c 14 be
       0.15611428 0.05256691 -0.20004696 -0.14458025
000210 71 3c a2 3e b6 43 72 be 98 29 b2 be 6a 18 a1 bb
       0.31686738 -0.23658642 -0.3479736 -0.0049162405
000220 13 f1 35 be 41 cd 10 be ea e0 da bc 38 a6 34 3e
       -0.17767744 -0.14140798 -0.026718576 0.17641532
000230 a8 a2 d2 be 3b 65 34 3e dd 83 58 be 16 eb 3a 3d
       -0.41139722 0.17616741 -0.21144052 0.04563435
000240 b9 a7 04 bf 8a 69 09 3f 98 7a 89 3e ff d3 ef 3d
       -0.51818424 0.53676665 0.26851344 0.11710357
000250 ed ca 14 3e a1 6d b2 bd 13 19 98 3e 7e 2c 67 be
       0.14530535 -0.08712316 0.2970663 -0.22575566
000260 cd 99 8b 3d 98 f7 26 bd e2 ca 7f 3d 4d b1 80 3d
       0.068164445 -0.040763468 0.062449344 0.062838174
000270 3c 9a 47 be 9a 70 55 3e 62 da d8 bc 8e 88 ef 3d
       -0.1949243 0.20843735 -0.02647132 0.116959676
000280 1a f6 f7 bd f3 2a d9 3e 9d c6 93 be f5 fb 21 3e
       -0.12107487 0.4241558 -0.28862467 0.1581877
000290 97 73 0e 3e 33 4b 86 3e f0 6e 85 be 2c 72 7a be
       0.13911282 0.26229247 -0.260612 -0.24457616
0002a0 e4 98 7d 3f 5a 02 c9 3e d0 eb 55 3d 65 0a 7d be
       0.9906142 0.39259607 0.05222684 -0.24710996
0002b0 ca 71 9b 3e f3 d7 01 3e 21 f1 8c 3e 87 fb 80 3e
       0.30360252 0.12680034 0.27527717 0.251919
0002c0 c1 fd 36 be 34 2b 10 be 33 62 54 be a1 46 0c be
       -0.17870237 -0.1407898 -0.20740585 -0.13698818
0002d0 8d b5 0b 3f 41 be 23 3e 53 0b 34 3d 1c fe 53 be
       0.545739 0.15990545 0.043956112 -0.20702404
0002e0 14 fb 7e 3e 0a b3 46 3e 1e 13 99 bd b3 37 69 be
       0.24900466 0.19404235 -0.074743494 -0.22775154
0002f0 52 fa c7 3d b9 00 10 3d ad cc c0 3d 2d ef a6 3e
       0.09764542 0.03515694 0.09414039 0.32604352
000300 08 f9 c6 be ab be 79 be 75 e1 66 bc 75 05 e8 3d
       -0.3886187 -0.2438914 -0.014091839 0.11329166
000310 d5 aa e4 bd 97 1b e0 3d 53 d1 80 be c7 c6 87 bd
       -0.11165396 0.10942762 -0.25159702 -0.06629711
000320 85 3e 62 be b0 27 2a 3e 17 b8 0a be d1 9f 3b 3e
       -0.22094162 0.16616702 -0.13546787 0.18322684
000330 a1 98 0f 3f b2 9f 3b bd 39 37 a4 be b4 90 c1 be
       0.5609227 -0.045806594 -0.32073382 -0.37805712
000340 bb a2 81 be 8b e9 35 be f6 40 90 3e 21 77 32 3c
       -0.25319466 -0.17764871 0.2817456 0.01089266
000350 d0 99 50 3c 71 76 f6 bd b4 e1 ba 3e b9 51 17 3f
       0.012731984 -0.1203431 0.36500323 0.59109074
000360 80 ab f1 3b fb 4e 5a 3e 74 95 ec 3d ad d0 01 be
       0.0073751807 0.21319191 0.115519434 -0.1267726
000370 54 7d 71 be 62 08 8a be 53 60 45 3e 97 6b 5d be
       -0.23582965 -0.2695952 0.19275026 -0.21623074
000380 c1 81 ad 3e aa d2 83 be d9 11 d6 3d 75 56 30 be
       0.33888057 -0.2574666 0.10452623 -0.1722048
000390 f4 d5 9d be b0 d3 02 3e b4 ef e3 be 05 65 19 be
       -0.30827296 0.12776065 -0.44518816 -0.14979942
0003a0 40 de b8 be 81 c3 05 bd 90 48 c2 3e 86 1c 89 be
       -0.36107063 -0.03265715 0.37945986 -0.26779574
0003b0 31 70 e4 bc 39 7b d0 3d 8b a5 8a 3e e2 44 c4 bd
       -0.027885528 0.10179753 0.27079424 -0.09583451
0003c0 4b 9e 12 3e 7a d1 ed be 61 c0 aa 3e f5 a0 95 3e
       0.14318196 -0.4644888 0.33349898 0.29224363
0003d0 dd 8b d9 3e 27 cc b8 be cf f9 a4 3d 6a d8 f8 3d
       0.4248952 -0.36093256 0.0805546 0.12150653
0003e0 9f ff 8c be 87 81 80 be 60 2b d2 3e 4d 64 30 3e
       -0.27538773 -0.25098822 0.41048717 0.17225762
0003f0 0f 67 38 bc ee a3 df 3e f3 8d 9f 3e b1 56 c4 be
       -0.01125504 0.43679756 0.31162986 -0.3834739

blocks.0.attn.W_K f4 [4, 32, 8]
000000 ac cd 5a 3e b8 8c 4f bd cd 8b ac bd 49 15 f8 3c
       0.2136752 -0.05067131 -0.084251024 0.030283587
000010 5b 72 67 be c5 fc ac bd 11 cd d5 3d a0 5f c5 bd
       -0.22602217 -0.084466495 0.10439504 -0.0963738
000020 f1 8a 4c be d4 84 ac bd 4c 50 5b 3e 18 62 aa 3d
       -0.19974877 -0.084237725 0.2141735 0.08319491
000030 98 be 86 be 17 67 6a be 1d b2 e4 3c 4f 73 3b 3e
       -0.26317286 -0.22890888 0.027916962 0.18305705
000040 98 d1 08 be 28 e4 cc 3d c4 8d c2 bd f5 54 7c 3d
       -0.13361204 0.10004455 -0.09499696 0.06160446
000050 72 ef ea bd 11 95 1f 3e ab 7f 7e 3b 32 9a c5 3d
       -0.11471452 0.15584208 0.003883342 0.09648551
000060 9a fa 94 3e 9b 81 f7 3d 1d 9c 57 3c 24 fd b8 be
       0.29097444 0.12085267 0.013159779 -0.3613063
000070 96 b0 99 be 3e 85 42 3e 03 c2 71 3d 87 5c b2 3d
       -0.30017537 0.1899614 0.059022915 0.087090544
000080 ba 1f 66 3e 70 70 73 3e f3 0d 19 bc 39 14 79 3b
       0.2247304 0.2377336 -0.009341705 0.0038006438
000090 9c bf 4b 3e 1c ee 2b be b9 61 ef 3d c3 d8 9c 3e
       0.19897312 -0.1679005 0.11688561 0.30634126
0000a0 01 45 4d 3f c8 cb 20 bf 9b 1e 88 bf 11 6b ed 3e
       0.80183417 -0.62810946 -1.063434 0.46370748
0000b0 45 aa 97 3d 12 02 57 be bf 8f 4e 3f 13 9f 23 bf
       0.07405523 -0.20996884 0.8068809 -0.63914603
0000c0 f2 4e 5c 3d 83 f2 a9 3c 4c c0 26 3d 95 d4 1d be
       0.053786226 0.020745521 0.040710732 -0.15413125
0000d0 77 01 e6 3d 59 f3 02 bd cb 0a 00 be ac ae b6 3c
       0.11230748 -0.031970356 -0.12504117 0.022300087
0000e0 04 6a 05 be 61 87 85 3d c6 e8 19 be b3 ea 5f bc
       -0.13028723 0.06519962 -0.15030202 -0.0136667965
0000f0 e7 09 e0 3e d6 0b 89 3d a6 82 3e bd 6a 00 13 be
       0.43757555 0.06691711 -0.046511315 -0.14355627
000100 93 27 a2 bf 61 af 03 3f b0 69 94 3f 68 e5 2b bf
       -1.2668327 0.5143948 1.1594753 -0.6714692
000110 5f fc f2 3e 78 df 39 3e f2 a2 2f bf 53 0a 84 3f
       0.4745817 0.18151653 -0.6860801 1.0315651
000120 40 c3 6d 3e 80 ef 01 be 32 7e 42 3e 38 d7 a7 be
       0.23219013 -0.12689018 0.18993452 -0.32781386
000130 58 ba 98 3e 43 60 00 3e 95 c5 32 3e ef f2 79 be
       0.2982967 0.12536721 0.17458184 -0.24409078
000140 96 90 e6 bd ec 5c 68 be 6a 38 c7 bd d6 b9 ef bd
       -0.11258046 -0.22691697 -0.09727557 -0.11705367
000150 7c 99 cd 3e 28 fb 38 bd 99 3c d3 3d 22 9c 7a be
       0.40156162 -0.045161396 0.103142925 -0.24473622
000160 4b 78 7a 3e 62 0e d6 3d 1d b3 63 3e 9d 90 7b 3c
       0.2445995 0.10451962 0.22236295 0.015354303
000170 42 64 b0 bd 68 51 f5 3d 81 0f 1c be d5 85 f1 bd
       -0.08612873 0.11978418 -0.1524029 -0.117931046
000180 5d 66 e8 bc c8 9d a4 be dc 50 83 be 91 31 65 3d
       -0.028369123 -0.32151628 -0.25647628 0.055955473
000190 35 e7 cf be 65 99 a5 be 9b fc 3b be 51 b3 8a bd
       -0.40606084 -0.32343593 -0.1835808 -0.06772483
0001a0 75 a5 a4 be 65 4e 0e 3e d6 4d 0f be 63 6b 3c be
       -0.32157484 0.13897093 -0.13994536 -0.1840034
0001b0 cb 22 ae 3d 0f e3 24 bf 72 db f9 3e 2e 92 a8 be
       0.0850273 -0.64408964 0.48800236 -0.32924026
0001c0 5e 92 41 3e c4 cd 92 bc f4 9c 51 bb 35 cb 4b 3e
       0.18903491 -0.017920382 -0.003198442 0.19901736
0001d0 c8 89 88 3e 90 97 38 be 0f 67 06 be 92 09 c6 3d
       0.2666762 -0.18026567 -0.13125251 0.09669794
0001e0 0f 69 1b be b6 d8 9e bd 6c 69 d0 bd 14 9d 96 3e
       -0.15176795 -0.07756178 -0.101763576 0.29416716
0001f0 ed ef 1e be c0 e3 fb 3d aa 13 b0 bd c3 56 82 3b
       -0.15521212 0.12299299 -0.085975006 0.003977628
000200 dd c9 93 bd 6e d4 18 be dc 9d 2f 3e 1b 50 05 be
       -0.07216237 -0.14924785 0.17150062 -0.13018839
000210 02 07 91 bd 35 98 b8 3d c3 88 a2 3e 84 e7 f8 3d
       -0.07081415 0.09013406 0.31744966 0.12153533
000220 73 28 d4 3c 43 ba ad be 3c 6f 23 3c 50 47 38 3e
       0.025898194 -0.3393117 0.009975251 0.17995954
000230 5b aa 84 3d 08 40 a8 be 5b 57 aa be d1 54 8e be
       0.06477805 -0.32861352 -0.33269772 -0.27799085
000240 5b 0f 2d bd 1b 8c e5 be 68 a3 88 3e 0e 57 f4 3e
       -0.042250972 -0.44833454 0.2668717 0.47722667
000250 16 84 c9 3d 68 aa c9 3e 9f 63 81 bd 89 c0 86 3e
       0.098396465 0.39387822 -0.06317829 0.26318768
000260 64 0c 42 be db 18 43 3e 22 30 dc 3d b6 63 04 3f
       -0.18950039 0.1905245 0.10751368 0.51714647
000270 a4 44 0b 3f ca 0b 49 3e 40 87 4f 3e 82 ec 6e be
       0.5440161 0.19633403 0.20266438 -0.23332408
000280 d3 b7 28 3e 6e 8d bd 3e 1f 57 0e be 97 f2 89 3a
       0.16476373 0.37021965 -0.13900422 0.0010524568
000290 03 36 bb bd 4b aa 34 3d fc cb 1c be c9 12 e4 3d
       -0.09141161 0.044107717 -0.15312189 0.111363955
0002a0 43 0e 39 3e df ef 41 3e 79 2a 0f 3d 41 e7 a2 bd
       0.18071847 0.1893916 0.034952614 -0.079542644
0002b0 a6 9b 8e bd 4a 68 aa bd fd c2 93 3d 89 fe c7 3d
       -0.06963281 -0.08320673 0.072149254 0.097653456
0002c0 8a 51 fe bc 5d f7 69 bd 15 15 05 be e0 eb 3a bb
       -0.03104474 -0.05712067 -0.12996323 -0.002852194
0002d0 de bf 37 be 9b 3e a3 bd 9d 94 35 bd 43 85 39 3e
       -0.17944285 -0.079709254 -0.04433118 0.18117242
0002e0 31 35 98 be c2 b1 60 be b0 6b af 3c 86 b9 b5 3d
       -0.29728082 -0.21942809 0.021413654 0.088732764
0002f0 7e 98 c1 be 91 21 0b 3e 87 53 04 be 6a e0 5f be
       -0.37811655 0.13587023 -0.12922488 -0.21862951
000300 7a 2f 5b be 05 ad 2c be f3 06 97 3c 2f 37 77 be
       -0.2140483 -0.16862877 0.01843593 -0.24142145
000310 3b 89 0f be 00 42 90 3e bf 49 85 be d7 31 13 be
       -0.14017193 0.28175354 -0.26032826 -0.14374481
000320 86 c4 b6 3d 99 ff a9 be 76 76 74 3e 5e 58 48 be
       0.089242026 -0.33202818 0.23873314 -0.1956496
000330 db ac 47 3e dd cd 18 be 95 d2 42 3e e2 0f 42 3e
       0.19499533 -0.1492228 0.19025643 0.18951371
000340 46 0e ed bd dc 0f 79 bd c3 81 6a 3e 9e e1 f1 3d
       -0.11574988 -0.06080614 0.22901063 0.11810611
000350 01 2d 35 be da 5d 9d 3e 48 22 21 3d fd 3c 87 be
       -0.17692949 0.30735666 0.039339334 -0.26413718
000360 50 c4 32 3e 06 49 06 3e 22 e3 2a 3e 68 00 46 3d
       0.174577 0.13113794 0.16688207 0.04834023
000370 13 b5 a3 be 91 7d df 3c 5e d8 f1 3d 6e b0 d4 bd
       -0.31974086 0.027281554 0.11808847 -0.10385214
000380 93 8e 16 be 52 2a f1 3e e7 62 06 be 06 ea 74 3d
       -0.14702825 0.471026 -0.13123666 0.059793495
000390 1a 7e 9b 3e 7d 46 b6 3e 5a a5 88 be 29 9a ea be
       0.30369645 0.35600653 -0.26688653 -0.4582074
0003a0 c6 2b 9f bd f0 dd fb bc b5 e3 55 3e ca 19 9e bd
       -0.07772021 -0.030745476 0.20887645 -0.077197626
0003b0 ae 3f 32 3e 47 d7 95 3c cb 9c 9d bd 9a 99 d6 bd
       0.17407104 0.018291129 -0.076959215 -0.10478516
0003c0 bd 4f 1d be d3 4f 3a 3e 9c a4 29 be cd 99 cc bd
       -0.15362449 0.18194513 -0.165667 -0.09990273
0003d0 35 08 12 be 8b 34 e7 3d a3 62 13 3e 99 a5 d5 3d
       -0.14260943 0.11289319 0.14393096 0.10431976
0003e0 87 cd 17 3e bc ec 41 3e ba 5d ea 3d e5 f0 5f 3e
       0.14824496 0.18937963 0.11443658 0.21869238
0003f0 af 3b aa bd 3a 01 4b 3d c8 62 74 bd b4 66 89 be
       -0.08312165 0.049561717 -0.059664518 -0.2683617

blocks.0.attn.W_V f4 [4, 32, 8]
000000 af b2 0e bf 5c 2b 6c be 94 a8 e5 3d 7c 5f ad bd
       -0.557414 -0.23063415 0.11213794 -0.08465478
000010 82 ac fb 3c 4a 0d 33 be ef d4 5c be 97 7d b4 bd
       0.030721907 -0.17485538 -0.21565603 -0.08813017
000020 7d f4 99 3e 87 58 34 be 12 a3 2e 3e 56 63 88 bc
       0.30069342 -0.17611896 0.17054394 -0.01664893
000030 9e 22 89 be 35 02 2b 3e 0b 80 00 be fd 23 06 be
       -0.26784223 0.1670006 -0.12548845 -0.13099666
000040 9c f0 f8 3d 4b e9 2c be 79 f0 4a be 25 e1 99 3d
       0.121552676 -0.16885869 -0.19818296 0.07513646
000050 c0 4e 56 3e 40 ce cd be 76 0a 75 bc d4 3f c1 bd
       0.20928478 -0.4019642 -0.014956107 -0.094360024
000060 d6 a2 a5 3e 2f 2d 2b be 27 2f 0e 3e 8e 75 2e 3e
       0.32350796 -0.16716455 0.13885175 0.17037031
000070 df 59 b6 3d 24 ed c7 bd 92 55 51 be 4f ec 81 3c
       0.0890386 -0.09762028 -0.20442799 0.015859751
000080 8c 14 89 bc a7 5e 7d be 62 99 b5 3e 8b a6 91 3d
       -0.01673343 -0.24743138 0.35468584 0.07111844
000090 b8 8a 21 be a1 9c b1 bd 6f f5 8c 3c d6 5e 80 3e
       -0.15775573 -0.08672453 0.017206876 0.25072354
0000a0 25 80 38 ba e8 21 0d 3e 40 89 d3 3d 95 92 24 3e
       -0.0007038138 0.13782465 0.10328913 0.16071542
0000b0 3b f8 cf 3c 37 24 00 be 2c 61 bd bc ae e6 7d bb
       0.02538692 -0.12513815 -0.023117624 -0.0038742232
0000c0 be 37 86 be a8 b9 3b 3f d7 c0 52 be 67 cc b1 bd
       -0.26214403 0.73330164 -0.20581375 -0.08681565
0000d0 a2 71 a4 bd 56 81 0d be 2f fa e2 bd c9 aa d8 3d
       -0.08029486 -0.13818869 -0.11082875 0.1057945
0000e0 41 fd 96 bd 67 53 99 be 48 f2 ac be b3 9c af 3e
       -0.07372523 -0.29946443 -0.33778596 0.3429924
0000f0 ae f9 66 be 43 82 85 3e b4 7c 91 3e 40 33 62 be
       -0.22556183 0.26075944 0.28415453 -0.22089863
000100 90 ca 49 3c f5 30 98 3c cf 8b 00 3e 14 6d 3d 3d
       0.012316361 0.018578032 0.12553333 0.046246603
000110 35 63 52 3d c8 2b 84 bd 8f 90 e0 3c 79 09 fd bb
       0.051364142 -0.06453663 0.02741268 -0.0077220765
000120 bb e7 50 3e 55 ef 3e 3d c9 61 ec bd 82 dd 86 be
       0.20400898 0.046614964 -0.115420885 -0.26340872
000130 25 bd 80 be 12 ba 98 bd 4f c1 ca 3d 63 f6 13 bd
       -0.25144306 -0.07457365 0.09900152 -0.036123645
000140 c2 5e d1 3d 74 b3 51 3e c1 a9 3c be e6 5d 92 bd
       0.10223152 0.20478612 -0.18424131 -0.07146816
000150 3b 3e eb 3d e1 e3 ee 3c c1 f6 85 3d ba 94 b9 3d
       0.11486479 0.029161396 0.06541205 0.090615705
000160 71 7a f8 3e 83 21 a2 bd c1 20 64 be da bb 52 3c
       0.48530915 -0.07916548 -0.2227812 0.01286217
000170 5e b0 82 3e e2 4c 9f bd ef 99 36 3c 59 b8 00 3c
       0.25525182 -0.07778336 0.011145099 0.007856452
000180 72 a4 44 3e df 82 85 3c 95 7a 41 3e 51 24 b8 be
       0.19203356 0.016297756 0.18894418 -0.35965207
000190 ec de 55 3d 3c c0 27 bd cd 92 21 3c fb 52 ce 3d
       0.052214548 -0.040954813 0.00986166 0.10074421
0001a0 d2 dd dc 3c b2 aa e2 3d 76 5a 81 3e ce 42 80 bd
       0.02696124 0.11067714 0.2526433 -0.06262742
0001b0 2c ff fb bc 0b ab 03 3e c9 d0 8e 3c 49 e2 6b 3d
       -0.030761324 0.12858216 0.01743354 0.05758885
0001c0 14 8e 62 3e 5c a1 1e 3e aa 2a 1d be 16 13 83 3d
       0.22124511 0.15491241 -0.15348306 0.06400125
0001d0 97 e6 8f 3a a7 6a 4b 3e 57 ce 1a 3f 1e e4 58 3e
       0.0010978755 0.19864903 0.604711 0.2118077
0001e0 ad 45 75 be 44 95 d3 3d c7 55 6c 3e 26 a4 7c 3e
       -0.2395236 0.103312045 0.23079596 0.24671993
0001f0 61 db 01 be 5f f8 c3 3d 6b 87 b4 3b 8c 5d cc 3e
       -0.12681343 0.095688574 0.005509307 0.3991512
000200 e9 a8 1b be d5 b1 21 b9 3b de e0 bd 73 d4 c9 be
       -0.15201153 -0.00015420404 -0.10979887 -0.39419898
000210 8c 55 4c 3e 9c 62 2b 3f be c7 80 3d 63 5b 25 3c
       0.19954509 0.6694734 0.06288098 0.010092589
000220 3f 28 82 be fa a2 ba bd 9f f0 35 be a9 f6 2c bd
       -0.2542133 -0.091131166 -0.17767571 -0.04222742
000230 ac 24 83 bd 64 bb 9c 3d 12 e9 e5 bd 05 3d 99 bd
       -0.06403479 0.076529294 -0.11226095 -0.07482342
000240 49 b1 e8 3c 18 ff 8b be 19 f2 dd bd 8a 95 6b bd
       0.028404849 -0.2734306 -0.10837192 -0.05751566
000250 d0 4b a7 bc dc 7d 8e bd a4 e1 6f 3e 55 da 9b 3c
       -0.020421892 -0.069575995 0.23425919 0.019025007
000260 31 fe ad 3d ec cb bb 3d 53 7b 85 bd 99 97 61 be
       0.08495749 0.091697544 -0.06517663 -0.22030486
000270 5c d2 aa be 04 e9 09 be 34 ec 8d 3d c4 de 64 3c
       -0.33363616 -0.13467795 0.06929818 0.013969127
000280 67 40 7c bd c8 95 2b bd ce a3 ca be a2 09 cb bd
       -0.061584856 -0.04189089 -0.39578098 -0.09913947
000290 19 51 07 bd 3e a0 97 bd 20 c8 99 be 70 f9 90 3e
       -0.033036325 -0.07403611 -0.30035496 0.28315306
0002a0 cb b8 79 bd e2 27 fc bd 4a c7 73 be 10 6b 64 be
       -0.060967248 -0.123122945 -0.23806491 -0.22306466
0002b0 3e e4 14 be 3c e4 ce bd 7f e6 ad be d9 cc 04 be
       -0.14540192 -0.10102126 -0.33964917 -0.12968768
0002c0 7a 52 8e 3d 82 31 33 be e8 43 53 3e a1 fa bb 3e
       0.06949325 -0.17499354 0.20631373 0.36714652
0002d0 4a ac 9b bd cc a4 93 be 1e 7f 18 3f 34 98 1b 3d
       -0.07601221 -0.28836668 0.59568965 0.03798695
0002e0 4c b6 37 3e 98 c8 95 3d 04 0c 88 bd 28 1f 5f be
       0.17940634 0.07313651 -0.06642917 -0.21789229
0002f0 6d d7 07 be 50 5a 47 3e 09 08 f6 3d a2 61 2b be
       -0.13265772 0.19468045 0.12013251 -0.16736463
000300 db 9c 2c 3e 84 b1 77 be a6 39 19 be ce ca cd 3e
       0.1685671 -0.2418881 -0.14963397 0.4019379
000310 29 64 92 3e 14 ee 3a 3e f8 d3 35 3d c8 33 2a bd
       0.2859204 0.18254882 0.044391602 -0.04155329
000320 47 db 45 3e 4c dd 01 3e da 35 83 3e 07 fb e5 bc
       0.19321929 0.12682074 0.25627023 -0.0280738
000330 fc 2a b0 be e1 9b ac bc 93 8f 3c be a9 a3 6b be
       -0.34407794 -0.021070423 -0.18414144 -0.2301165
000340 e2 c8 02 3b 42 ae 09 3e c0 ba ce bd f2 41 b4 3d
       0.0019956161 0.1344538 -0.100942135 0.088016406
000350 75 8c 95 3d 9c 78 a7 be 10 32 68 3d 58 90 9d bd
       0.07302181 -0.32709205 0.05668837 -0.07693547
000360 42 9e 3a be 45 cb 3b be 70 57 da bd 02 e9 92 ba
       -0.18224433 -0.1833926 -0.10661209 -0.0011208358
000370 51 fd ba 3d 00 8c 69 3e a4 d9 20 3e 09 44 5f bd
       0.091303475 0.22807312 0.15708023 -0.054508243
000380 3d 09 3c 3e 3d 75 84 bd 06 a0 65 3e 72 10 f2 bd
       0.18362899 -0.06467674 0.22424325 -0.11819543
000390 e1 6d c0 3d a9 d4 dd 3c c8 f0 75 3e d8 5d 3a be
       0.09395958 0.027078943 0.24017632 -0.18199861
0003a0 0b d8 41 bd 0b 86 08 be 59 29 4c be 41 c1 8d 3a
       -0.047325175 -0.13332383 -0.19937648 0.001081504
0003b0 bb 26 9f 3e 5a a7 c5 be 71 1a 91 bd b6 ed c5 bb
       0.31084237 -0.38604242 -0.070851214 -0.0060403002
0003c0 2d da b8 be b3 a1 67 3e 01 90 a5 bc d8 db 1f be
       -0.36103955 0.22620277 -0.020210268 -0.15611207
0003d0 d5 74 be 3e 69 f6 6c 3e ef 6f a6 be dd 9f b1 be
       0.3719851 0.23140873 -0.32507274 -0.34692279
0003e0 1e 61 34 be 24 b2 01 3e d9 f9 59 be e1 20 75 bd
       -0.17615172 0.12665612 -0.21286716 -0.05984581
0003f0 f9 18 bb be 18 ec 47 3e c7 de 18 be be a0 80 bd
       -0.3654249 0.19523656 -0.14928733 -0.06280659

blocks.0.attn.W_O f4 [4, 8, 32]
000000 55 6c 11 be b5 20 87 bd 58 34 07 3e 23 06 d9 bd
       -0.14201482 -0.06598035 0.13203561 -0.105968736
000010 c3 11 76 3d bd eb 6b 3e a6 67 99 3e 44 fe b5 bc
       0.060075533 0.23039146 0.2996189 -0.02221597
000020 ba 7e b2 bd e8 33 c7 bd e5 5d a9 3e 4b 8b 84 3d
       -0.087155774 -0.09726697 0.33079448 0.064718805
000030 b2 1d 45 3e 82 50 53 be 83 ae 3b bd ed 05 aa 3e
       0.19249609 -0.2063618 -0.045820724 0.33207646
000040 58 1a 85 3e 83 4f c2 3d bf 46 07 be 75 2b 01 3d
       0.2599666 0.09487822 -0.13210581 0.031535584
000050 60 cb f1 3d 28 78 27 3d 1e d6 cf bd 38 ea 25 be
       0.11806369 0.040886074 -0.101482615 -0.16202629
000060 ce f0 53 3e 6f 33 20 3d 3e ac f8 bd 6d a4 cd 3d
       0.20697328 0.03911155 -0.121422276 0.10041127
000070 7b 9a dc be 39 0c 27 be 1b f2 8d 3e 4e cc fc bc
       -0.4308661 -0.16313256 0.27723774 -0.030859139
000080 ff cd 49 bd 30 24 42 3e f2 21 d0 3e 08 dd 37 be
       -0.04926872 0.18959117 0.40650898 -0.1795541
000090 69 68 3e 3e ac 5c f1 3c 7b 17 b0 3c 93 9b ad 3d
       0.18594517 0.029463135 0.021495571 0.08476939
0000a0 60 e2 dd 3c a4 e2 93 3d 8b 44 78 be ce 21 98 3d
       0.027085483 0.07220963 -0.24244897 0.07428323
0000b0 86 6c 45 3e 3a 34 17 3e 53 d7 cf 3d eb 3e 3f 3d
       0.1927968 0.14766017 0.10148492 0.046690863
0000c0 4c e9 dc be 1b 27 b5 3d 89 08 5b be de 1f 44 3e
       -0.4314674 0.088453494 -0.21389975 0.19152781
0000d0 51 f1 b2 be 09 06 61 3e e5 84 16 bc 48 29 47 3d
       -0.34949735 0.21974958 -0.009186958 0.048623353
0000e0 06 af d2 bc e4 1e 8a be d7 86 be 3d 95 21 7e be
       -0.025718223 -0.26976693 0.093030624 -0.24817498
0000f0 06 fe 7c 3d 4e e2 c1 bc 57 ee 03 be c9 c0 a1 be
       0.061765693 -0.02366748 -0.12883888 -0.31592396
000100 1d f5 8f 3d f3 bd 51 be 28 15 ce be 1f 90 99 be
       0.070291735 -0.20482616 -0.40250516 -0.29992768
000110 2f 08 a3 bd 9d 33 4c 3e ca 0d 82 3e 90 23 c9 3d
       -0.07960545 0.19941564 0.25401145 0.09821236
000120 e4 24 14 be 2a c3 30 3d d6 8e 18 be 52 13 2f bd
       -0.14467198 0.043154873 -0.14898238 -0.042743035
000130 de 69 3f be 06 93 1b 3d 8a 12 29 be 79 06 39 3e
       -0.18692729 0.03798201 -0.16510978 0.18068875
000140 ae 12 52 be 0b 51 26 be a7 61 96 bd 1d b8 5f 3e
       -0.20514938 -0.16241853 -0.073428445 0.21847577
000150 f0 89 15 3e 5b 86 c4 3e db 8e d1 bb bf a0 06 3e
       0.146034 0.38383755 -0.0063952035 0.13147257
000160 53 83 6a 3d eb 64 f4 3d ad 70 5d 3d c6 73 b3 3c
       0.057254147 0.11933311 0.054062534 0.021905791
000170 63 8a 08 3e 1b da 20 be 27 c2 17 3e a0 8b 56 3e
       0.1333404 -0.157082 0.14820157 0.209517
000180 2d d7 9a 3d 35 50 bb bd 0e e3 cf bd 02 e7 f2 bd
       0.07560573 -0.09146158 -0.10150729 -0.118604675
000190 2b 3c 28 3e 82 b3 2b 3c 1f 6d ba be 69 75 5c be
       0.16429202 0.01047981 -0.36411378 -0.21529163
0001a0 a8 79 25 3e 61 61 e6 bb 28 a1 91 3e 4f 5e 15 3e
       0.1615969 -0.0070306514 0.28443265 0.14586757
0001b0 70 de 1e 3d 56 8c 5d be 23 e2 6a 3e a8 c8 88 bd
       0.03878635 -0.21635565 0.22937827 -0.06678897
0001c0 00 0c 09 be 18 c7 b5 bc 97 e2 00 3e b8 88 a5 3e
       -0.13383484 -0.022189662 0.12586437 0.3233087
0001d0 6e e3 17 3e 28 b0 6b 3d e3 db 44 bd a0 fb f7 bc
       0.14832851 0.057541043 -0.048061263 -0.030271351
0001e0 2d 72 6d be cd 90 be be 74 92 58 bc 54 ea a1 3d
       -0.23188086 -0.3721985 -0.013218511 0.07906023
0001f0 2c 00 d3 3d 18 1f 36 3e 67 70 0d be ad 46 5a 3d
       0.10302767 0.17785299 -0.1381241 0.053290058
000200 d0 c2 9f 3e 66 da 6e be 92 64 98 3e 3b 2a 2c bd
       0.31203318 -0.233255 0.2976423 -0.04203246
000210 60 09 21 be 97 53 7a be da 38 20 3e 0b d7 6b be
       -0.15726233 -0.2444595 0.15646687 -0.23031251
000220 9c 7c b3 3d 23 83 91 bd ba c4 a4 3d 25 4f 92 bd
       0.08764002 -0.071050905 0.08045335 -0.07144002
000230 98 d6 e0 bd 53 02 0f bc a8 f5 27 be 5a 7c 27 bd
       -0.109784305 -0.0087285815 -0.16402304 -0.040890075
000240 d8 9a d1 be 6b ef 1c 3e 92 c1 d5 3d 4e 77 2c be
       -0.4093845 0.15325706 0.10437311 -0.16842386
000250 04 13 b0 bd 46 6d a0 3c c9 ba 2d bd f9 c1 85 bd
       -0.08597377 0.019583356 -0.04241446 -0.06531138
000260 a6 46 0e bd 50 c1 d7 bd 08 37 2b 3e 33 50 ff 3d
       -0.034735344 -0.10534918 0.16720212 0.12466469
000270 b7 a9 b8 bd ee f7 f7 bc 07 c5 b9 3e e3 04 c0 3d
       -0.090167455 -0.03026959 0.36283132 0.09375932
000280 7f fe 8d 3d 54 01 8e 3d 08 3b 01 be ad fe 3e 3e
       0.06933307 0.06933847 -0.12620175 0.18651839
000290 32 ff 10 3d aa 94 78 3d c7 08 51 3c 09 1d 24 be
       0.035399623 0.060688652 0.01275844 -0.16026701
0002a0 4f 6b 58 3e b6 14 8d be eb 7a d6 bd 31 1c 98 3c
       0.21134685 -0.27554864 -0.104726635 0.01856813
0002b0 60 0d 8d 3e e7 ca 8b be 9d 86 f1 be 7d 8d 93 bd
       0.27549267 -0.2730324 -0.47173014 -0.07204721
0002c0 ca 99 2d 3e a5 74 0e be 46 27 7b 3e 19 cc 2f be
       0.16953197 -0.13911684 0.245267 -0.17167701
0002d0 5e 32 88 ba 03 5e c5 3d 45 04 8a 3d af e7 cc bb
       -0.0010390987 0.09637072 0.067390956 -0.006253205
0002e0 46 9b 9d be 68 77 b1 bd 0b 05 aa 3d c9 5c 40 bd
       -0.30782527 -0.08665353 0.08301743 -0.046963487
0002f0 6f 35 bd 3c 6f ba ef bc dc 8b 68 3e cd e0 9d be
       0.023096768 -0.029263703 0.22709602 -0.30835572
000300 a2 2b 5b 3e dd 12 33 be 37 bc 00 3e 4b d7 49 3e
       0.21403363 -0.17487665 0.12571798 0.19711034
000310 6d 8f 29 bc e9 24 26 bd 94 2c 2f 3d a1 e7 19 3d
       -0.010349137 -0.040562544 0.042767122 0.037574414
000320 cc 05 88 bd 03 5a b5 bc 4f bb 05 be 93 4f 7c be
       -0.06641731 -0.022137647 -0.13059734 -0.2463973
000330 63 d5 40 3e 7e 2b b6 3c f4 94 8b bc fb 3e 48 3e
       0.188314 0.022237536 -0.0170388 0.19555275
000340 c7 10 ad bd 9a 85 08 3d 3e e7 c3 bd f6 6b e4 3d
       -0.08450466 0.033330537 -0.0956559 0.111534044
000350 10 25 aa bc 8b cf 0c 3d 5d c3 24 3d 6b aa e0 3d
       -0.020769626 0.034377616 0.040225375 0.10970005
000360 4d 4f 4a be ae 22 4f bc 2f 32 f7 3d ac ae e7 3d
       -0.19756813 -0.012642546 0.12070119 0.11312613
000370 a2 82 71 3d e3 f7 a8 3c b7 88 5b be de 5d fc bd
       0.05896247 0.020626014 -0.21438871 -0.12322591
000380 4d f7 32 3e 81 f6 23 3d cb 60 f1 3d be b4 43 be
       0.1747715 0.040030006 0.1178604 -0.19111916
000390 4c 73 02 be 40 37 ed bd 34 82 ba bd eb 20 33 3d
       -0.12739295 -0.11582804 -0.091068655 0.043732565
0003a0 e7 59 e0 bd b3 66 2c bd c8 e0 61 bd 25 69 48 bd
       -0.109546475 -0.04209013 -0.05514601 -0.0489284
0003b0 7f 6b 00 3e 2c 6f 20 bd b4 b7 8c bd af 55 70 be
       0.12541007 -0.03916852 -0.06870976 -0.23470186
0003c0 b5 21 45 3e d6 80 e5 3d 22 51 30 be df 3a 1d 3d
       0.1925114 0.11206214 -0.1721845 0.038386222
0003d0 35 f2 a9 bd 23 d4 41 3e 47 8f e3 3d 83 f5 03 be
       -0.082981504 0.1892858 0.11111312 -0.12886624
0003e0 88 6e 2a be f5 41 3a 3e 11 c6 ca 3d 12 e2 4e 3d
       -0.16643727 0.18189223 0.099010594 0.050508566
0003f0 5b 35 8e 3d 3c f1 75 3e f3 91 be bd 8b 11 89 3e
       0.069437705 0.24017805 -0.09305181 0.26771197

blocks.0.attn.b_Q f4 [4, 8]
000000 e1 a6 1d 3f e0 1f f9 be ba 9f 68 bf b2 ed d9 3e
       0.6158276 -0.4865713 -0.90868723 0.4256416
000010 5d 0b 2e bd d6 a2 63 be ff d2 1d 3f da 76 18 bf
       -0.042491306 -0.22230086 0.6165008 -0.59556353
000020 c2 63 de 3d 40 b5 99 3f 81 aa 09 bf 8b 6a b5 be
       0.10858871 1.2008438 -0.53775793 -0.35432848
000030 3a 43 5d be 0e ab 9f 3e 15 9f b9 3f f3 7e 17 3f
       -0.21607676 0.31185192 1.4501673 0.59178084
000040 76 23 77 bf ea 00 31 3f e0 c3 00 bf b7 02 df be
       -0.96538484 0.6914202 -0.5029888 -0.4355676
000050 ce ef 6c bf 2f ac 75 3e 5a ab 12 be fe b7 52 bd
       -0.9255341 0.23991464 -0.14323178 -0.051445
000060 fa 89 69 be b4 93 78 3f 22 88 74 bf de eb c1 3d
       -0.2280654 0.9710038 -0.9552022 0.09468816
000070 44 4f 2f be 71 d5 e9 3c 81 92 92 3e 6a 6b 16 bf
       -0.17120081 0.02854416 0.286274 -0.5875765

blocks.0.attn.b_K f4 [4, 8]
000000 db d4 35 bc d2 1c ac bb 6f 95 f3 3c 14 21 ab bc
       -0.011098112 -0.005252459 0.029734341 -0.020889796
000010 c2 24 10 3c 59 dd 91 bb 9f 66 2f bc 76 3c 6b 3c
       0.008797826 -0.0044514355 -0.010705619 0.014357677
000020 dc 9d 7c 3b 9c 77 8a 3c 83 26 55 bc 12 03 ff bb
       0.003854624 0.016902737 -0.01300967 -0.0077823484
000030 89 19 f5 3a 1e 93 8e 3c 0e 83 d6 3c 24 7f 93 3c
       0.0018699627 0.017404135 0.026185539 0.018004961
000040 1c c5 dd bb 40 c8 ec 3c 95 81 1f bc f4 ba 3c 3c
       -0.006767882 0.02890408 -0.009735485 0.0115191825
000050 cb 05 bb bb 35 99 aa 3a d7 28 3d bc 1d c5 6a 3c
       -0.0057074777 0.001301563 -0.0115453815 0.014329222
000060 3a 30 57 3b 4d 6d 1c bc 27 c4 f7 bc 97 d1 cd bb
       0.0032835142 -0.009547544 -0.0302449 -0.0062810886
000070 dd 44 f9 bb 96 57 ae 3c bd e4 d1 3b 5a 06 e7 bb
       -0.007607086 0.021281999 0.0064054416 -0.0070503177

blocks.0.attn.b_V f4 [4, 8]
000000 23 59 b5 3d 02 50 fb 3b 00 f4 a3 bd 0e f4 4d bd
       0.08854892 0.00766945 -0.08005524 -0.050281577
000010 26 d0 b6 3c b1 ea 40 3d 23 cf 3b bd e2 fe e1 bc
       0.02231605 0.04709882 -0.045851838 -0.027587358
000020 17 d8 d0 bc 5f d2 53 bd 31 2e a1 bd fb 4b d7 3c
       -0.025493665 -0.051714297 -0.078701384 0.026281347
000030 b1 fd 38 3d ea d2 75 3d 08 30 6e bc 9f 86 23 3d
       0.045163814 0.060015596 -0.014537819 0.039923307
000040 6e 1e 0f 3d 4f 0e 6a 3d 60 48 20 bd c7 f6 23 3d
       0.03494113 0.057142552 -0.039131522 0.040030267
000050 54 ed c8 3c f5 88 31 3d e7 f6 cc 3c 8a e0 2f bd
       0.02452723 0.043343503 0.025020076 -0.042938747
000060 ed ae a8 bd 10 c6 94 3d db 69 01 3c 09 60 a1 bb
       -0.082364894 0.0726434 0.007898773 -0.0049247784
000070 a5 30 c2 3c 91 bd 82 3d 03 05 bf bc 71 8d 97 3d
       0.023704836 0.06383813 -0.02331782 0.07400025

blocks.0.attn.b_O f4 [32]
000000 17 dc 01 be 30 02 e5 3d da a1 a3 3c 14 87 92 3c
       -0.12681614 0.11182058 0.019974638 0.017886676
000010 0b 27 0e 3e 3f 96 4d bd 25 fe 1a be 10 48 4e 3d
       0.13882081 -0.050192114 -0.15136011 0.050361693
000020 f2 a3 71 3e 13 ed 95 3d 56 cb 7e bd ea 68 6e 3d
       0.23597696 0.07320609 -0.062205635 0.058205523
000030 70 13 ae bc 79 01 1b 3e b2 04 ca bd f5 64 f7 bd
       -0.021249503 0.1513728 -0.09864177 -0.12079803
000040 fe f8 26 bd 16 a4 18 be ff 4f 53 be c6 73 19 be
       -0.0407648 -0.14906344 -0.20635985 -0.1498557
000050 62 6e 17 be 4c 1c fc 3d 59 27 12 bd 2c 4e 73 3d
       -0.14788201 0.12310085 -0.035682056 0.059400722
000060 b8 dd b3 bd 11 ea c2 bd 76 40 f6 bd ac 9a 3f 3e
       -0.08782524 -0.09517301 -0.12024014 0.18711346
000070 93 ff c5 bd 87 0a 05 be 2e dd 1b 3e 7f e2 06 3e
       -0.096678875 -0.12992297 0.15221092 0.13172339

blocks.0.ln2.w f4 [32]
000000 e2 11 f0 3f a1 f6 ce 3f ed 96 9e 3f 80 e0 d0 3f
       1.8755457 1.6169015 1.2389809 1.6318512
000010 64 8b b0 3f cb 3b a1 3f a5 19 d4 3f 0c 0a a8 3f
       1.3792539 1.2596372 1.6570326 1.3128066
000020 c8 f1 a0 3f ce aa e3 3f 37 53 9a 3f 65 67 b6 3f
       1.2573786 1.77865 1.2056645 1.4250304
000030 15 d0 16 40 7f 9b ac 3f a0 0d b3 3f 40 e9 d1 3f
       2.3564503 1.3484954 1.3988533 1.6399307
000040 8a 7e 99 3f e5 90 bf 3f 45 5b be 3f a6 a9 eb 3f
       1.1991742 1.4966093 1.4871603 1.8411148
000050 8f fc ac 3f 74 87 c1 3f 1d b5 cb 3f 6a ad c3 3f
       1.3514575 1.5119462 1.5914646 1.5287297
000060 40 63 cf 3f 05 d5 90 3f 65 52 ca 3f b0 02 cf 3f
       1.6202164 1.1315008 1.5806395 1.6172695
000070 f2 40 a1 3f 25 12 e4 3f 74 78 a4 3f 53 2f f2 3f
       1.2597945 1.7818037 1.2849259 1.8920692

blocks.0.ln2.b f4 [32]
000000 12 d7 45 3f a7 3f d5 be cc 8b e1 be 01 ee 0b 3e
       0.77281296 -0.41650125 -0.4405197 0.1366501
000010 f4 0a 0d be 1d 89 ec 3e 39 eb 7a 3f 8e a6 13 bf
       -0.1377371 0.4619836 0.9801517 -0.5767602
000020 97 3a 09 ba 79 8a c1 bd d4 6f 1c 3f ad 07 e4 bd
       -0.0005234866 -0.0945024 0.61108136 -0.111342765
000030 87 0e c4 3d ff 8e a6 bd aa 24 89 3f cd 3d 13 3f
       0.09573083 -0.08132743 1.0714314 0.57516176
000040 dd 8c 35 3f 3d 4d 0e 3f 12 ec 0e be 1e 4e 49 3f
       0.70918065 0.55586606 -0.13957241 0.7863482
000050 1a 98 46 3f 4a b1 9d 3d c0 d6 df 3e 30 17 6f be
       0.7757584 0.07699831 0.4371853 -0.23348689
000060 30 69 71 bf 24 4f 0f 3f 5e 95 1f be f5 76 5e 3c
       -0.9430113 0.55980134 -0.15584323 0.013578166
000070 73 a2 22 3e 20 b3 ad bd 5b 62 2c bf 5f f3 b8 be
       0.15882282 -0.08481431 -0.6733758 -0.36123177
